graph_models/binder/ros/GIN.pth (torch, 381074 bytes, 23 tensors)

conv_layers.0.nn.weight f4 [128, 32]
0	0xbd6406bf	-0.055670496
1	0xbd3baaea	-0.045817293
2	0x3dcfae8f	0.10140716
3	0x3d945ff3	0.07244863
4	0xbe5ecd66	-0.21758041
5	0xbdd38800	-0.10328674
6	0x3dc72f20	0.09725785
7	0xbe058da1	-0.13042308
8	0x3e46ef65	0.1942726
9	0xbdccefce	-0.100066766
10	0x3c8a544a	0.016885895
11	0xbd5eda10	-0.05440718
12	0x3e60e632	0.21962813
13	0xbdded02b	-0.10879549
14	0x3e8af41d	0.2713937
15	0x3db92b89	0.09041507
16	0xbddcc358	-0.10779446
17	0x0005769c	5.01727e-40
18	0x3cbf2af3	0.02333591
19	0x3e49fe8a	0.19726005
20	0xbe29741d	-0.165482
21	0xbcf535be	-0.029932853
22	0x3e0e0b02	0.13871387
23	0x3d1ebe4e	0.038755707
24	0xbdd1c86d	-0.10243306
25	0x3e2143ec	0.15748566
26	0xbb8e9b93	-0.004352042
27	0xbe66e74c	-0.2254917
28	0xbb1432fe	-0.0022613402
29	0xbd3e9f33	-0.046538543
30	0xb9ba921e	-0.0003558555
31	0x3d8277d5	0.063705124
32	0xbe0d7532	-0.13814238
33	0x3e49f6b6	0.19723019
34	0xbe79a086	-0.24377641
35	0x3d56dc1b	0.052456003
36	0x3de83533	0.11338272
37	0x3d820553	0.06348672
38	0xbdc08a78	-0.09401411
39	0xbd1ceb27	-0.038310196
40	0x3df6ff46	0.12060408
41	0x3e17fc21	0.14842273
42	0x3e7a04a0	0.24415827
43	0xbdbc1fa6	-0.09185724
44	0xbe23f317	-0.160107
45	0x3e200ed5	0.15630658
46	0x3e7dbe2f	0.2477958
47	0x3cf5d1f5	0.030007342
48	0x3d9f2cba	0.07772203
49	0x000459dd	3.99579e-40
50	0x3ce85fbf	0.028365968
51	0x3df372c1	0.11887122
52	0x3d0b48ae	0.03400486
53	0xbd878769	-0.06617624
54	0x3df7fcb3	0.121087454
55	0xbe2badcf	-0.16765521
56	0x3d1715fe	0.036886208
57	0xbdea88cf	-0.114518754
58	0x3e4da2e8	0.20081675
59	0xbd013166	-0.03154125
60	0x3e301397	0.17194973
61	0x3d00ec8e	0.031475596
62	0x3c563c25	0.013075863
63	0x3dd864cf	0.10566103
64	0xbdcca33f	-0.09992074
65	0x3e40a902	0.18814471
66	0x3d5ce2f3	0.053927373
67	0x3dccd234	0.100010306
68	0x3dad0dfe	0.084499344
69	0xbdd53aed	-0.1041163
70	0xbe1c7258	-0.15277994
71	0x3bb37af8	0.0054773055
72	0x3d095650	0.03352958
73	0x3d6c3df6	0.057676278
74	0xbd82458f	-0.063609235
75	0xbd85b8d7	-0.06529396
76	0xbe23735c	-0.15961975
77	0xbd227c7e	-0.039669506
78	0x3e84085a	0.25787622
79	0xbe255c27	-0.16148435
80	0xbe00fa9e	-0.12595603
81	0x8008221f	-7.46924e-40
82	0x3d2cb8d7	0.042168465
83	0xbe1abb1a	-0.15110436
84	0x3e4ec88c	0.2019369
85	0x3e24d376	0.16096291
86	0x3e0879ca	0.13327709
87	0x3dd8c391	0.10584176
88	0x3d1543ec	0.03644173
89	0xbe532705	-0.20620354
90	0xbe828c68	-0.25497746
91	0x3e8ea893	0.27862987
92	0x3e34b821	0.17648365
93	0xbdbdd3b0	-0.09268892
94	0x3ec03d46	0.37546748
95	0xbd961f6b	-0.07330211
96	0x3e2d105d	0.16900773
97	0x3d4fffb6	0.050780974
98	0x3e37c29e	0.17945334
99	0xbdffe6fe	-0.1249523
100	0xbe5122a3	-0.20423369
101	0x3dfd4a2c	0.12367663
102	0xbd6d0dcd	-0.05787449
103	0x3da28fff	0.07937621
104	0xbdd8178d	-0.10551367
105	0x3d86cd33	0.065821074
106	0x3de54101	0.11194039
107	0x3c9132d5	0.017724434
108	0xba9bd74c	-0.0011889725
109	0xbc891adb	-0.016736438
110	0x3d258e1a	0.04041872
111	0xbd998963	-0.074969076
112	0xbe0556c6	-0.13021383
113	0x00075fd6	6.77228e-40
114	0x3cd45235	0.025918106
115	0xbe410e39	-0.18853082
116	0xbcf9b4b7	-0.03048168
117	0x3e12c7a4	0.1433397
118	0xbc4da694	-0.012551922
119	0x3e22dfea	0.15905729
120	0x3d867420	0.06565118
121	0xbe02c5e4	-0.12770802
122	0xbe46f904	-0.1943093
123	0x3e707ba3	0.23484664
124	0x3bfed679	0.007777032
125	0xbe3d1513	-0.1846507
126	0xbd9639e0	-0.073352575
127	0x3e40b707	0.1881982
128	0x3dd48083	0.10376074
129	0xbe78127f	-0.24225806
130	0x3ca74a04	0.020421036
131	0xbc8af45e	-0.016962226
132	0xbe7d76b5	-0.24752314
133	0xbe8858f2	-0.2663036
134	0x3d82bf2b	0.06384119
135	0xbdc28d52	-0.09499611
136	0xbe47e805	-0.19522102
137	0x3ae4c3e2	0.0017453397
138	0xbe27dcd9	-0.1639284
139	0x3e1a021b	0.15039866
140	0xbd1c5d0d	-0.038174678
141	0x3d1f9a11	0.03896529
142	0xbdf4c646	-0.1195188
143	0x3e6168ab	0.22012584
144	0xbd809d2d	-0.06279979
145	0x0003993d	3.30478e-40
146	0xbdd6294a	-0.10457094
147	0xbdf90b73	-0.12160387
148	0xbd83edae	-0.06441818
149	0x3c914c38	0.01773654
150	0x3e2d0d50	0.1689961
151	0xbd697842	-0.056999452
152	0x3d81e2f0	0.06342113
153	0xbbed8ac6	-0.007249209
154	0x3e623e05	0.22093971
155	0xbe25ca6d	-0.161905
156	0x3b085215	0.0020800878
157	0xbe0937bd	-0.13400169
158	0xbe84f0d6	-0.25964993
159	0xbe57d17b	-0.21076004
160	0xbd9615c7	-0.073283724
161	0x3e8fd43c	0.2809161
162	0x3d8212dc	0.063512534
163	0xbe1caf47	-0.15301238
164	0xbe13e640	-0.14443302
165	0x3de51a9e	0.111867175
166	0xbcc8292a	-0.024433691
167	0xbdc0fc9f	-0.09423184
168	0x3d39164b	0.045187276
169	0xbe61eb45	-0.22062404
170	0x3e9ac625	0.30229297
171	0x3c8818e4	0.016613431
172	0xbe17fd29	-0.14842667
173	0x3e1a4a95	0.15067513
174	0x3e8aa461	0.27078536
175	0xbe06af04	-0.131527
176	0xbe25e2ea	-0.16199842
177	0x80088fa6	-7.86215e-40
178	0xbdd2b081	-0.10287572
179	0x3d00bf3f	0.031432386
180	0x3d5d3071	0.054001275
181	0x3db30e0a	0.08742912
182	0xbdaa7adf	-0.08324217
183	0xbe33cf54	-0.17559558
184	0xbe4dd5e1	-0.2010112
185	0x3e2c9f47	0.16857634
186	0xbdb3bbc2	-0.08776046
187	0x3e51a4dd	0.20473047
188	0xbe305f2b	-0.17223804
189	0x3d11f0e2	0.035630114
190	0xbe795bb8	-0.24351394
191	0xbe81a478	-0.25320792
192	0xbdb6ea11	-0.089313634
193	0x3ea75eac	0.32689416
194	0xbe18d5a7	-0.14925252
195	0xbd2c7f73	-0.042113733
196	0xbe4c1bbb	-0.19932453
197	0x3d890b26	0.066915795
198	0xbe068ab8	-0.13138855
199	0x3e8080f1	0.25098374
200	0xbdb31e79	-0.087460466
201	0xbc602fee	-0.013683302
202	0xbe192ae6	-0.1495777
203	0x3d99c594	0.07508388
204	0x3dfd0913	0.123552464
205	0xbd881b99	-0.06645889
206	0xbdeb998d	-0.11503897
207	0x3c042cf3	0.008067357
208	0xbdb578df	-0.08860945
209	0x8005af4a	-5.2206e-40
210	0xbdf1a04c	-0.11798152
211	0xbd98c0a4	-0.07458618
212	0x3e42dc8f	0.19029449
213	0x3c3616a1	0.011113794
214	0xbc113f44	-0.008865181
215	0xbd2dcde9	-0.0424327
216	0x3d21aa5e	0.039469115
217	0xbe139e8a	-0.14415947
218	0x3e459843	0.19296364
219	0xbe6c46dc	-0.23073906
220	0x3e061721	0.1309476
221	0x3c072a3f	0.008249818
222	0xbe17cb59	-0.14823665
223	0xbebc3877	-0.3676183
224	0xbdaee4e7	-0.085397534
225	0xbe036263	-0.128305
226	0xbe48fb5e	-0.19627139
227	0xbdbfe5f1	-0.0937003
228	0x3cc2c885	0.023777256
229	0x3ea3e0de	0.32007498
230	0x3d2198e2	0.03945244
231	0xbba36f51	-0.004987635
232	0xbdb15c95	-0.08660237
233	0xbe0b689c	-0.13614124
234	0xbe6d5c35	-0.23179705
235	0x3dcc106c	0.0996407
236	0x3e1ec95d	0.15506501
237	0x3d012bd7	0.03153595
238	0x3e30b968	0.17258227
239	0xbd7d230f	-0.061801013
240	0x3d7ac924	0.06122698
241	0x8006d52e	-6.27487e-40
242	0xbe265193	-0.16242056
243	0x3e93e68f	0.2888684
244	0xbe898a4b	-0.26863322
245	0xbdd31fcf	-0.103088014
246	0xbd2f536d	-0.04280417
247	0xbd8ab2cd	-0.06772385
248	0x3bfbc61a	0.0076835277
249	0xbe2100c6	-0.15722951
250	0x3e04fc03	0.1298676
251	0xbe2ce65a	-0.16884747
252	0xbdd9ff2e	-0.10644375
253	0x3dc51dc0	0.09624815
254	0xbdaa9d55	-0.0833079
255	0xbc259563	-0.010106417

conv_layers.0.nn.bias f4 [128]
0	0x3ba455ba	0.005015102
1	0xbdfcdfbd	-0.12347362
2	0xbdd544fb	-0.104135476
3	0xbc65be52	-0.014022427
4	0x3e6c6554	0.23085529
5	0xbd6a7c0e	-0.057247214
6	0xbdf52d95	-0.11971585
7	0x3dec628f	0.11542236
8	0xbd7d89a4	-0.061898842
9	0xbe299b5c	-0.16563171
10	0xbe36b58a	-0.17842689
11	0xbd486513	-0.048924517
12	0xbe0738c7	-0.13205253
13	0xbc8dc7fe	-0.017307278
14	0x3e0b695d	0.13614412
15	0xbda0ad48	-0.07845551
16	0xbdd93927	-0.10606604
17	0x3de4241f	0.11139702
18	0xbe1c8251	-0.15284087
19	0x3d45c628	0.04828468
20	0xbe061cb0	-0.13096881
21	0x3e22f60c	0.15914172
22	0x3d4c788b	0.049919646
23	0x3e0d199c	0.137793
24	0xbe10761f	-0.1410756
25	0xbcce84f2	-0.025209878
26	0xbdaf5cfe	-0.08562659
27	0xbc923bcd	-0.01785078
28	0xbc72f358	-0.0148285255
29	0x3d522b98	0.051311105
30	0x3e2bb805	0.16769417
31	0xbde6e881	-0.11274815
32	0x3dee8e91	0.11648286
33	0x3daad928	0.083422005
34	0x3d1d6ae4	0.038432017
35	0x3e6379d8	0.22214448
36	0x3dfc8a9b	0.123311244
37	0xbe05e234	-0.13074571
38	0xbdf32f2f	-0.11874234
39	0xbe2a2744	-0.16616541
40	0xbd6c86ea	-0.05774585
41	0x3bb45bf3	0.0055041253
42	0xbdbda79e	-0.09260486
43	0x3e00f2a5	0.12592562
44	0xbdcc740a	-0.0998307
45	0x3e2bfce2	0.16795686
46	0xbe543e1b	-0.20726816
47	0x3e00c772	0.12576082
48	0xbc0ca101	-0.008583308
49	0x3c8b4f26	0.017005514
50	0xbe4d5e45	-0.20055492
51	0x3d8115d9	0.06302995
52	0x3dc1eea1	0.09469343
53	0xbdaa09a9	-0.08302624
54	0x3d8eb5c0	0.0696826
55	0xbe2fc3bc	-0.1716451
56	0xbda83a30	-0.082142234
57	0xbb90d7c5	-0.004420253
58	0xbc81b08f	-0.01583126
59	0xbdf9e29a	-0.12201424
60	0x3cbfc127	0.023407532
61	0xbc9ea92a	-0.019367773
62	0xbe08d402	-0.13362125
63	0xbc54cc7d	-0.012988207
64	0xbdc48bf0	-0.095970035
65	0x3e0c92a1	0.1372781
66	0xbcd76e70	-0.026297778
67	0xbd9c66f8	-0.07636827
68	0x3e1411e1	0.14459945
69	0xbe220908	-0.15823758
70	0xbe36333d	-0.17792983
71	0x3e3422b9	0.1759137
72	0x3d250f7c	0.04029797
73	0x3c7fab48	0.0156048015
74	0x3e17438e	0.14771864
75	0xbd0480ae	-0.03234928
76	0xbcef6e4b	-0.029227396
77	0xbd4173b9	-0.047229502
78	0x3d614cda	0.055004932
79	0x3cf65127	0.030067993
80	0x3e35c897	0.177523
81	0x3d3e1fe3	0.04641713
82	0x3db0dd62	0.086359754
83	0xbdb4bd67	-0.08825188
84	0x3e076fef	0.13226293
85	0xb7baa618	-2.2250271e-05
86	0xbde31c9b	-0.110894404
87	0xbc3076e8	-0.010770537
88	0x3db820dc	0.089906424
89	0x3e29efa8	0.16595328
90	0x3d69caea	0.05707828
91	0x3db04578	0.08607
92	0x3bdd2401	0.0067486768
93	0xbc8e3300	-0.017358303
94	0xbc9b2f91	-0.01894358
95	0xbd4ad011	-0.049514834
96	0x3e0a5c8e	0.1351187
97	0x3dbdabe3	0.092613004
98	0xbc6a6fb4	-0.014308859
99	0xbde68aec	-0.11256966
100	0xbdfdf75f	-0.12400698
101	0x3e219900	0.15781021
102	0x3dc16447	0.094429545
103	0xbde6b157	-0.11264294
104	0xbdd610d4	-0.104524285
105	0xbc981d01	-0.018568518
106	0x3ddef358	0.10886258
107	0xb691c152	-4.343842e-06
108	0x3e1e2c25	0.15446527
109	0x3d6d2f84	0.057906643
110	0x3dcf4156	0.10119884
111	0x3e063267	0.13105164
112	0xbcf6108d	-0.030037189
113	0x3dc084e3	0.09400346
114	0x3dc0baaa	0.09410603
115	0xbd0266bc	-0.031836256
116	0x3e19e6ed	0.15029497
117	0x3e12edab	0.14348476
118	0x3d850c62	0.064965025
119	0x3d893a31	0.06700552
120	0x3d9b649a	0.075875476
121	0x3d8f4b9a	0.06996842
122	0xbd6189c9	-0.055063043
123	0xbdfb839c	-0.12280962
124	0x3dbd2970	0.09236419
125	0xbdb6d9ae	-0.08928238
126	0xbcbbc2f3	-0.022920107
127	0x3cdf9678	0.027293429

conv_layers.0.lin.weight f4 [32, 11]
0	0xbe937482	-0.28799826
1	0xbe94396e	-0.28950065
2	0xbd8b488c	-0.068009466
3	0xbe2f7e10	-0.17137933
4	0x3df833d0	0.121192575
5	0x3e20917a	0.15680495
6	0xbe6ad31e	-0.22932097
7	0x00014db9	1.19717e-40
8	0xbea94864	-0.33063042
9	0xbe56bb95	-0.20969994
10	0x00018c8f	1.42258e-40
11	0xbd1acb29	-0.037791405
12	0x3de9dd98	0.11419219
13	0xbe67f7aa	-0.2265307
14	0x3ea4cdec	0.32188356
15	0x3b71a8b4	0.0036874237
16	0xbe6c5c5b	-0.23082106
17	0xbd1fb489	-0.03899053
18	0x8002ab3a	-2.45096e-40
19	0xbed1d7d5	-0.4098498
20	0x3e560619	0.20900764
21	0x8005a171	-5.17092e-40
22	0x3de3e05b	0.11126777
23	0x3e2c4d98	0.16826475
24	0x0004a934	4.2804e-40
25	0x3db0a74e	0.08625661
26	0x3d46edfb	0.0485668
27	0xbd7ff3af	-0.062488254
28	0xbe2b5b51	-0.16734053
29	0x0000eb04	8.4308e-41
30	0x3e8fdd97	0.28098747
31	0x3e9c7d4b	0.3056434
32	0x80075ed5	-6.76868e-40
33	0x3ad8a6ef	0.0016529242
34	0x3e5603f4	0.20899945
35	0xbdbd01fe	-0.092288956
36	0xbe02a959	-0.12759914
37	0xbe885c8c	-0.26633108
38	0x3e8890a4	0.26672852
39	0xbd193179	-0.037400696
40	0x000785ca	6.90843e-40
41	0x3d0d74ea	0.034535326
42	0xbcd61ec2	-0.026137713
43	0x800228e5	-1.98341e-40
44	0x3ddc2b3c	0.10750434
45	0x3e4e2c59	0.20134105
46	0x80056b66	-4.97705e-40
47	0x00077b90	6.87174e-40
48	0x3ea6b7f9	0.32562235
49	0xbeaadf58	-0.33373523
50	0x3dda8dd0	0.1067158
51	0x0004a48b	4.26369e-40
52	0x3e031ce4	0.1280399
53	0xbd31dea8	-0.043425232
54	0x0003de78	3.55313e-40
55	0x3d66d204	0.05635263
56	0x3ca4a2cd	0.02009716
57	0xbb60d8b7	-0.003430886
58	0xbca21049	-0.019783156
59	0x3e63bd0c	0.22240084
60	0xbcc44e73	-0.023963189
61	0xbe479a65	-0.1949249
62	0x8007ee55	-7.28346e-40
63	0x3cb75117	0.022377534
64	0xbe9427ae	-0.28936523
65	0x80058183	-5.05638e-40
66	0xbdc9746e	-0.0983666
67	0xbe4d82d3	-0.20069437
68	0xbde13602	-0.10996629
69	0x3e51ddab	0.20494716
70	0x3df301e2	0.118655935
71	0x3c5b166c	0.013372045
72	0xbe128f07	-0.14312373
73	0x00012ef1	1.08675e-40
74	0xbe176339	-0.14783944
75	0x3df95df6	0.12176125
76	0x8010c74c	-1.540862e-39
77	0xbe739381	-0.23786737
78	0xbeb6eb8d	-0.35726586
79	0xbd2bf39a	-0.041980363
80	0x3e466b4e	0.19376871
81	0xbdf7ca7e	-0.12099169
82	0xbe98f47b	-0.29874024
83	0x3e4b6630	0.198632
84	0x00037784	3.1838e-40
85	0x80079438	-6.9602e-40
86	0xb82b5d19	-4.085628e-05
87	0x0005dc37	5.38176e-40
88	0x3d1838c0	0.037163496
89	0xbe240ee9	-0.16021313
90	0x00099ef2	8.83538e-40
91	0xbdc4655a	-0.09589644
92	0x3e624e59	0.221002
93	0x3d84f766	0.064925
94	0xbe184f06	-0.14873895
95	0x8004b312	-4.3158e-40
96	0x3ddde347	0.10834365
97	0x3de920ff	0.11383247
98	0x80021a1f	-1.93041e-40
99	0x3d1d3833	0.038383674
100	0xbdfaf711	-0.122541554
101	0xbccb30e2	-0.024803583
102	0x3e2ee498	0.17079389
103	0x3e3d2088	0.18469441
104	0x3e543bea	0.2072598
105	0xbeb95293	-0.36195812
106	0x0007d95f	7.20827e-40
107	0xbe4e387d	-0.20138736
108	0x3e1cc5eb	0.15309875
109	0x800834df	-7.5365e-40
110	0xbe54452d	-0.20729513
111	0x3e112653	0.14174776
112	0x3e0ae00d	0.13562031
113	0x3d46aa2d	0.048502136
114	0xbdc27322	-0.09494616
115	0x3dc3ff73	0.095702074
116	0x3d693e6b	0.056944292
117	0x00069ccb	6.0726e-40
118	0x3e29ddd1	0.16588522
119	0x3e952ce3	0.29135808
120	0x8003b556	-3.40558e-40
121	0x3e047d69	0.12938465
122	0x3e90df07	0.28295156
123	0xbd5771a5	-0.052598614
124	0x3e2ca090	0.16858125
125	0xbeb59817	-0.35467598
126	0xbd09fae6	-0.03368654
127	0x3c5d6b65	0.013514374
128	0x8004c125	-4.36629e-40
129	0xbe4c2f6f	-0.1993997
130	0xbe029861	-0.1275344
131	0x800887c7	-7.83392e-40
132	0x3e92dfdf	0.28686425
133	0x3dab211a	0.08355923
134	0x000257e1	2.15196e-40
135	0xbdb35e88	-0.08758265
136	0x3da6423c	0.08118102
137	0xbe9edc56	-0.31027478
138	0xbe9108e8	-0.28327107
139	0x800132e6	-1.10094e-40
140	0x3e353b9b	0.17698519
141	0x3d89fde8	0.06737882
142	0x0003ce36	3.49481e-40
143	0xbe97512a	-0.2955411
144	0x3ca7da04	0.0204897
145	0x000802c9	7.35683e-40
146	0x80072e36	-6.59426e-40
147	0xbdb3f7f9	-0.087875314
148	0x80082ff6	-7.51889e-40
149	0xbe91047a	-0.28323728
150	0x00011c16	1.01911e-40
151	0x80078e96	-6.93999e-40
152	0x8000de14	-7.9667e-41
153	0x0008b4f3	7.99596e-40
154	0xbdd79d8b	-0.10528096
155	0x3d4a2de7	0.049360182
156	0xbc6e591f	-0.014547615
157	0x3e2ba1d6	0.16760954
158	0x3e675190	0.22589707
159	0x3e2fc34c	0.17164344
160	0xba70b215	-0.000918181
161	0x80077cbc	-6.87595e-40
162	0x3e7bd2b1	0.24592091
163	0x3e734390	0.23756242
164	0x000ea9ea	1.34665e-39
165	0xbeb092ff	-0.3448715
166	0xbebe97f8	-0.37225318
167	0x3e99873f	0.29985997
168	0xbbe19100	-0.0068837404
169	0xbe93ada6	-0.2884342
170	0x3e22bdba	0.15892687
171	0x3e491d4a	0.19640079
172	0x8009d4a1	-9.02796e-40
173	0x3daa6053	0.08319154
174	0xbd088e2e	-0.033338718
175	0x000489a7	4.16722e-40
176	0x3e6a772e	0.22897026
177	0xbea19f88	-0.31567025
178	0xbdcccdac	-0.10000166
179	0x3ddf6a40	0.109089375
180	0xbe8fb8bf	-0.28070638
181	0xbe4280a4	-0.18994385
182	0xbd398731	-0.045294944
183	0x00095b0a	8.59178e-40
184	0x399ba035	0.00029683267
185	0xbe80ed5a	-0.25181085
186	0x8000828a	-4.6829e-41
187	0x3ac6e7e8	0.0015175315
188	0x8001f37a	-1.79178e-40
189	0x0008e713	8.17578e-40
190	0x0003024d	2.76332e-40
191	0x800816c8	-7.42856e-40
192	0x8013d415	-1.820955e-39
193	0x3d545beb	0.051845472
194	0x80021f87	-1.94981e-40
195	0x800263fb	-2.19537e-40
196	0x000aa4e2	9.77504e-40
197	0x800619ff	-5.60339e-40
198	0x3e0707d3	0.13186578
199	0x3e1d18fd	0.15341564
200	0x3c38492c	0.011247914
201	0x3d83c926	0.064348504
202	0x3e285cf7	0.16441713
203	0xbe012bdf	-0.12614392
204	0xbe8ff3a2	-0.28115565
205	0x00000edd	5.332e-42
206	0x3dd5b348	0.10434586
207	0x3e9bfb14	0.30464995
208	0x8006c239	-6.20687e-40
209	0x3e0c5789	0.13705267
210	0xbd8003e2	-0.062507406
211	0xbec40e8d	-0.3829235
212	0xbd02fc4e	-0.031978898
213	0x3e35fad1	0.1777146
214	0xbcb295d6	-0.021799963
215	0x3d58de1d	0.0529462
216	0x00040ec4	3.72639e-40
217	0x3e9910bf	0.2989559
218	0xbd0abee6	-0.03387346
219	0x0009d62f	9.03354e-40
220	0xbd84755a	-0.064676955
221	0x3df12eed	0.117765285
222	0x37b682fa	2.1757081e-05
223	0xbc6562cc	-0.014000606
224	0x3e24eefb	0.16106789
225	0xbe9e005d	-0.30859652
226	0xbd0e36b0	-0.034720123
227	0x0006cda0	6.24777e-40
228	0xbe43c171	-0.19116761
229	0x3dd817e9	0.105514355
230	0x000803b9	7.3602e-40
231	0x3e06cf24	0.13164955
232	0xbdb5be96	-0.08874242
233	0xbd76981e	-0.060203664
234	0xbe52f60f	-0.20601676
235	0x3e3b452c	0.18288106
236	0xbe133fb2	-0.14379767
237	0xbe1c93c3	-0.15290742
238	0x0007396f	6.63452e-40
239	0x3dceaad6	0.10091178
240	0xbe1d6d9c	-0.15373844
241	0x80001711	-8.275e-42
242	0x3e5f2759	0.21792354
243	0x3ca05793	0.019573009
244	0xbdff64d9	-0.12470407
245	0xbe0710d1	-0.13190009
246	0xba47f932	-0.00076283806
247	0x3e772d38	0.24138343
248	0x3e0566c0	0.13027477
249	0x0002beb4	2.52082e-40
250	0xbcfb7bc8	-0.030698672
251	0xbcb434b3	-0.021997785
252	0x00061ec6	5.62052e-40
253	0xbe8f0788	-0.27935433
254	0x3dc9a57d	0.098460175
255	0x3c1e036e	0.009644372

conv_layers.0.lin.bias f4 [32]
0	0xbe663e0d	-0.22484608
1	0xbd91d567	-0.071207814
2	0x3d4e7532	0.050404735
3	0x3e2695be	0.1626806
4	0xbe5c2200	-0.21497345
5	0x3e4189a3	0.1890016
6	0x3e567fcb	0.20947187
7	0x3e4c3de0	0.19945478
8	0xbd3e6543	-0.04648329
9	0x3d958b6c	0.07301983
10	0x3ddb1fbd	0.10699413
11	0x3dabcd1d	0.08388732
12	0xbe8e7f77	-0.27831623
13	0xbe18e9a6	-0.1493288
14	0xbd7a6568	-0.061131865
15	0x3e548bfa	0.20756522
16	0x3e030257	0.12793861
17	0xbd6ab1b7	-0.05729839
18	0x3e79c235	0.2439049
19	0xbe511a8d	-0.20420285
20	0x3da577b7	0.080794744
21	0x3e173bc8	0.14768898
22	0xbe8e2200	-0.27760315
23	0x3e70a4ea	0.2350041
24	0xbd87f30d	-0.06638155
25	0x3d92c4d3	0.071664475
26	0xbd648dc9	-0.05579928
27	0x3d6e7574	0.05821748
28	0x3d871141	0.06595088
29	0x3dd5b96d	0.10435758
30	0xbd143f60	-0.03619325
31	0x3d60ed2c	0.054913685

conv_layers.1.nn.weight f4 [128, 128]
0	0xbd3dc82d	-0.04633348
1	0x3c044359	0.008072698
2	0xbe909ca9	-0.28244522
3	0x3d63f55d	0.05565392
4	0xbd0e38a0	-0.03472197
5	0x3c8ad107	0.016945375
6	0xbbf0f98c	-0.007353967
7	0xbdb8adf1	-0.09017552
8	0x3e1ed0fe	0.15509412
9	0xbd346a0b	-0.044046443
10	0xbc996c58	-0.01872842
11	0xbd62c71c	-0.055365667
12	0x3db93efe	0.09045218
13	0xbe1aba98	-0.15110242
14	0xbd8ff9d7	-0.07030075
15	0x3d3bffab	0.04589812
16	0xbc3c87c2	-0.011506977
17	0x3cedc21d	0.029023224
18	0xbc943982	-0.018093828
19	0xbd1e09a7	-0.038583424
20	0x3dbd8ab0	0.09254968
21	0x3c513951	0.012770013
22	0x3dc28d47	0.09499603
23	0x3e2740df	0.1633334
24	0x3d91a2e6	0.071111485
25	0x3dc93f7c	0.09826562
26	0x3d180173	0.037110757
27	0xbd92904b	-0.07156428
28	0xbc46030d	-0.012085688
29	0x3dccd5eb	0.10001739
30	0x3d81517e	0.063143715
31	0x3da1142a	0.07865174
32	0xbb602b20	-0.0034205392
33	0x3de65bc7	0.11247974
34	0xbcd10131	-0.025513263
35	0xbe9b2121	-0.30298713
36	0xbe185200	-0.1487503
37	0x3dcbfe86	0.09960656
38	0xbd3841b8	-0.04498455
39	0xbe3353a6	-0.17512378
40	0xbe055a78	-0.13022792
41	0xbc1fd205	-0.009754662
42	0x3ce281f5	0.027649859
43	0xbe0e4e65	-0.13897093
44	0x3d768513	0.060185503
45	0xbdbf104f	-0.093292825
46	0xbd787ef1	-0.060667936
47	0x3d4f9376	0.05067774
48	0x3d8248d4	0.06361547
49	0xbda824a8	-0.082101166
50	0xbb76d8e5	-0.00376659
51	0xbc3e31e1	-0.011608572
52	0xbe30bb06	-0.17258844
53	0x3de9d8e7	0.11418324
54	0x3d29aefc	0.041426644
55	0xbe139084	-0.14410597
56	0x3d5a0f7a	0.053237416
57	0xbd1a9b12	-0.037745543
58	0x3cddd3ee	0.027078595
59	0xbdcb7d38	-0.09935993
60	0xbda1bfc5	-0.07897905
61	0xbd21e8cd	-0.039528657
62	0x3d8fb5d5	0.070171036
63	0x3d1e5ea7	0.038664486
64	0x3d2813c4	0.041034475
65	0xbdc4a8bd	-0.09602497
66	0xbde8a174	-0.1135892
67	0xbcf09fed	-0.029373134
68	0xbda0f088	-0.07858378
69	0xbb8a1250	-0.004213609
70	0xbdd47880	-0.10374546
71	0xbdb5fb3b	-0.08885809
72	0xbdfc7d2f	-0.123285644
73	0x3d6065e5	0.054784674
74	0xbddfc2d1	-0.1092583
75	0x3d3f5637	0.04671308
76	0x3ca6411d	0.02029472
77	0xbcfebf8c	-0.031097196
78	0x3d16f91e	0.03685867
79	0x3d5e607c	0.054291233
80	0xbcd6c89b	-0.026218703
81	0xb7c88bcb	-2.3906954e-05
82	0xbcb7109b	-0.022346785
83	0xbd2dba2a	-0.042413868
84	0x3d4a0c11	0.049327914
85	0xbcff5b7d	-0.031171555
86	0x3b98e67e	0.0046661487
87	0xbd41d0d8	-0.04731831
88	0x3cbaeedb	0.022818973
89	0xbad4dd35	-0.0016240241
90	0x3d704d87	0.058667686
91	0xbd9193e7	-0.07108288
92	0x3b1f27c4	0.0024285177
93	0x3d66c0d0	0.056336224
94	0xbd429583	-0.047505867
95	0xbdf3d678	-0.11906141
96	0xbd89b1ba	-0.06723352
97	0x3bf9ee72	0.007627302
98	0x3d05e326	0.03268733
99	0xbd972dc8	-0.07381779
100	0x3d6cd218	0.05781755
101	0xbcbc33b7	-0.022973878
102	0x3cd2cbae	0.025731888
103	0x3d0cef82	0.0344081
104	0x3d76b3ae	0.06022995
105	0xbc9d646a	-0.01921292
106	0xbd8721fd	-0.065982796
107	0xbde7b2c9	-0.113133974
108	0x3d95610a	0.07293899
109	0xbdea03db	-0.114265166
110	0x3d0cd846	0.034385942
111	0x3d99d15a	0.07510634
112	0xbd03b655	-0.032156307
113	0xbe190814	-0.14944488
114	0x3d39499e	0.045236222
115	0x3c0ad6e2	0.008474084
116	0x3e09c643	0.13454537
117	0x3d817858	0.06321782
118	0xbd01770d	-0.031607676
119	0xbe02893b	-0.12747662
120	0xbb1b037d	-0.0023653202
121	0xbc7df2c4	-0.015499774
122	0x3d48ae92	0.04899461
123	0xbde6836e	-0.11255537
124	0xbe62fe19	-0.22167243
125	0x3b1dd8e1	0.0024085569
126	0x3d5527ee	0.052040033
127	0x3d8c4e55	0.06850878
128	0xbdb1ebc6	-0.08687548
129	0xbd520d3c	-0.051282153
130	0xbe0d9a09	-0.13828291
131	0x3d324068	0.043518454
132	0xbd50344c	-0.050831124
133	0xbd9b9182	-0.07596113
134	0x3c2b3792	0.010450261
135	0xbcea37fe	-0.028591152
136	0x3cc2c878	0.023777232
137	0x3e255c88	0.16148579
138	0xbd2628bd	-0.040566195
139	0x3d2b24e7	0.04178324
140	0xbd9ad11e	-0.07559417
141	0x3dca55e3	0.09879663
142	0x3df82178	0.12115759
143	0x3d7537bc	0.059867606
144	0x3dc7839d	0.097419
145	0x3e2f604a	0.17126575
146	0xbdc3a1ee	-0.0955237
147	0x3e373636	0.17891774
148	0x3d33b750	0.043875992
149	0xbdd406a2	-0.103528276
150	0x3e126e0a	0.14299789
151	0xbe09a096	-0.13440165
152	0xbbe6564a	-0.0070293294
153	0xbdc91016	-0.09817521
154	0x3d9f854c	0.07789096
155	0x3c36d7b1	0.011159823
156	0xbd6d4386	-0.057925723
157	0xbe383cc5	-0.17991932
158	0xbe5d5263	-0.2161346
159	0xbd93be4e	-0.07214032
160	0xbce7d650	-0.028300434
161	0xbe569a67	-0.20957337
162	0x3cb12c0b	0.021627447
163	0x3ca29d48	0.019850388
164	0xbdef0335	-0.116705336
165	0x3d1f2104	0.038849846
166	0xbea3617b	-0.3191031
167	0xbdeb4bc2	-0.11489059
168	0xbc0e3c29	-0.0086813355
169	0xbae029b4	-0.0017102272
170	0xbc0adf9b	-0.008476163
171	0xbd212c46	-0.039348863
172	0x3d0533c9	0.03252009
173	0x3cf83bfb	0.030302038
174	0x3cf6af84	0.03011299
175	0x3dc38781	0.0954733
176	0x3db2b171	0.087252505
177	0x3da6c013	0.08142104
178	0x3e007a1c	0.12546581
179	0xbde37922	-0.111070886
180	0xbdb93d19	-0.090448566
181	0xbd8ab35d	-0.06772492
182	0xbe9d06fa	-0.30669385
183	0x3d4ac3ce	0.04950314
184	0x3d99039b	0.07471391
185	0x3cbc1d64	0.022963233
186	0x3d52c384	0.05145599
187	0x3d9c8f57	0.076445274
188	0xbe295e20	-0.16539812
189	0x3e8db711	0.2767873
190	0x3d26cfeb	0.04072563
191	0x3d347b25	0.044062752
192	0xbdba1791	-0.09086526
193	0xbdcc9179	-0.09988684
194	0xbcd64115	-0.02615408
195	0xbcdad919	-0.026714848
196	0xbd98a48d	-0.074532606
197	0xbd0962da	-0.033541538
198	0x3e1ed51e	0.15510985
199	0xbc845a7d	-0.01615643
200	0xbce2dc7c	-0.027693026
201	0x3caab474	0.020838
202	0x3ca47ac6	0.020078074
203	0xbdd11b1a	-0.10210247
204	0x3d9a5904	0.0753651
205	0xbcefff26	-0.029296469
206	0xbd462a64	-0.04838027
207	0x3df61f31	0.12017668
208	0xbe41fcf0	-0.18944144
209	0xbdced8b6	-0.10099928
210	0x3ddc9279	0.10770125
211	0xbdd64c84	-0.10463813
212	0xbe6fe296	-0.2342628
213	0x3d12ea55	0.035868008
214	0xbe33303c	-0.17498869
215	0xbc8a7afc	-0.016904347
216	0x3e01e55f	0.12685154
217	0xbe01b921	-0.12668277
218	0x3d17f4a2	0.037098534
219	0x3d9cf1ee	0.07663332
220	0xbdf7ac4e	-0.120934114
221	0xbe532f40	-0.20623493
222	0x3a5f1a2d	0.00085106754
223	0x3e49c0d9	0.19702472
224	0x3d027134	0.03184624
225	0xbecf4360	-0.4048109
226	0x3e8a4430	0.27005148
227	0xbe1fe0ce	-0.156131
228	0xbc9334f0	-0.017969579
229	0xbd0f7539	-0.0350239
230	0x3d9d7454	0.076882035
231	0xbd8a74d7	-0.06760567
232	0x3e33bfb7	0.17553602
233	0xbcb426a1	-0.021991076
234	0x3d31ad0c	0.04337792
235	0xbcae6378	-0.021287665
236	0x3d74902a	0.059707798
237	0xbe10eaf8	-0.14152133
238	0x3d77a8b2	0.060463615
239	0x3cb072bc	0.021539085
240	0x3daa054d	0.08301792
241	0xbe3b994d	-0.18320198
242	0x3d33e037	0.043915
243	0x3d7af2c4	0.061266676
244	0xbe17c830	-0.14822459
245	0xbdf0caa2	-0.11757399
246	0xba844099	-0.0010090052
247	0x3c7988eb	0.015230398
248	0x3b677ed6	0.0035323403
249	0xbe3bfaf2	-0.18357447
250	0x3dab7c1b	0.083732806
251	0x3d4a6bbf	0.04941916
252	0x3d17076e	0.03687232
253	0xbd76b7cc	-0.060233876
254	0x3c6b76b5	0.014371564
255	0x3c51ab89	0.012797245

conv_layers.1.nn.bias f4 [128]
0	0x3d6dcbd0	0.0580557
1	0xbcd9c09f	-0.026581107
2	0x3b814e8a	0.00394613
3	0xbb82cef8	-0.0039919578
4	0x3c55284a	0.013010094
5	0x3c2b3f85	0.010452156
6	0x3d281092	0.041031428
7	0xbd062879	-0.03275344
8	0x3c0505da	0.008119071
9	0x3d14b8fa	0.03630922
10	0x8a99d9c6	-1.4815281e-32
11	0x3c5c2700	0.013437033
12	0x3d98d284	0.07462028
13	0xbd10b8ea	-0.035332598
14	0xbe0374b5	-0.12837489
15	0x3d51a962	0.051186927
16	0x3c83fae3	0.016110843
17	0x3d4e2c0c	0.050334975
18	0x3d4259b4	0.04744883
19	0x3cd573af	0.026056139
20	0xbd551511	-0.052022044
21	0xbd7442b0	-0.05963391
22	0xbdc9205b	-0.098206244
23	0xbc9f51e2	-0.019448224
24	0x3ccaca99	0.02475481
25	0xbcf68963	-0.030094808
26	0x3c9b0b54	0.0189263
27	0x3cef0b5e	0.029180225
28	0xbd930fba	-0.07180734
29	0x3bfc1ec7	0.0076940986
30	0xbdb5bc8e	-0.088738546
31	0x3b263d33	0.0025366067
32	0xbb0a7bd8	-0.0021130946
33	0x3c554728	0.013017453
34	0xbd5eac63	-0.05436362
35	0x3bc1f3ac	0.0059189405
36	0x3db227c6	0.086989924
37	0x3ba19576	0.004931147
38	0x3c8ead88	0.01741673
39	0xbd8649ea	-0.06557067
40	0xbc9229d2	-0.017842207
41	0xb9fad665	-0.00047843452
42	0xba1846e7	-0.0005808905
43	0xbcc3bb06	-0.02389289
44	0x3d6c2cfb	0.057660084
45	0x3cc75731	0.024333568
46	0x3d1f3d00	0.038876534
47	0xbd296328	-0.04135433
48	0xbccaaf6e	-0.024741855
49	0x3b8f7da0	0.0043789893
50	0x3d252d97	0.04032668
51	0x3c9b60fa	0.01896714
52	0xbda0f478	-0.07859129
53	0xbb3d35e4	-0.0028871233
54	0x3d949d1e	0.0725653
55	0x3cf11097	0.029426856
56	0xbc898a12	-0.01678947
57	0xbcb702e5	-0.022340247
58	0x3c71a6c9	0.014749237
59	0xbceda733	-0.02901039
60	0xbce36947	-0.027760161
61	0xbbed0c97	-0.007234167
62	0xbcf2836c	-0.029603682
63	0x3d571bfd	0.052516926
64	0x3cf8fe74	0.03039477
65	0x3d34672f	0.044043716
66	0xbdf11874	-0.11772242
67	0xbb7895c6	-0.0037931069
68	0x3d36baca	0.04461173
69	0xbb3cc224	-0.002880224
70	0xbc75c2e2	-0.015000077
71	0xbdca85ed	-0.098888256
72	0xbd350297	-0.044191923
73	0xbc9d2d8c	-0.019186758
74	0xbcc41a95	-0.023938457
75	0xbe058134	-0.13037568
76	0xbd1819d6	-0.037134014
77	0xbd9dc5f7	-0.077037744
78	0xbbe4e792	-0.006985613
79	0xbbf7c94c	-0.0075618383
80	0xbd7db958	-0.061944336
81	0xbd932efa	-0.071866944
82	0xb4919b40	-2.7121314e-07
83	0x3defb819	0.11705036
84	0xbad2f41e	-0.0016094481
85	0xbdcd5273	-0.100254916
86	0xbd1f18b8	-0.038841933
87	0xbb2d9bd8	-0.0026490595
88	0x3d5cdd7e	0.05392217
89	0x3beb391d	0.0071784393
90	0x3d7bdcbc	0.061489806
91	0xbd9199f1	-0.0710944
92	0xbd6f2d75	-0.05839296
93	0x3ccbbaa5	0.024869272
94	0xbbf172b3	-0.0073684095
95	0x3d44c6bb	0.048041087
96	0xbd5d238a	-0.05398897
97	0x3b86ad37	0.0041100043
98	0x3dcad61e	0.09904121
99	0x3c7f474a	0.0155809615
100	0x3d2f0a55	0.042734463
101	0xbc3e3850	-0.011610106
102	0x3d8c380d	0.06846628
103	0x3d70511d	0.058671106
104	0xbd240257	-0.040041294
105	0xbd32fb67	-0.043696787
106	0xb92d8f18	-0.00016551872
107	0xbc84bc26	-0.016202997
108	0xbdb76097	-0.0895397
109	0xbdeae097	-0.11468618
110	0xbd81896b	-0.063250385
111	0x3d61120b	0.054948848
112	0xbce1a054	-0.02754227
113	0xbc28100e	-0.010257734
114	0xb0277f61	-6.093526e-10
115	0x3c4435af	0.01197569
116	0x3c71d74c	0.014760803
117	0xbc557c27	-0.0130300885
118	0x3d5f6276	0.05453726
119	0x3ce8dfc9	0.028427022
120	0x3d2c3c5c	0.04204975
121	0x3c987875	0.018612126
122	0x3d630e2b	0.055433434
123	0xbca5335d	-0.020166093
124	0xbd7b7904	-0.061394706
125	0xbd3d44f6	-0.046208344
126	0x3da56913	0.08076682
127	0xbd53252e	-0.05154913

conv_layers.1.lin.weight f4 [128, 11]
0	0x3cac5c7c	0.021040194
1	0xbd592218	-0.05301103
2	0x3e5a072c	0.21291798
3	0xbd58d6d5	-0.052939255
4	0x3e33e52d	0.17567892
5	0xbe8e79e9	-0.27827385
6	0x3dab5c7c	0.08367249
7	0x0002ad1c	2.45771e-40
8	0x3e2ec128	0.17065871
9	0x3e920211	0.28517202
10	0x800ffbcb	-1.467859e-39
11	0x3e181427	0.14851438
12	0x3e0c0b52	0.13676193
13	0x3df750d5	0.12075964
14	0x3e258726	0.16164836
15	0xbdce3631	-0.1006893
16	0xbc43766e	-0.011930091
17	0xbd6bebc6	-0.057597898
18	0x80049159	-4.19483e-40
19	0x3e977a39	0.29585436
20	0xbd543ddd	-0.05181681
21	0x0000fad3	8.9979e-41
22	0xbe162198	-0.14661252
23	0xbd4ee6ae	-0.050512962
24	0x3e2b1778	0.16708171
25	0x3e1c753f	0.15279101
26	0xbe559ef9	-0.20861425
27	0x3da7b085	0.08187965
28	0x3e083791	0.13302447
29	0x8008868b	-7.82949e-40
30	0x3e764786	0.24050722
31	0x3d1f8d57	0.03895315
32	0x00008f11	5.1323e-41
33	0xbde56015	-0.11199967
34	0x3d757ba9	0.059932385
35	0x3dc9ed4d	0.09859715
36	0xbd8bd01f	-0.06826805
37	0xbe1c24f5	-0.15248473
38	0xbe5296a1	-0.20565273
39	0x3e1b0b97	0.1514114
40	0x8007cc16	-7.16061e-40
41	0xbd6c580e	-0.057701163
42	0xbe7e10fb	-0.24811165
43	0x0004a6e4	4.27211e-40
44	0xbbb005b0	-0.0053717718
45	0xbd9a01d6	-0.075198814
46	0x3de96fb2	0.11398257
47	0xbe538c60	-0.20659018
48	0xbe1fa1f1	-0.1558912
49	0xbd009c02	-0.03139878
50	0x3ca8660a	0.020556469
51	0x800b634d	-1.045813e-39
52	0x3e9e2c29	0.30893067
53	0xbcca67f5	-0.024707774
54	0x80057c52	-5.03775e-40
55	0x3e6a6d55	0.2289327
56	0x3c92e15f	0.017929731
57	0x0008df9b	8.14898e-40
58	0xbedff108	-0.4373858
59	0x3e14a049	0.14514269
60	0xbe4b0e2c	-0.19829625
61	0xbe56b6e2	-0.20968202
62	0x0006d893	6.28705e-40
63	0x3e2237aa	0.15841547
64	0x3e13672c	0.14394826
65	0x800779a6	-6.86488e-40
66	0x3e3a97cf	0.18221973
67	0xbe41211f	-0.18860291
68	0xbd9cfdcc	-0.076655954
69	0xbe241935	-0.1602524
70	0xbeb674b3	-0.3563591
71	0x3e817565	0.25284877
72	0x3e4e38e2	0.20138887
73	0x000041ff	2.3675e-41
74	0x3dffdf32	0.12493743
75	0xbe34a5d1	-0.17641379
76	0x00042a37	3.82486e-40
77	0x3da2e688	0.079541266
78	0xbebde723	-0.37090406
79	0xbdcdb13c	-0.100435704
80	0xbe262438	-0.16224754
81	0x3da47f4d	0.08032093
82	0xbdb59ae2	-0.08867432
83	0xbe0c5e66	-0.13707885
84	0x8003368d	-2.95076e-40
85	0xbe34c33f	-0.17652605
86	0xb68d4863	-4.2105544e-06
87	0x80085a73	-7.67131e-40
88	0xbd903509	-0.07041366
89	0xbddc0b5e	-0.107443556
90	0xbd045568	-0.032308012
91	0x3d8cb1ab	0.06869825
92	0xbe26b92e	-0.16281578
93	0xbdba58b5	-0.09098951
94	0x3e8f0314	0.27932036
95	0x0003cb69	3.48476e-40
96	0xbd284b87	-0.041087653
97	0x3e62a193	0.22131948
98	0x0001c774	1.63386e-40
99	0x3dc61792	0.096724644
100	0x3d6ec456	0.05829271
101	0xbd531f8b	-0.051543754
102	0x3e39a990	0.18131089
103	0x3e2ee8e3	0.17081027
104	0xbdc9c79f	-0.09852528
105	0xbdf71c85	-0.120659865
106	0x00072ebf	6.59618e-40
107	0x3e1a9fdc	0.15100044
108	0x3e568e24	0.2095266
109	0x80055187	-4.88424e-40
110	0x3e6fed4a	0.23430362
111	0x3e4038c2	0.18771651
112	0xbdf7d6e7	-0.12101536
113	0xbe927f51	-0.2861276
114	0x3d990039	0.074707456
115	0xbd977647	-0.073956065
116	0xbe9e5400	-0.30923462
117	0x00048458	4.14818e-40
118	0xbe8a406c	-0.27002275
119	0xbc82519c	-0.015908055
120	0x000af364	1.005667e-39
121	0x3e07d0b0	0.13263202
122	0xbe39a1ff	-0.18128203
123	0x3d65bffa	0.056091286
124	0xbe4a60f1	-0.19763543
125	0x3dcd2e20	0.10018563
126	0xbe8b890c	-0.27252996
127	0x3d2e89c5	0.042611856
128	0x80074f51	-6.71302e-40
129	0xbbf21332	-0.007387542
130	0xbcfad1b0	-0.030617565
131	0x00002389	1.2748e-41
132	0xbe2244a4	-0.15846497
133	0xbe5e7e09	-0.21727766
134	0xbe16757a	-0.14693251
135	0xbe381033	-0.1797493
136	0xbe384c75	-0.17997916
137	0x3dabef4a	0.0839525
138	0x3d48c433	0.049015235
139	0x8006a42a	-6.09904e-40
140	0x3ebad9de	0.36494344
141	0x3e127c18	0.1430515
142	0x0004a340	4.25905e-40
143	0xbe061a5a	-0.1309599
144	0x3e42c405	0.19020088
145	0x3d92df43	0.0717149
146	0x3e278c77	0.16362177
147	0xbe65a9d0	-0.2242806
148	0x3e4459ac	0.19174832
149	0xbe9b0714	-0.30278838
150	0x80079b03	-6.98456e-40
151	0xbe332b97	-0.17497097
152	0x3e5703db	0.20997564
153	0x0003237a	2.88233e-40
154	0xbe88bfb0	-0.26708746
155	0x3da316e7	0.07963353
156	0xbdbc24ed	-0.091867305
157	0xbe1f5e2f	-0.15563272
158	0xbe8742c5	-0.2641813
159	0xbe4270f1	-0.18988396
160	0x3d9167ff	0.07099914
161	0x0001276b	1.05976e-40
162	0xbdeb9d71	-0.11504639
163	0xbe461f26	-0.1934782
164	0x00047ea9	4.12779e-40
165	0x3e656388	0.2240125
166	0x3e828de0	0.25498867
167	0x3d46d8e4	0.048546687
168	0xbd8b63a2	-0.06806113
169	0xbe1d7108	-0.15375149
170	0xbeb237a5	-0.34808078
171	0x3def4e21	0.11684824
172	0x8007077f	-6.45538e-40
173	0x3e957f2c	0.29198587
174	0x3e42b65c	0.19014877
175	0x80084926	-7.60925e-40
176	0xbcdc885a	-0.026920486
177	0x3e054835	0.13015826
178	0xbc910a67	-0.017705156
179	0x3db8a36c	0.09015545
180	0xbdcd4e44	-0.100246936
181	0x3e264afe	0.16239545
182	0xbe2cefd3	-0.1688836
183	0x80047f92	-4.13106e-40
184	0xbeaee755	-0.34160867
185	0x3e422b8a	0.18961921
186	0x80028e1c	-2.3465e-40
187	0xbe070ad2	-0.13187721
188	0x3e70b2dc	0.2350573
189	0xbe6e9b60	-0.23301458
190	0xbe6a2f97	-0.22869717
191	0xbe04a63f	-0.12954043
192	0x3e55d12a	0.20880571
193	0xbdc9982b	-0.09843477
194	0x80075cd8	-6.76155e-40
195	0xbe4e8886	-0.20169267
196	0xbe4ce78f	-0.20010208
197	0x80104d01	-1.496992e-39
198	0x3dcf1cf9	0.10112948
199	0x3deb51f8	0.11490244
200	0xb9099894	-0.00013122178
201	0x3c7cbd23	0.015425953
202	0x3e2a6c75	0.16642936
203	0x3dfd0321	0.123541124
204	0x3cdb9dd1	0.026808651
205	0x0007d4cd	7.19187e-40
206	0xbe17b954	-0.14816791
207	0x3e2d940b	0.16951005
208	0x000723d7	6.55705e-40
209	0xbd16e4c3	-0.036839258
210	0x3eb50e6e	0.3536257
211	0x3b83ad32	0.004018449
212	0x3c9e51d1	0.019326122
213	0x3c903bac	0.017606579
214	0xbcc8d490	-0.02451542
215	0xbe369f2c	-0.17834157
216	0x000210b0	1.89657e-40
217	0x3e840100	0.25782013
218	0x3e9e2e91	0.30894902
219	0x000c04e9	1.103787e-39
220	0x3e6a3232	0.2287071
221	0x3d1b87da	0.037971355
222	0xbe0059e5	-0.12534292
223	0x3e3ff6ff	0.18746565
224	0xbede3660	-0.4340086
225	0x3e5c71a1	0.21527721
226	0xbdab7e6e	-0.08373724
227	0x00016f28	1.31711e-40
228	0xbd893b7b	-0.06700798
229	0xbca14804	-0.01968766
230	0x80023130	-2.01316e-40
231	0x3c868363	0.016420072
232	0xbde5b9ca	-0.11217077
233	0xbce18672	-0.027529929
234	0x3df68afc	0.12038228
235	0x3cc6d661	0.024272146
236	0x3de9c038	0.11413616
237	0xbe0dd4fd	-0.1385078
238	0x00026eee	2.23465e-40
239	0x3d2081ee	0.03918641
240	0xbe02de55	-0.12780125
241	0x0001243d	1.04835e-40
242	0xbe193250	-0.14960599
243	0xbdf1375a	-0.117781356
244	0x3db84c46	0.08998923
245	0xbe2c0128	-0.16797316
246	0x3d45a077	0.048248734
247	0x3d59687a	0.053078152
248	0x3d20a633	0.039221
249	0x0000542d	3.0197e-41
250	0xbdd579d4	-0.104236275
251	0xbdfa07bc	-0.122085065
252	0x8005012a	-4.59595e-40
253	0x3db55390	0.08853829
254	0xbe8740c0	-0.26416588
255	0x3d106464	0.03525199

conv_layers.1.lin.bias f4 [128]
0	0x3caf5b04	0.021405704
1	0x3d8422ab	0.06451925
2	0xbe30fa04	-0.17282873
3	0xbd09bca7	-0.03362718
4	0x3c622af2	0.013804184
5	0xbce1e477	-0.02757476
6	0xbd306c74	-0.04307218
7	0x3e204bdc	0.15653938
8	0xbe146199	-0.14490356
9	0xbe1acfda	-0.15118352
10	0x3d6153c0	0.05501151
11	0x3cb1655b	0.021654775
12	0xbc2900f0	-0.010315165
13	0x3e581151	0.21100356
14	0x3e0cdb13	0.13755445
15	0xbd0b8f9d	-0.034072507
16	0x3e2dc12f	0.16968225
17	0x3e5ebfe8	0.21752894
18	0xbe8033ee	-0.2503962
19	0x3e1be45a	0.15223828
20	0x3e18c6f9	0.14919652
21	0x3cc5ac95	0.024130145
22	0x3be53698	0.0069950335
23	0x3b2cc4a9	0.0026362336
24	0xbe8c6f4a	-0.27428657
25	0x3d10253b	0.035191756
26	0x3d404387	0.0469394
27	0xbe6b933e	-0.23005387
28	0xbe1b6310	-0.15174508
29	0x3e0762ef	0.13221334
30	0x3da372e2	0.079808965
31	0x3d821228	0.06351119
32	0xbd0d28ef	-0.034462865
33	0xbd7cb554	-0.061696365
34	0xbe63950a	-0.22224823
35	0xbe21889b	-0.15774767
36	0xbde2b01f	-0.11068749
37	0x3df16f56	0.11788814
38	0x3e5f4c25	0.2180639
39	0xbe8905a8	-0.26762128
40	0xbe1fe16e	-0.15613338
41	0xbe2abb81	-0.1667309
42	0xbe94cd19	-0.29062727
43	0xbedc1c0d	-0.4299015
44	0x3e57e4df	0.21083401
45	0x3e10e749	0.14150728
46	0xbd18b4e2	-0.03728188
47	0xbd79bd0e	-0.060971312
48	0xbe640995	-0.2226928
49	0xbe790bff	-0.24320982
50	0x3d0cd4bb	0.034382563
51	0xbe961b8e	-0.29317898
52	0x3e86dd44	0.26340687
53	0x3d9d5933	0.07683029
54	0x3c77268a	0.015084872
55	0x3c14d7f6	0.009084692
56	0x3e02e51f	0.12782715
57	0x3def060c	0.11671075
58	0xbde0c426	-0.10974912
59	0xbdd1005b	-0.10205146
60	0xbc1955de	-0.009358851
61	0x3e09646a	0.13417211
62	0x3e10054b	0.14064519
63	0xbe08d3d5	-0.13362058
64	0xbe974259	-0.29542807
65	0xbe0eb270	-0.13935256
66	0xbe3c5a32	-0.18393782
67	0xbe587617	-0.21138798
68	0x3e7fc8b9	0.24978913
69	0xbe50b7a8	-0.2038256
70	0x3d1c46d8	0.0381535
71	0xbe00a278	-0.12561977
72	0xbe1ca319	-0.15296592
73	0x3e537173	0.20648746
74	0xbe7379ed	-0.2377698
75	0xbdcc2574	-0.09968081
76	0x3e6b7d48	0.2299701
77	0x3e0724b8	0.13197601
78	0xbd9a7887	-0.0754252
79	0x3e1018f5	0.1407202
80	0xbd2fd703	-0.04292966
81	0xbe6ec76c	-0.23318261
82	0x3db07f4a	0.086180285
83	0x3e4c3785	0.19943054
84	0xbdde62dd	-0.108587004
85	0xbd0a8711	-0.033820216
86	0xbdf26550	-0.1183573
87	0xbe3b1d7a	-0.18272963
88	0xbc83bc6c	-0.016081057
89	0xbd3bd055	-0.045852978
90	0xbe607a74	-0.21921712
91	0xbdba945c	-0.091103286
92	0x3e2c367b	0.16817658
93	0xbd81fa8b	-0.063466154
94	0xbdeaad19	-0.11458797
95	0x3d8b3967	0.06798058
96	0x3e26d6ee	0.16292927
97	0xbe9dbe55	-0.30809274
98	0xbc5ccef7	-0.013477079
99	0xbe009b77	-0.12559305
100	0xbe0b12bb	-0.13581364
101	0xbdfe6f96	-0.12423627
102	0xbe9d5a13	-0.30732784
103	0x3daaf73e	0.08347939
104	0x3ec80969	0.3906968
105	0xbe5e6f75	-0.21722205
106	0x3ca194b5	0.01972423
107	0xbe88a63c	-0.26689327
108	0xbd52deda	-0.05148206
109	0x3dbe8b7a	0.09303947
110	0xbe4a513f	-0.19757555
111	0xbe1f32d2	-0.1554673
112	0x3da193bc	0.07889506
113	0xbe12639c	-0.1429581
114	0x3dd20f95	0.10256878
115	0x3e004494	0.1252616
116	0xbdbc3f52	-0.09191765
117	0x3d2b4188	0.041810542
118	0x3e1d36fc	0.15353006
119	0x3dcfe2db	0.10150691
120	0x3dd2bec1	0.1029029
121	0xbe940a2a	-0.28914005
122	0xbc9c277f	-0.019061802
123	0x3c58d406	0.013234144
124	0x3cd4cf50	0.02597776
125	0xbe8a4488	-0.2700541
126	0x3dba70cf	0.09103548
127	0xbe646004	-0.22302252

conv_layers.2.nn.weight f4 [128, 128]
0	0x3d6c9c73	0.05776639
1	0x3ca88219	0.020569848
2	0xbd02f746	-0.0319741
3	0xbe080d39	-0.13286294
4	0x3d8d4428	0.068977654
5	0xbd4dbd9d	-0.050229657
6	0x3db50351	0.08838523
7	0x3bd2652c	0.006420752
8	0xbccdd736	-0.025127035
9	0x3d7a14b1	0.06105489
10	0x3d0b26f6	0.033972703
11	0xbcb40c60	-0.021978557
12	0x3e0c116a	0.13678518
13	0xbe048020	-0.12939501
14	0xbdb4cbd1	-0.088279374
15	0xbd8b62dd	-0.06805966
16	0x3aef6bda	0.0018266395
17	0xbd6428d5	-0.055703003
18	0x3e12b0ca	0.14325252
19	0xbc49ee66	-0.012324905
20	0xbdc95764	-0.098311216
21	0x3db1de08	0.08684927
22	0xbdeafdef	-0.11474215
23	0x3cfee4ce	0.031114962
24	0x3cb83eed	0.022490943
25	0x3c79e485	0.015252237
26	0x3d780556	0.060551964
27	0xbc22591c	-0.009908941
28	0xbb8e0ecf	-0.0043352614
29	0xbde874b3	-0.113503836
30	0x3d976649	0.07392556
31	0x3dbf0486	0.09327035
32	0x3e070e27	0.13188992
33	0x3c27288f	0.010202541
34	0xbc070521	-0.008240969
35	0x3dcf6134	0.10125962
36	0x3dd6d44c	0.10489711
37	0xbcabcadf	-0.02097076
38	0xbdbe209e	-0.09283565
39	0xbdec730a	-0.115453795
40	0x3d205001	0.039138798
41	0xbd06128d	-0.032732535
42	0x3d4ac86c	0.049507543
43	0x3d0432d8	0.03227505
44	0xbcc08e9b	-0.0235055
45	0xbd57f108	-0.0527201
46	0x3cd3513c	0.025795572
47	0x3d9f99b1	0.07792986
48	0xbd5c32e3	-0.053759467
49	0xbda055a1	-0.078288324
50	0xbcf35cbe	-0.029707309
51	0xbd81cdb0	-0.0633806
52	0xbba06339	-0.0048946408
53	0x3d2788fb	0.04090212
54	0x3db90ce4	0.09035662
55	0xbda07945	-0.0783563
56	0xbe111178	-0.1416682
57	0x3d9ab5d2	0.07554211
58	0x3dd31b0b	0.103078924
59	0x3dacf15b	0.084444724
60	0xbc1b5617	-0.009480975
61	0x3cb2e68c	0.021838449
62	0xbd6e207e	-0.058136456
63	0x3d40b8aa	0.04705111
64	0xbd2ecf41	-0.04267812
65	0x3dbbd317	0.091711216
66	0x3ba1fba8	0.00494333
67	0xbb09f953	-0.002105315
68	0xbc202578	-0.009774558
69	0xbd97cf40	-0.07412577
70	0x3c8dbab7	0.017300947
71	0xbc65318d	-0.013988865
72	0xbd94eb2e	-0.072714195
73	0x3c8a1a83	0.016858345
74	0xbda1c401	-0.07898713
75	0x3d05fcf6	0.032711945
76	0x3b08ef7c	0.0020894697
77	0xbe127b5a	-0.14304867
78	0xbd896b73	-0.067099474
79	0x3c43d1c0	0.011951864
80	0xbd71ab70	-0.059001386
81	0x3d717cca	0.0589569
82	0xbbdacf44	-0.00667754
83	0x3d94c646	0.0726438
84	0xbda49b4e	-0.080374345
85	0xbd3e7cd9	-0.046505783
86	0xbd5891bc	-0.052873358
87	0xbd29e8f7	-0.04148194
88	0x3daa254a	0.083078936
89	0x3d9291f4	0.071567446
90	0xbb39d42d	-0.0028355226
91	0x3db9ca30	0.09071767
92	0x3c41d9ed	0.011831743
93	0x3cd4b50d	0.025965238
94	0x3d77b347	0.060473707
95	0xbd896def	-0.06710421
96	0x3d95933e	0.07303475
97	0x3ceeed9f	0.029166041
98	0x3d321c58	0.043484062
99	0x3d19f42c	0.037586376
100	0x3d841f46	0.064512774
101	0xbcdfe3ce	-0.027330305
102	0x3e143dfc	0.1447677
103	0x3d85bc8a	0.065301016
104	0x3d35fdb6	0.04443141
105	0x3befa8ee	0.007313839
106	0x3d7b768a	0.061392345
107	0xbd878897	-0.06617849
108	0xbd2d3620	-0.042287946
109	0xbdd97113	-0.1061727
110	0xbcef765a	-0.02923124
111	0xbcb1313f	-0.021629928
112	0xbd14f44e	-0.0363658
113	0x3c585d23	0.013205799
114	0x39fa0646	0.0004768839
115	0x3b8edafb	0.0043596006
116	0xbd3a1407	-0.045429256
117	0x3d287418	0.04112634
118	0xbde28ddb	-0.11062213
119	0xbd2bce4f	-0.041944798
120	0xbd887778	-0.06663412
121	0x3de68a5c	0.11256859
122	0xbcb8785f	-0.022518335
123	0xbce05574	-0.027384497
124	0xbd870c7a	-0.065941766
125	0xbcaf0ddf	-0.021368919
126	0xbd4462fc	-0.04794596
127	0xbafdfd80	-0.0019377917
128	0x3d3c8c6e	0.04603236
129	0xbc340076	-0.010986438
130	0xb0a821a1	-1.2233167e-09
131	0x00086c20	7.73472e-40
132	0xbb0efeab	-0.0021819274
133	0xba528b57	-0.00080316275
134	0x3ceacb37	0.028661354
135	0x39843d47	0.00025222657
136	0x00098f58	8.77942e-40
137	0xbd35c365	-0.044375796
138	0xbb19bd80	-0.0023458898
139	0x29e599e4	1.0196339e-13
140	0x0017c261	2.181946e-39
141	0xbc6302c5	-0.013855641
142	0xbd30cb90	-0.043162882
143	0xb8f57d08	-0.00011705799
144	0xbd2192ae	-0.039446525
145	0xbc6a3341	-0.014294446
146	0xba86a2f5	-0.0010271954
147	0xbd387cbb	-0.045040827
148	0x3d02d1e4	0.03193845
149	0xbcc35520	-0.023844302
150	0xbbffe613	-0.0078094094
151	0xbc09bc14	-0.008406658
152	0xa595a14a	-2.5956674e-16
153	0xbcadc709	-0.021213071
154	0x3bb594ce	0.0055414205
155	0xbcddf313	-0.027093446
156	0x3c987fb8	0.018615589
157	0x3c5a217f	0.01331365
158	0xbabf3dc8	-0.0014590556
159	0x3771b28f	1.4406293e-05
160	0x80271e63	-3.592485e-39
161	0xbc21c542	-0.00987369
162	0xbb60e571	-0.0034316445
163	0xbaf1a1d3	-0.0018435068
164	0xbc80e05c	-0.015731983
165	0xbcf70042	-0.03015149
166	0xbb201027	-0.002442369
167	0x3b6290d5	0.003457119
168	0xbb41b097	-0.0029554719
169	0x000be730	1.093125e-39
170	0xbcb55553	-0.022135412
171	0xb9d4eab0	-0.00040610647
172	0xbc1a9e45	-0.009437148
173	0xbce78d2f	-0.028265564
174	0xba794573	-0.0009508945
175	0xbc69aad0	-0.014261916
176	0x0006d9cc	6.29144e-40
177	0x3adb7804	0.0016744141
178	0xbbeaa629	-0.007160921
179	0xbc4b268d	-0.012399328
180	0xbd1bfd19	-0.03808317
181	0x00092652	8.40266e-40
182	0xbc235068	-0.009967901
183	0x93896fbb	-3.4693837e-27
184	0x3b9f5891	0.004862853
185	0xbb090c4e	-0.0020911875
186	0xb6bdd704	-5.65767e-06
187	0xbba8b368	-0.00514834
188	0x800bf2d7	-1.097305e-39
189	0xb9df9e2e	-0.00042651728
190	0x80077f8a	-6.88601e-40
191	0xbcac0cbe	-0.02100217
192	0xbb31fdc8	-0.0027159322
193	0xb9f0d00d	-0.00045931377
194	0x3b373a26	0.0027958243
195	0xbc5248ed	-0.01283477
196	0x3c02bc1f	0.007979422
197	0xbc1791a6	-0.009251034
198	0xaaeb340a	-4.1780495e-13
199	0x3a1be01e	0.0005946177
200	0x3b2a5ec9	0.0025996438
201	0xb7825abb	-1.5539457e-05
202	0x38a19e5a	7.7065735e-05
203	0xbb7c1259	-0.0038463084
204	0x800366d5	-3.12396e-40
205	0x858ef88f	-1.3444922e-35
206	0x800204fc	-1.85459e-40
207	0xbc12b60d	-0.008954537
208	0xb83c2a7d	-4.4862263e-05
209	0x39c4ade4	0.00037513592
210	0x3ba7420e	0.00510431
211	0xbc80d166	-0.015724849
212	0xbbb09625	-0.0053889924
213	0xbc015189	-0.007892975
214	0x3958c17c	0.00020671444
215	0xbc9fadca	-0.019492049
216	0xbd274b55	-0.040843327
217	0xbb1e8290	-0.0024186708
218	0x3c18783a	0.009306008
219	0x3b702243	0.0036641515
220	0xbc9f86da	-0.019473482
221	0xad811792	-1.467607e-11
222	0x3a8cf3fa	0.0010753863
223	0xbcf3a758	-0.029742882
224	0x110470bf	1.0447707e-28
225	0xbba2a46c	-0.0049634483
226	0xbb24c4ac	-0.002514164
227	0xba38142e	-0.000702205
228	0xba390412	-0.00070577965
229	0xbc008c38	-0.007845931
230	0x3ac35a1d	0.0014904175
231	0xbb38e85c	-0.002821467
232	0xbd5e922f	-0.05433863
233	0x3b4dcc5c	0.0031402325
234	0x32ece2b4	2.7577109e-08
235	0xa4b093aa	-7.6577986e-17
236	0xb72f61f7	-1.0453622e-05
237	0x3bf5e5a6	0.007504183
238	0x3c5d4b7f	0.013506769
239	0xbc8a117a	-0.016854037
240	0xb6aaadb5	-5.086617e-06
241	0x0001f6d2	1.80378e-40
242	0x0008d464	8.10875e-40
243	0x38897259	6.553968e-05
244	0xbbc985b0	-0.00614997
245	0x3c11bac7	0.008894629
246	0xbd45449f	-0.048161145
247	0xbc5bfa79	-0.013426417
248	0xbcb6cba2	-0.022313897
249	0xbca6e9e5	-0.020375201
250	0xbbfe9d32	-0.007770204
251	0xba8c5b58	-0.0010708375
252	0xbbdfcb31	-0.006829642
253	0xbd6f837f	-0.058475014
254	0xbb17730a	-0.002310934
255	0x3c10172b	0.008794586

conv_layers.2.nn.bias f4 [128]
0	0x3d3142c4	0.043276563
1	0xb8e93538	-0.000111202186
2	0xbd0a5927	-0.03377643
3	0xbd32d764	-0.043662444
4	0xbca43074	-0.020042636
5	0x3dc85c43	0.097832225
6	0xbd3b7615	-0.04576691
7	0x3cd3d639	0.025858985
8	0xbdcd0d8e	-0.10012351
9	0x3d38b504	0.045094505
10	0xbcb51b63	-0.022107786
11	0x3ce72d2b	0.02821978
12	0x3ded09ff	0.11574172
13	0xbd1482c1	-0.03625751
14	0xbc2b51cc	-0.010456514
15	0xbe0b668a	-0.13613334
16	0xbd878be0	-0.06618476
17	0xbdcf07f9	-0.101089425
18	0xbcd72951	-0.026264818
19	0xbb14d2bc	-0.0022708615
20	0xbcfec2c1	-0.031098725
21	0xbd0aeab6	-0.033915244
22	0xbd92598e	-0.071459875
23	0xbad30f51	-0.0016102587
24	0xbb8f54b9	-0.0043741134
25	0x3cf2b3b1	0.0296267
26	0xbbfc7e73	-0.0077055036
27	0xbc3fdf57	-0.011710963
28	0x3d6a5d4f	0.057217892
29	0x3cb369c4	0.021901019
30	0xbd9987f9	-0.07496638
31	0x3db952e3	0.090490125
32	0x3b9496ed	0.0045345933
33	0xbbec1089	-0.0072041196
34	0x3b07af02	0.0020703678
35	0x3c8589e9	0.016301112
36	0xbd503ea5	-0.050840992
37	0xbd9fb816	-0.077987835
38	0xbcce0c81	-0.025152447
39	0xbd284863	-0.04108466
40	0xbd04fe52	-0.0324691
41	0xbc0188b0	-0.007906124
42	0xba51a3dc	-0.0007997134
43	0x3d4d405f	0.050110217
44	0xbd3e9340	-0.046527147
45	0xbb957d65	-0.0045620673
46	0xbcb2b4bc	-0.021814696
47	0x39530296	0.00020123491
48	0xbcd2f273	-0.025750374
49	0x3cf6dda5	0.030134985
50	0x3dea1cb6	0.114312574
51	0xbd52afe6	-0.05143728
52	0x3c29dcda	0.0103675965
53	0x3cc80edb	0.024421146
54	0x3cf79ca2	0.030226056
55	0xbd178ddb	-0.03700052
56	0xbdc5e28f	-0.09662353
57	0x3cb0ee16	0.021597903
58	0x3dca080e	0.098648176
59	0x3da98e22	0.08279063
60	0xbd7cfe8c	-0.061766192
61	0x3d378fdb	0.044814926
62	0xbdf2bf0e	-0.11852847
63	0x3d55f8c7	0.052239206
64	0x3c0cf2a9	0.008602777
65	0x3c59b438	0.013287596
66	0x3c6db188	0.014507659
67	0xbdaf8bac	-0.08571562
68	0xbd4fe283	-0.050753128
69	0xbda56baf	-0.0807718
70	0x3ccf91c8	0.025338069
71	0xbd3287d0	-0.043586552
72	0x3d6d94cd	0.058003236
73	0xbc59c31a	-0.013291145
74	0x3c28b029	0.010295906
75	0x3c7aa8e1	0.015299053
76	0xbc39f679	-0.011350268
77	0xb9c311ce	-0.00037206564
78	0x3c0296d2	0.007970529
79	0xbd67d47f	-0.056599136
80	0xb9f540f9	-0.0004677845
81	0x3de7d013	0.11318984
82	0xbd008add	-0.03138243
83	0x3cc86b31	0.024465175
84	0x3c5298a7	0.012853778
85	0xbe32df27	-0.17467938
86	0xbb7daf8f	-0.0038709377
87	0xba79fbcd	-0.00095361174
88	0xbda86d69	-0.08223993
89	0x3d867b56	0.06566493
90	0x3c34f0b1	0.011043713
91	0xbd0df388	-0.034656078
92	0xb8f4a351	-0.00011665247
93	0x3c067846	0.008207386
94	0xbde32908	-0.110918105
95	0x3c93f23c	0.018059842
96	0xba852db4	-0.0010160715
97	0x3dafa32e	0.08576046
98	0x3c4813b0	0.012211725
99	0xbac2b51f	-0.0014855004
100	0xbd14ac16	-0.036296926
101	0xbba70142	-0.0050965855
102	0x3dd66190	0.10467827
103	0xbdef3081	-0.11679173
104	0x398d7d1b	0.00026986827
105	0xbcae5cb9	-0.021284448
106	0x3d4c2f30	0.04984969
107	0xbbb4e6d2	-0.00552068
108	0x3d16952e	0.036763363
109	0x3c53a6d9	0.012918198
110	0xbafb9eb4	-0.0019197077
111	0x3cbdc177	0.02316354
112	0xbc8c2975	-0.017109612
113	0xbd069d17	-0.032864656
114	0xbd11eecb	-0.03562812
115	0x3c0999a4	0.008398447
116	0xbd0a9101	-0.033829693
117	0xba1c608f	-0.0005965316
118	0xbc7cd78a	-0.015432248
119	0x00039380	3.2842e-40
120	0xbd5bc259	-0.05365214
121	0x3e0aa007	0.13537608
122	0xbdbecd4b	-0.093165
123	0xbdb31b12	-0.087453976
124	0xbc9c6246	-0.01908983
125	0xbe00bacb	-0.12571256
126	0x3d197020	0.037460446
127	0xbd10c67a	-0.035345532
