graph_models/binder/ros/GT.pth (torch, 302619 bytes, 36 tensors)

conv_layers.0.lin_key.weight f4 [128, 32]
0	0x3ecc3796	0.3988616
1	0xbe7f4fcb	-0.24932782
2	0xbe6538a0	-0.22384882
3	0xbd5bdec2	-0.053679235
4	0xbe65e06b	-0.2244889
5	0xbdfbb1a2	-0.1228974
6	0x3e863eda	0.26219827
7	0xbd18e42b	-0.037326973
8	0xbaabbff5	-0.0013103472
9	0x3bd11a2f	0.006381295
10	0x3c3d1e72	0.011542903
11	0xbc128d00	-0.00894475
12	0xbea81eb1	-0.32835916
13	0x3e89ccc6	0.26914042
14	0xbee1477a	-0.43999845
15	0xbe300b93	-0.17191915
16	0x3e270fd9	0.16314639
17	0x000a96ec	9.72496e-40
18	0xbcfbf7dc	-0.030757837
19	0xbeaed3a9	-0.3414586
20	0xbc90410c	-0.017609142
21	0x3ea2df07	0.3181078
22	0x80090617	-8.28704e-40
23	0x8005ecfb	-5.4419e-40
24	0xbcc9facf	-0.024655728
25	0x3e0fba96	0.1403602
26	0xbe08ad13	-0.13347273
27	0x3e167247	0.14692031
28	0x000be4e5	1.092302e-39
29	0x000a82bc	9.65254e-40
30	0x3d1ff908	0.039055854
31	0xbe052d60	-0.1300559
32	0x3e03b03f	0.12860201
33	0x3e5e6d26	0.21721324
34	0xbe933af4	-0.28755915
35	0x3d99a2b2	0.07501735
36	0xbe1902db	-0.14942496
37	0x3d1fc8f1	0.039009992
38	0x3d8f6b01	0.07002831
39	0x3c4f2298	0.012642525
40	0x3d932679	0.071850725
41	0x3cd92f4a	0.026511807
42	0xbd9a18ac	-0.07524237
43	0xbe4e14a2	-0.20125058
44	0xbdd7fe43	-0.105465434
45	0x3d9ae4d9	0.075631805
46	0xbc29f01a	-0.010372186
47	0xbe5f97e3	-0.21835284
48	0xbe7d6ef0	-0.2474935
49	0x80034a71	-3.02211e-40
50	0x3bb3f6de	0.0054920753
51	0xbe8a01c1	-0.26954463
52	0x3df80561	0.12110401
53	0x3dd1ff44	0.10253766
54	0x8009a98e	-8.87344e-40
55	0x00089990	7.89772e-40
56	0xbe052ed0	-0.13006139
57	0xbddead2f	-0.10872876
58	0xbd87118a	-0.06595142
59	0x3f04fa54	0.5194447
60	0x00021685	1.9175e-40
61	0x80080b82	-7.38812e-40
62	0x3e372257	0.17884193
63	0xbe1b8b79	-0.15189923
64	0x3c83ecd8	0.016104147
65	0x3d48da74	0.049036458
66	0xbd826a81	-0.0636797
67	0xbd8e8aa9	-0.06960041
68	0x3ea95970	0.33076048
69	0x3dae940d	0.08524332
70	0x3e7a6853	0.24453859
71	0x3cc99e41	0.024611594
72	0x3d4b5ee7	0.049651053
73	0xbd603475	-0.054737527
74	0xbc36cadb	-0.011156763
75	0xbe1bc97d	-0.1521358
76	0xbe4b7a33	-0.19870834
77	0x3e81cab5	0.25349966
78	0x3df7564d	0.120770074
79	0xbd6c43ae	-0.057681732
80	0xbdd28c7b	-0.10280701
81	0x000a6019	9.52828e-40
82	0x3d20019a	0.039064027
83	0xbe8871a2	-0.26649195
84	0x3e281bda	0.16416875
85	0x3e52bbf3	0.2057951
86	0x80087183	-7.75404e-40
87	0x0005878e	5.07805e-40
88	0xbe306f87	-0.17230044
89	0xbd9dd9ce	-0.077075586
90	0xbd8a9c64	-0.067681104
91	0x3eadbb82	0.3393212
92	0x800a1afd	-9.28037e-40
93	0x0000ea43	8.4037e-41
94	0xbe412351	-0.18861128
95	0xbd973e4a	-0.073849276
96	0x3dd95ad6	0.10613029
97	0x3e54df7f	0.20788382
98	0xbe7ca949	-0.24673952
99	0xbc378218	-0.01120045
100	0x3e0387ce	0.12844774
101	0xbdc9b3e2	-0.09848763
102	0xbc1eb5c4	-0.009686891
103	0x3d316697	0.043310728
104	0x3d907e87	0.07055383
105	0xbbe8eb46	-0.007108125
106	0x3e09b951	0.13449599
107	0xbe2d88b0	-0.16946673
108	0xbdcbe123	-0.09955051
109	0x3d57a540	0.05264783
110	0x3e2f2077	0.17102228
111	0x3d5acbbf	0.053416964
112	0xbe4c7582	-0.199667
113	0x80059e5f	-5.1599e-40
114	0xbdd876e9	-0.10569555
115	0xbe13d3d3	-0.14436273
116	0xbde0ef64	-0.1098316
117	0x3e4014d8	0.18757951
118	0x800900c6	-8.26797e-40
119	0x00020317	1.8478e-40
120	0xbdd37901	-0.10325814
121	0x3cb9ae23	0.022666043
122	0xbe33b563	-0.17549662
123	0x3f0d99fe	0.553131
124	0x800edb95	-1.364468e-39
125	0x800ea586	-1.345076e-39
126	0x3e07463f	0.1321039
127	0xbd9d7153	-0.076876305
128	0x3dec6182	0.11542036
129	0x3ba2525e	0.0049536666
130	0x3dcd2c7d	0.10018251
131	0x3e37c4ec	0.17946213
132	0xbeab9137	-0.33509228
133	0xbe0fa8a3	-0.14029174
134	0xbe8aeadf	-0.27132317
135	0xbd4aad25	-0.04948153
136	0xbd44621e	-0.047945134
137	0x3def2e30	0.116787314
138	0x3c8c98d3	0.017162716
139	0x3e2576aa	0.16158548
140	0x3e8ea8f0	0.27863264
141	0xbe837ae2	-0.2567969
142	0x3e25af11	0.16180064
143	0x3d56bb1c	0.052424535
144	0x3dfb7ef6	0.12280075
145	0x000bc312	1.080169e-39
146	0x3d80525b	0.06265708
147	0x3e5f9968	0.21835864
148	0xbdf853fc	-0.12125394
149	0xbd4832b2	-0.04887647
150	0x000f12ac	1.38423e-39
151	0x800e08ab	-1.288806e-39
152	0xbd90f690	-0.07078278
153	0x3e4dc566	0.20094833
154	0xbdf55785	-0.11979584
155	0xbeddb88e	-0.43304867
156	0x8009e164	-9.07374e-40
157	0x000b7f77	1.055916e-39
158	0x3ec30ba0	0.38094807
159	0xbcfa8100	-0.03057909
160	0x3dcc220c	0.099674314
161	0xbe64551b	-0.2229809
162	0xbe0d2e91	-0.13787295
163	0xbcb2198a	-0.021740694
164	0xbdd705dd	-0.10499165
165	0x3deeddcd	0.11663399
166	0x3e0c1db4	0.13683206
167	0x3c70671f	0.0146730235
168	0x3bab1a3a	0.0052216323
169	0xb6d1f5c9	-6.2572985e-06
170	0xbde4541a	-0.111488536
171	0x3ce831d5	0.028344074
172	0xbe6aef5c	-0.22942871
173	0x3e3ee70f	0.1864283
174	0x3d9f6a03	0.07783892
175	0xbde9ec80	-0.11422062
176	0xbdf0412b	-0.1173118
177	0x0009bea2	8.94906e-40
178	0x3e5d39ae	0.21604034
179	0xbe01fa5e	-0.12693164
180	0xbe2fa032	-0.17150953
181	0x3db747a0	0.08949208
182	0x000c813a	1.148384e-39
183	0x800e8a1e	-1.335244e-39
184	0xbe43a1f9	-0.19104756
185	0x3e0f68e3	0.14004855
186	0x3e144b0a	0.1448175
187	0x3c4814e2	0.01221201
188	0x000aefd6	1.004392e-39
189	0x800b0d7a	-1.015025e-39
190	0x3df52cf9	0.119714685
191	0xbe942ef3	-0.2894207
192	0x3e1471b4	0.144965
193	0x3e132641	0.14370061
194	0x3d9553dc	0.072913855
195	0xbc8b5b25	-0.017011235
196	0xbee68ee4	-0.45030892
197	0xbe24419a	-0.1604065
198	0xbe315f06	-0.17321405
199	0xbc785e3d	-0.015159187
200	0xbc3e3094	-0.011608262
201	0x3c8aa59e	0.016924676
202	0xbe0c22f8	-0.13685215
203	0xbd7bcae8	-0.061472803
204	0x3dfce99e	0.123492464
205	0xbe03e0d3	-0.12878732
206	0x3e99dfdc	0.30053604
207	0xbd68ae7c	-0.056807026
208	0x3c403f10	0.011733785
209	0x8003b782	-3.41337e-40
210	0xbd75aab6	-0.059977256
211	0x3dd987ee	0.1062163
212	0x3d86d36e	0.06583296
213	0xbdc1b638	-0.094585836
214	0x80069cf7	-6.07321e-40
215	0x0009637f	8.62212e-40
216	0xbe85bfeb	-0.26122984
217	0x3e5042fc	0.20338053
218	0x3cf9adc3	0.030478364
219	0x3dcfc3e2	0.101447836
220	0x8008ad61	-7.9688e-40
221	0x800cdbca	-1.180871e-39
222	0x3ec9dd7f	0.394268
223	0xbda6f474	-0.081520945
224	0x3d9cf2af	0.07663476
225	0xbe7b74f3	-0.24556331
226	0x3e3ee5e7	0.18642388
227	0xbcceaff8	-0.025230393
228	0xbe75d98c	-0.24008769
229	0xbde6132d	-0.11234126
230	0xbddc4078	-0.10754484
231	0xbd6e4001	-0.058166508
232	0xbdb1c642	-0.08680393
233	0x3d336e88	0.043806583
234	0xbcad22a6	-0.021134686
235	0x3dcabf0f	0.09899723
236	0x3e8ce288	0.2751658
237	0xbe636c5a	-0.22209302
238	0x3d75dba9	0.060023937
239	0x3dec0822	0.11524989
240	0x3e66ef99	0.22552337
241	0x800a4d97	-9.46189e-40
242	0x3e4e379b	0.201384
243	0x3dd0cc86	0.1019526
244	0x3e06ae26	0.1315237
245	0xbe64bcfc	-0.22337717
246	0x000610b6	5.57008e-40
247	0x800ccb5b	-1.174976e-39
248	0xbdcd6d81	-0.10030652
249	0x3e31897e	0.17337605
250	0x3e831c4c	0.25607526
251	0xbf1916c0	-0.5980034
252	0x800b4a31	-1.036805e-39
253	0x000a77ce	9.61333e-40
254	0x3d549655	0.05190118
255	0xba8ef6e9	-0.0010907325

conv_layers.0.lin_key.bias f4 [128]
0	0x36435b82	2.911053e-06
1	0xb7395f66	-1.1049071e-05
2	0xb4c6e8db	-3.70498e-07
3	0xb700ff9d	-7.688909e-06
4	0xb649916b	-3.0035978e-06
5	0x36fe0d6f	7.5713538e-06
6	0xb5970cfe	-1.1254158e-06
7	0x37d17e38	2.4973517e-05
8	0x373fc9b9	1.1431454e-05
9	0xb7a7c797	-2.0000893e-05
10	0x36f524b3	7.3058413e-06
11	0x37559b7e	1.2731993e-05
12	0xb59db817	-1.1750989e-06
13	0x36834055	3.9115935e-06
14	0x36ebabdd	7.0235533e-06
15	0x3762ea00	1.3525132e-05
16	0x37d1636c	2.4961038e-05
17	0x382b8f31	4.0902934e-05
18	0xb5fbd196	-1.8761955e-06
19	0x37286ad4	1.0038453e-05
20	0x37100b74	8.5857355e-06
21	0x368976a2	4.096729e-06
22	0xb70a3bc0	-8.239353e-06
23	0x374c2009	1.2166806e-05
24	0x37e31bd1	2.7073462e-05
25	0x384ac870	4.8347225e-05
26	0x37b39f90	2.1412765e-05
27	0xb7228355	-9.686531e-06
28	0xb6648044	-3.4049308e-06
29	0xb7a836ae	-2.0052623e-05
30	0xb6aeb9ce	-5.2072346e-06
31	0xb6bebced	-5.684435e-06
32	0x365f57b6	3.3280644e-06
33	0xb7ab31be	-2.0407952e-05
34	0x37dbb200	2.6189722e-05
35	0x36865574	4.0034593e-06
36	0x374a7b80	1.2068893e-05
37	0xb5b1905a	-1.322954e-06
38	0xb5f64782	-1.834924e-06
39	0xb6166a81	-2.2413735e-06
40	0x37ea2a33	2.7914624e-05
41	0xb71426e7	-8.830545e-06
42	0x37a91a86	2.015872e-05
43	0xb795f524	-1.7876337e-05
44	0x3799365a	1.826433e-05
45	0xb6d5b9f2	-6.3695416e-06
46	0x364adb67	3.0228055e-06
47	0xb76af398	-1.4004203e-05
48	0x37596be7	1.2959331e-05
49	0xb6a69a5d	-4.9651558e-06
50	0xb6f515fe	-7.304129e-06
51	0xb611a06b	-2.170006e-06
52	0xb74a1782	-1.2045612e-05
53	0x37843e31	1.5764586e-05
54	0xb79655ea	-1.79214e-05
55	0xb6d220c5	-6.2623026e-06
56	0x37ae15ce	2.075257e-05
57	0x37cd0dc9	2.4444324e-05
58	0xb6a379c6	-4.871955e-06
59	0x38250fe8	3.935388e-05
60	0x37a1dfc4	1.9296895e-05
61	0x37585c00	1.2896024e-05
62	0x375ce13c	1.3165463e-05
63	0xb6b3d3bb	-5.3592644e-06
64	0xb7d97463	-2.5922613e-05
65	0x360daa59	2.1109793e-06
66	0xb785dce2	-1.5957692e-05
67	0x371bdf7a	9.290752e-06
68	0xb69353d0	-4.3906985e-06
69	0x373c8d6f	1.1238603e-05
70	0x37078b3e	8.079047e-06
71	0xb6ce2e1c	-6.1446462e-06
72	0x3627c51d	2.4999674e-06
73	0xb83a69a9	-4.444426e-05
74	0x378b3528	1.6594844e-05
75	0x33dd1248	1.029444e-07
76	0xb693408a	-4.3884547e-06
77	0x37c28cd1	2.3192175e-05
78	0xb59a5341	-1.1498124e-06
79	0xb65defab	-3.3071071e-06
80	0x35ae237c	1.2974338e-06
81	0xb6d4c482	-6.340969e-06
82	0x353ac325	6.957437e-07
83	0xb4e24773	-4.2147767e-07
84	0xb79ee801	-1.8943103e-05
85	0xb4d62331	-3.988621e-07
86	0xb739dfc3	-1.1078958e-05
87	0xb79fcf48	-1.90508e-05
88	0xb6de5b84	-6.6267694e-06
89	0xb64c4291	-3.0437116e-06
90	0xb70d75b5	-8.431661e-06
91	0x36972cea	4.5053794e-06
92	0xb70b915e	-8.318892e-06
93	0x364c2da5	3.0424937e-06
94	0xb76035e6	-1.336399e-05
95	0x37bd723d	2.2583752e-05
96	0x36ba9718	5.5608216e-06
97	0x362cb147	2.5733186e-06
98	0xb79cf6de	-1.8711606e-05
99	0xb7bc4d5a	-2.2447366e-05
100	0x37e90ecb	2.7782653e-05
101	0xb74c66df	-1.2183299e-05
102	0x37191135	9.123517e-06
103	0x37096c12	8.190998e-06
104	0xb7c16944	-2.3056411e-05
105	0xb67f5418	-3.804691e-06
106	0x371a4b15	9.196597e-06
107	0xb6ad6db5	-5.1685734e-06
108	0xb7bb5248	-2.2330452e-05
109	0x3741f706	1.1561211e-05
110	0xb733c0e4	-1.0714142e-05
111	0xb69dc117	-4.7014432e-06
112	0x3749cb30	1.2027842e-05
113	0x368a9cbe	4.1309677e-06
114	0x37417e39	1.1533085e-05
115	0x3644cb96	2.9324779e-06
116	0xb6970d07	-4.5016673e-06
117	0xb6a26fdf	-4.8409997e-06
118	0x35bf6a5a	1.4261561e-06
119	0xb759f280	-1.2990669e-05
120	0xb65528fd	-3.1763332e-06
121	0x380a2a86	3.2941367e-05
122	0x37589da9	1.2911311e-05
123	0xb5a2d28c	-1.2131218e-06
124	0x3771f803	1.4422464e-05
125	0x36c2d43a	5.806357e-06
126	0xb6b57cba	-5.4087404e-06
127	0xb763735f	-1.3557116e-05

conv_layers.0.lin_query.weight f4 [128, 32]
0	0xbe77cdb6	-0.24199566
1	0x3e3de2f8	0.18543613
2	0xbeb70e4e	-0.357531
3	0x800107b1	-9.4595e-41
4	0x3dfb74bc	0.12278125
5	0x3e9dbeca	0.30809623
6	0x000b91a4	1.062436e-39
7	0x800b86bc	-1.058524e-39
8	0x800a001d	-9.18396e-40
9	0x3e8136c3	0.25237092
10	0x3e409788	0.18807805
11	0x3dc06bcd	0.09395561
12	0xbcabbda4	-0.020964451
13	0x3e3a36b7	0.18184935
14	0x3e1293c6	0.14314184
15	0xbeeda939	-0.4641817
16	0x3e15df4f	0.14635967
17	0x000ac799	9.89957e-40
18	0x800c84f0	-1.149715e-39
19	0xbe2a5332	-0.16633299
20	0xbe224ff9	-0.1585082
21	0x3e879cd3	0.26486835
22	0x0000d4ac	7.6292e-41
23	0x0003122a	2.82023e-40
24	0x3e26f1b0	0.16303134
25	0xbe2528e0	-0.16128874
26	0x3eb49251	0.3526788
27	0x0000541d	3.0174e-41
28	0x800aa3e3	-9.77146e-40
29	0x800b7c8c	-1.05487e-39
30	0x3ce7d729	0.028300839
31	0x3db5a9eb	0.088703
32	0x3e46d6ed	0.19417925
33	0x3d9a91bc	0.07547328
34	0xbe4eecce	-0.20207521
35	0x000ec41c	1.356048e-39
36	0x3e123896	0.14279398
37	0x3e36b422	0.17842153
38	0x00028eb4	2.34863e-40
39	0x000ad9a1	9.96426e-40
40	0x800add67	-9.97779e-40
41	0x3e3940cb	0.18091123
42	0x3e06ba64	0.1315704
43	0x3d5195bc	0.05116819
44	0x3e20ffda	0.157226
45	0xbdf90bfc	-0.12160489
46	0x3de959cf	0.11394083
47	0xbe810292	-0.25197273
48	0x3eb6f6d6	0.35735196
49	0x000bd21c	1.085563e-39
50	0x0005504b	4.87981e-40
51	0xbd0fda56	-0.03512033
52	0x3e9a8810	0.30181932
53	0x3d3e47b5	0.046455104
54	0x800472ef	-4.08572e-40
55	0x000354b8	3.05898e-40
56	0x3e892a23	0.2678996
57	0xbee2ab73	-0.4427143
58	0x3ecf2f70	0.4046588
59	0x800b889c	-1.059197e-39
60	0x000deede	1.279551e-39
61	0x0006770d	5.9372e-40
62	0xbe3e5f2f	-0.18590997
63	0xbd1d261e	-0.03836643
64	0x3cb08093	0.021545684
65	0x3e83c94a	0.2573951
66	0x3c1547fc	0.009111401
67	0x000a61e3	9.5347e-40
68	0x3d518dc5	0.051160593
69	0x3d1c1e28	0.038114697
70	0x800195e4	-1.45606e-40
71	0x0000a6a3	5.9778e-41
72	0x0002d3f0	2.597e-40
73	0x3d9824a9	0.07428867
74	0x3dc3fe00	0.09569931
75	0x3d4f4f6e	0.05061286
76	0x3dc3b4a7	0.09555941
77	0x3eb8ebf9	0.36117533
78	0x3e3150ae	0.17315933
79	0xbc96083d	-0.018314475
80	0x3e7ce202	0.2469559
81	0x80037767	-3.1834e-40
82	0x80074a98	-6.69608e-40
83	0x3e55c3be	0.20875451
84	0xbc23bae9	-0.009993293
85	0x3d74136c	0.059588835
86	0x800128ee	-1.06518e-40
87	0x000afaae	1.008282e-39
88	0x3e52e992	0.20596913
89	0xbdc84496	-0.09778707
90	0x3edeaad8	0.43489718
91	0x800ed55e	-1.362239e-39
92	0x000971be	8.67322e-40
93	0x00004872	2.5988e-41
94	0x3d2a1f55	0.041533787
95	0xbde74fef	-0.11294543
96	0x3e4f5ba5	0.20249803
97	0x3e3b5427	0.1829382
98	0xbe404c10	-0.18779016
99	0x000b3dba	1.032334e-39
100	0x3e36ebc2	0.17863372
101	0xbd555144	-0.052079454
102	0x800c964d	-1.155944e-39
103	0x00054ab3	4.85975e-40
104	0x0004ec29	4.5206e-40
105	0x3df88796	0.12135236
106	0x3e38d740	0.18050861
107	0x3d6d63a0	0.057956338
108	0x3e35dc8d	0.17759915
109	0xbda81831	-0.08207739
110	0x3e8d554f	0.27604148
111	0xbe6f4c32	-0.2336891
112	0x3e38e29b	0.18055193
113	0x000d3beb	1.215356e-39
114	0x0002e714	2.66566e-40
115	0xbdf70b83	-0.120627426
116	0x3e2568ca	0.16153255
117	0xbdd78cf7	-0.10524934
118	0x000c6d1a	1.141164e-39
119	0x8004bb26	-4.34478e-40
120	0x3e937995	0.28803697
121	0xbdd988ad	-0.10621772
122	0x3e6e82ad	0.23292036
123	0x00024274	2.0751e-40
124	0x800b93c5	-1.0632e-39
125	0x000b4d90	1.038015e-39
126	0xbd56cc8c	-0.052441165
127	0xbe31ae7e	-0.1735172
128	0xbde73e5c	-0.11291191
129	0xbc62de92	-0.01384701
130	0xbea20c7b	-0.31650147
131	0x0006383b	5.71185e-40
132	0xbdc2f57b	-0.09519478
133	0xbe595f02	-0.21227649
134	0x8000f925	-8.9376e-41
135	0x0009ec80	9.1136e-40
136	0x800a3895	-9.38653e-40
137	0xbc846529	-0.016161518
138	0x3c25d994	0.010122675
139	0xbd27beb9	-0.04095337
140	0x3936d787	0.00017437163
141	0xbf18ec17	-0.59735245
142	0x3d560af1	0.05225653
143	0xbeb03757	-0.3441722
144	0xbe711eea	-0.23546949
145	0x0001d447	1.67986e-40
146	0x80091976	-8.35653e-40
147	0xbe78c3ce	-0.24293444
148	0x3df8d2d5	0.12149588
149	0xbee9a8a2	-0.4563647
150	0x800c870a	-1.150469e-39
151	0x0009b022	8.89704e-40
152	0xbdd4a019	-0.10382099
153	0x3d61ffa8	0.055175453
154	0xbe430fb1	-0.19048955
155	0x8000e715	-8.2897e-41
156	0x00058112	5.05479e-40
157	0x000ae22d	9.99492e-40
158	0xbe8c8ac3	-0.27449617
159	0xbdd6da98	-0.10490912
160	0x3d5efe9c	0.054442033
161	0x3e2445e9	0.16042294
162	0xbe84bc87	-0.25925085
163	0x800ef74c	-1.37441e-39
164	0xbd827793	-0.06370463
165	0xbc3828f8	-0.011240236
166	0x800c56d3	-1.133173e-39
167	0x00082b76	7.50275e-40
168	0x000a89ef	9.67836e-40
169	0x3e232ed6	0.15935835
170	0xbcfbffbe	-0.030761596
171	0x3dfc23ff	0.12311553
172	0xbe1bd280	-0.15217018
173	0x3ce4d27e	0.027932402
174	0xbd1ca82b	-0.038246315
175	0xbe8d611d	-0.27613154
176	0x3d5e8f94	0.054336146
177	0x80090074	-8.26682e-40
178	0x800ebea2	-1.354083e-39
179	0xbd81be42	-0.06335117
180	0xbd0caa7b	-0.03434227
181	0x3e02a3f5	0.12757857
182	0x0009a0ca	8.842e-40
183	0x00028168	2.30093e-40
184	0xbe307a68	-0.17234194
185	0xbd9dda74	-0.07707682
186	0x3ef21b34	0.4728638
187	0x0000197a	9.139e-42
188	0x0008441f	7.59121e-40
189	0x800e0f02	-1.291081e-39
190	0xbdef9956	-0.116991684
191	0xbcfff95d	-0.031246835
192	0x3b0c6b0d	0.0021426112
193	0xbde72e61	-0.11288143
194	0xbeac564e	-0.33659595
195	0x800728f9	-6.57547e-40
196	0x3d5bad26	0.053631924
197	0xbea8958e	-0.329266
198	0x0005f192	5.45837e-40
199	0x80058ff1	-5.10814e-40
200	0x800ae6c7	-1.001142e-39
201	0xbc54009d	-0.012939599
202	0xbe32bc75	-0.17454703
203	0x3d734622	0.059393056
204	0x3daf8615	0.08570496
205	0xbeaead67	-0.3411667
206	0xbd6f5799	-0.05843315
207	0xbea5c729	-0.3237851
208	0xbe9669c6	-0.29377574
209	0x00082089	7.46355e-40
210	0x000031a0	1.7802e-41
211	0xbe9f8274	-0.31154215
212	0xbd3b6176	-0.045747243
213	0x3d66a2c3	0.056307565
214	0x00017eba	1.37296e-40
215	0x00060221	5.51777e-40
216	0xbd1c028f	-0.038088378
217	0xbe825451	-0.25454953
218	0xbcaa45af	-0.02078518
219	0x000a453d	9.43193e-40
220	0x8004e209	-4.48428e-40
221	0x0002dd9e	2.63172e-40
222	0x3e8cf3e6	0.2752983
223	0xbe46f745	-0.19430263
224	0xbdbbc92a	-0.091692284
225	0xbe81164f	-0.25212333
226	0xbccf4c0d	-0.025304819
227	0x800d1ac9	-1.20347e-39
228	0xbe24fe04	-0.16112524
229	0xbe8795ae	-0.26481384
230	0x00051254	4.65752e-40
231	0x80012eb5	-1.08591e-40
232	0x0008eddd	8.20013e-40
233	0xbdfe1200	-0.12405777
234	0xbe00bb45	-0.12571438
235	0x3b8732b5	0.004125918
236	0xbe3ab690	-0.18233705
237	0xbd6f5fa8	-0.058440834
238	0xbe8e752d	-0.27823773
239	0xbdce5f53	-0.100767754
240	0xbeaa9a06	-0.33320636
241	0x000cc97a	1.174302e-39
242	0x80024567	-2.08568e-40
243	0x3e03f44a	0.12886158
244	0xbed06433	-0.40701446
245	0xbddd106b	-0.10794147
246	0x80084885	-7.60699e-40
247	0x000a115d	9.24584e-40
248	0xbed9c7d9	-0.42535284
249	0x3e8c1dbc	0.27366436
250	0xbe6303f1	-0.22169472
251	0x80094672	-8.5179e-40
252	0x80055619	-4.90064e-40
253	0x000bcd25	1.083782e-39
254	0x3e8784b7	0.2646844
255	0xbd973c1f	-0.07384514

conv_layers.0.lin_query.bias f4 [128]
0	0xbd7f702e	-0.062362842
1	0x3e495528	0.19661391
2	0x3da20f84	0.079131156
3	0x3e9c4753	0.30523166
4	0xbd8601e2	-0.06543328
5	0xbaf08613	-0.0018350504
6	0x3d20ab82	0.039226063
7	0xbec4cf30	-0.38439322
8	0xbe926d57	-0.28599045
9	0x3eccce00	0.40000916
10	0x3e97ba3f	0.29634282
11	0xbe4aafd4	-0.19793636
12	0x3d8dbc64	0.06920698
13	0xbe8440bb	-0.25830635
14	0xbd7d4895	-0.061836798
15	0xbe86b607	-0.2631075
16	0xbeaa8638	-0.33305526
17	0xbeabbafe	-0.335411
18	0x3df50760	0.11964297
19	0xbe98ef5b	-0.29870114
20	0xbeba01c0	-0.3632946
21	0x3ac4a477	0.0015002628
22	0x3e9d5a21	0.30732825
23	0xbe6bfa3a	-0.23044673
24	0xbdf088e4	-0.1174486
25	0xbeb337fe	-0.35003656
26	0xbe05f7e8	-0.1308285
27	0xbd8fadcf	-0.07015573
28	0x3d8405d3	0.064464234
29	0x3e9bb423	0.3041087
30	0xbe0720f3	-0.13196163
31	0x3e87523a	0.2642992
32	0x3dde8bc2	0.108665004
33	0x3e8c16ed	0.2736124
34	0xbe7adcfd	-0.24498363
35	0x3e680583	0.22658353
36	0xbe5d8b58	-0.21635187
37	0x3dac7083	0.084198974
38	0x3e5eee47	0.21770583
39	0x3e31af75	0.17352088
40	0xbebed5eb	-0.3727258
41	0x3e4c24af	0.19935869
42	0xbe90173f	-0.28142735
43	0x3ec01063	0.37512502
44	0xbe977df2	-0.29588276
45	0xbe7132b9	-0.23554505
46	0xbe50ba1c	-0.20383495
47	0x3e3983a2	0.1811662
48	0xbe745994	-0.23862296
49	0xbe6a70f9	-0.22894658
50	0x3e297d36	0.1655167
51	0x3dd14a23	0.102192186
52	0xbd3f948c	-0.046772525
53	0xbe9c5126	-0.3053066
54	0x3e0e2d6d	0.13884516
55	0x3ec79be9	0.38986138
56	0xbe823e64	-0.25438225
57	0xbe884a8d	-0.26619378
58	0xbe3e1af5	-0.18564971
59	0xbed791e3	-0.4210349
60	0xbe3006d5	-0.17190106
61	0xbe9cf9fc	-0.30659473
62	0xbe34efd7	-0.17669617
63	0x3dc0563c	0.09391448
64	0xbe875dea	-0.26438838
65	0xbe418020	-0.18896532
66	0xbe8b120f	-0.27162215
67	0x3d1ad45f	0.03780019
68	0xbd213459	-0.039356563
69	0x3ebc03db	0.3672169
70	0x3dd2fbbf	0.10301923
71	0xbd8bc625	-0.068249024
72	0xbe6f6d82	-0.23381618
73	0xbe907b5b	-0.28219113
74	0x3e82156e	0.25406975
75	0x3dcfaa10	0.10139859
76	0xbdc82cef	-0.097741954
77	0x3e430d55	0.19048055
78	0xbbacda88	-0.0052750744
79	0xbe48a25e	-0.19593188
80	0x3cfa9da7	0.030592753
81	0xbde982fe	-0.11401938
82	0x3ea4e3bf	0.32205006
83	0x3bb518cc	0.0055266377
84	0xbeb13948	-0.34614015
85	0x3ecc60ad	0.39917508
86	0xbe87bea9	-0.2651265
87	0xbd3e811a	-0.04650984
88	0xbe37d33b	-0.17951672
89	0x3ec455c3	0.3834668
90	0xbe98d15d	-0.29847232
91	0xbe274162	-0.16333535
92	0xbeb0ad24	-0.34507096
93	0x3e0e3031	0.13885571
94	0xbe438144	-0.1909228
95	0x3dd0b0af	0.1018995
96	0xbddfbd69	-0.10924799
97	0x3c1f9df4	0.009742249
98	0xbe202174	-0.15637761
99	0xbe5dbf12	-0.21654919
100	0x3e83e8ff	0.257637
101	0xbea7a7db	-0.3274525
102	0x3e821485	0.2540628
103	0x3dd4be1c	0.10387823
104	0xbd8f437f	-0.06995296
105	0x3e903d0f	0.28171584
106	0xbcbf5e59	-0.023360418
107	0xbe5ac811	-0.21365382
108	0xbe9af84d	-0.30267563
109	0xbe9721a6	-0.2951786
110	0x3edc3857	0.43011734
111	0x3d036373	0.032077264
112	0x3e913a27	0.2836468
113	0xbcc8aad6	-0.024495523
114	0xbd1e5018	-0.038650602
115	0x3ebd6610	0.3699193
116	0x3e63ca6c	0.22245187
117	0xbea4d185	-0.321911
118	0x3e7b2324	0.24525124
119	0xbb5be6c7	-0.0033554302
120	0xbe636d5b	-0.22209685
121	0x3ed80206	0.42189044
122	0x3db718c2	0.08940269
123	0xbe381d7b	-0.17979996
124	0xbe2e2e1a	-0.17009774
125	0x3d0d9ce1	0.03457344
126	0xbdada974	-0.08479586
127	0xbe279fd8	-0.1636957

conv_layers.0.lin_value.weight f4 [128, 32]
0	0x3e23814f	0.15967296
1	0x3dc8f8d5	0.09813086
2	0xbcca5395	-0.024698058
3	0xbc05f246	-0.008175438
4	0xbda00e4f	-0.07815229
5	0xbe8872a2	-0.26649958
6	0x3dd6c3bc	0.10486552
7	0xba80a929	-0.0009816039
8	0xbb18fa7c	-0.002334266
9	0xbe4b1d85	-0.1983548
10	0xbe83c5eb	-0.25736937
11	0x3e8702a7	0.2636921
12	0x3e1ee480	0.15516853
13	0xbc809680	-0.015696764
14	0x3dc186d2	0.09449543
15	0x3e8582e0	0.26076412
16	0x3e14c8a5	0.14529665
17	0x8004e793	-4.50415e-40
18	0xbc07f749	-0.0082987035
19	0x3e323bd2	0.17405632
20	0x3e7f4357	0.24928032
21	0x3d8f75cd	0.070048906
22	0x0009f579	9.14578e-40
23	0x000150dd	1.20844e-40
24	0x3ca489ca	0.020085234
25	0xbd6421ec	-0.055696413
26	0xbd317ff2	-0.04333491
27	0x3d52326f	0.05131763
28	0x0008a68b	7.94428e-40
29	0x80076173	-6.77807e-40
30	0xbcedaf00	-0.02901411
31	0xbe87daf3	-0.26534232
32	0xbdd46b6e	-0.10372053
33	0xbd902cda	-0.07039805
34	0xbe571162	-0.21002725
35	0x3ea04ad3	0.31307086
36	0x3cabb643	0.020960933
37	0x3e1614ee	0.14656422
38	0x3ba05b7c	0.0048937183
39	0x3d553a78	0.052057713
40	0xbce878ef	-0.028377978
41	0x3e86d6a4	0.26335633
42	0x3e31e375	0.17371924
43	0xbed12c10	-0.4085393
44	0xbcfcf696	-0.0308793
45	0x3e0450ed	0.12921496
46	0x3dd30c47	0.10305076
47	0x3d5ef5a2	0.054433472
48	0xbd4d09f8	-0.050058335
49	0x000116d7	1.00029e-40
50	0x3db2cf92	0.08730997
51	0xbd93b895	-0.072129406
52	0x3e067b3f	0.13132952
53	0xbcdafdf2	-0.026732419
54	0x0004704b	4.07625e-40
55	0x0005779f	5.0209e-40
56	0x3d181ec1	0.037138704
57	0x3e330cfb	0.1748542
58	0xbddb37b3	-0.10703983
59	0x3ea728c0	0.32648277
60	0x80092c31	-8.42372e-40
61	0x800d6e9f	-1.233545e-39
62	0x3a9650fe	0.0011468229
63	0x3da3a50d	0.07990465
64	0xbbfebc14	-0.0077738855
65	0x3d9de98a	0.0771056
66	0xbb01e9de	-0.0019823234
67	0x3cc15e03	0.023604399
68	0x3d79b51c	0.060963735
69	0xbe088da3	-0.1333528
70	0xbdb9af81	-0.09066678
71	0xbe0defa5	-0.13860948
72	0xbe40b373	-0.18818454
73	0xbec94ec9	-0.3931792
74	0x3e453106	0.19256982
75	0x3d159721	0.03652108
76	0x3dce8c69	0.10085375
77	0xbe213c1f	-0.1574559
78	0x3d34c125	0.04412951
79	0x3e952fc3	0.29138002
80	0x3deb8618	0.11500186
81	0x00070210	6.43588e-40
82	0xbdfc8e4c	-0.123318285
83	0x3e58e203	0.21179967
84	0x3dd12ee3	0.10214021
85	0xbd878d2a	-0.06618722
86	0x000ed835	1.363257e-39
87	0x000af7e4	1.007281e-39
88	0xbe091471	-0.13386704
89	0x3ea75b0f	0.3268666
90	0x3e6909d1	0.22757651
91	0xbd8ad7a9	-0.06779415
92	0x800c84f8	-1.149726e-39
93	0x800e1714	-1.293976e-39
94	0x3decfc16	0.11571519
95	0xbd88fbcf	-0.06688654
96	0x3d447b96	0.047969423
97	0x3be37ab1	0.006942116
98	0x3c1355b2	0.008992599
99	0xbd716061	-0.058929805
100	0xbd90981b	-0.07060262
101	0x3d93aca8	0.07210666
102	0xbeb43dfe	-0.35203546
103	0x3daf420b	0.085575186
104	0x3d27db7b	0.040980797
105	0xbe5c0123	-0.21484809
106	0xbd5fbeac	-0.0546252
107	0x3e00f929	0.12595047
108	0x3dd05df1	0.10174168
109	0xbe6187d2	-0.22024468
110	0x3e4cf2f6	0.20014557
111	0x3e5f80db	0.21826498
112	0xbe901b82	-0.28145987
113	0x0008d33e	8.10463e-40
114	0x3de8a5e7	0.11359768
115	0x3e298c30	0.16557384
116	0xbe11b3e7	-0.14228784
117	0x3d8608d2	0.06544651
118	0x00068ec4	6.02228e-40
119	0x800ba923	-1.070865e-39
120	0xbe102ebc	-0.14080328
121	0xbe189d13	-0.14903669
122	0x3db14159	0.08655042
123	0xbe1b21ec	-0.15149659
124	0x0009bd52	8.94435e-40
125	0x000703bb	6.44187e-40
126	0x3d6be6cd	0.057593156
127	0xbdcbea74	-0.09956828
128	0xbcef3e1b	-0.029204419
129	0xbe92b17f	-0.28651044
130	0x3e327836	0.1742867
131	0xbde015ac	-0.109416336
132	0x3e10ba2a	0.14133516
133	0xbe426540	-0.18983936
134	0xbda2f70e	-0.07957278
135	0x3dec7962	0.115465894
136	0x3d998a41	0.07497073
137	0x3ddefd9a	0.108882144
138	0xbe463ebf	-0.19359873
139	0x3e87d942	0.26532942
140	0x3d36b21c	0.044603452
141	0xbe22445c	-0.1584639
142	0xbe44254f	-0.19154857
143	0xbe4e2e20	-0.20134783
144	0x3e3ebc02	0.18626407
145	0x000e97c3	1.340139e-39
146	0x3e3e203d	0.18566985
147	0xbcddd960	-0.027081192
148	0xbe64f09b	-0.22357409
149	0x3dfae32f	0.12250363
150	0x000e073b	1.288291e-39
151	0x00064660	5.76259e-40
152	0xbe1102d2	-0.14161232
153	0x3d29153b	0.041280013
154	0xbe0a449b	-0.13502733
155	0x3d61e997	0.05515441
156	0x800b5b92	-1.04304e-39
157	0x80011c81	-1.02061e-40
158	0x3b2d3b69	0.0026433116
159	0xbdd6907d	-0.10476778
160	0x3d5064b7	0.0508773
161	0x3eb5aec2	0.35484892
162	0x3d43541f	0.047687646
163	0xbdae6c0e	-0.085167035
164	0x3e2fb874	0.17160207
165	0xbd832a8f	-0.06404602
166	0xbd8d3beb	-0.06896194
167	0x3d788a04	0.060678497
168	0xbdbb15fa	-0.09135051
169	0xbe5a3de8	-0.21312678
170	0xbd811c0c	-0.06304178
171	0x3e8c5af3	0.2741314
172	0xbe3f4b97	-0.18681179
173	0xbe268ae2	-0.16263917
174	0xbe05e570	-0.13075805
175	0xbe1be500	-0.15224075
176	0xbde69d31	-0.11260451
177	0x0007e12d	7.23626e-40
178	0xbaf56c9d	-0.0018724386
179	0xbccefa13	-0.025265729
180	0x3c19332f	0.009350582
181	0xbda9b8fb	-0.08287235
182	0x8009a1b3	-8.84526e-40
183	0x00097f5e	8.7221e-40
184	0x3e15f978	0.14645946
185	0xbe2f3730	-0.17110896
186	0x3e5bf5e0	0.21480513
187	0xbed181f2	-0.40919453
188	0x000ec7ad	1.357327e-39
189	0x000b362a	1.029621e-39
190	0x3e0ea1d3	0.13928919
191	0xbd868266	-0.0656784
192	0xbd2cb30e	-0.042162947
193	0x3d4cdb12	0.05001361
194	0xbe697bc5	-0.2280112
195	0x3dc21704	0.09477046
196	0x3d486b8f	0.0489307
197	0x3e919b99	0.28439024
198	0xbd809dda	-0.06280108
199	0xbd0d3e05	-0.034482975
200	0xbd0d54a0	-0.034504533
201	0x3bcdf08b	0.0062847785
202	0x3e0f052b	0.13966815
203	0xbe7f3031	-0.24920727
204	0x3a97bbd6	0.0011576365
205	0x3d2cd286	0.04219296
206	0xbd069ec2	-0.032866247
207	0xbe29e243	-0.16590218
208	0xbc0c80df	-0.008575647
209	0x000e34b5	1.304605e-39
210	0xbe3d123c	-0.18463987
211	0xbe56f242	-0.20990852
212	0x3d070e20	0.032972455
213	0x3e2e9910	0.17050576
214	0x000383d5	3.22799e-40
215	0x80030cdb	-2.80118e-40
216	0x3e56840c	0.2094881
217	0xbda6fefe	-0.08154105
218	0xbdcbe913	-0.09956565
219	0xbe917c93	-0.28415355
220	0x80043483	-3.8618e-40
221	0x000a9e6c	9.75186e-40
222	0x3d6015e4	0.054708377
223	0x3e818bd2	0.25301987
224	0x3de13438	0.10996288
225	0x3e8c67d8	0.27422976
226	0xbe0be42a	-0.13661256
227	0xbe502d11	-0.20329691
228	0xbd964241	-0.07336856
229	0x3e99a609	0.30009487
230	0xbe5852f1	-0.2112539
231	0xbe4dd084	-0.20099074
232	0x3d1c1338	0.038104266
233	0xbae9508f	-0.0017800498
234	0x3ccdb5eb	0.02511116
235	0xbe33b9f4	-0.17551404
236	0xbd70e3f8	-0.058811158
237	0x3c09867e	0.008393882
238	0x3dc47fb2	0.095946684
239	0x3e5b8f7f	0.21441458
240	0x3e86206a	0.26196605
241	0x800339f3	-2.96295e-40
242	0xbe8d3570	-0.27579832
243	0x3deb1e71	0.114804156
244	0xbc2fcae2	-0.010729523
245	0x3dafb35a	0.085791305
246	0x8009b842	-8.92619e-40
247	0x00100a1a	1.472992e-39
248	0xbe253e0f	-0.16136955
249	0x3e026221	0.12732746
250	0x3dfde629	0.12397415
251	0x3da39300	0.079870224
252	0x0005ce31	5.33145e-40
253	0x8003b70d	-3.41173e-40
254	0xbea204ae	-0.31644195
255	0xbde118e5	-0.109910764

conv_layers.0.lin_value.bias f4 [128]
0	0x3cf1722f	0.029473392
1	0xbc970745	-0.018436084
2	0xbdae055f	-0.08497118
3	0x3d928e6f	0.07156073
4	0x3c5f419b	0.013626481
5	0xbda53caa	-0.080682114
6	0x3e07833f	0.1323366
7	0x3e24a449	0.16078295
8	0x3d09a352	0.03360302
9	0xbd28f3a0	-0.041247964
10	0xbbfab35f	-0.007650777
11	0x3dc0425b	0.09387656
12	0xbd860b91	-0.06545175
13	0x3cd25448	0.025674954
14	0xbda71ba9	-0.08159573
15	0xbe14ccca	-0.14531246
16	0xbdf46337	-0.11932986
17	0x3bb4ebb6	0.005521263
18	0x3d68fbc6	0.056880735
19	0xbe1d06cc	-0.15334624
20	0x3cbae8dd	0.022816116
21	0xbdae4152	-0.085085526
22	0x3e034cef	0.12822317
23	0xbd8f9ad9	-0.07011957
24	0x3e025047	0.12725936
25	0x3dd47055	0.10372988
26	0x3dc4af2c	0.09603724
27	0x3dfc4a98	0.12318915
28	0x3e2cea4b	0.1688625
29	0xbe4fa338	-0.20277107
30	0x3e0588aa	0.13040414
31	0x3c8ddc33	0.017316913
32	0xbcbe9e35	-0.023268798
33	0x3d6e2257	0.058138218
34	0x3d28ac5d	0.041180003
35	0xbddf6695	-0.10908238
36	0x3da1677b	0.078810655
37	0xbd8dc3b1	-0.06922091
38	0xbdf3698b	-0.11885365
39	0x3e1e877f	0.15481375
40	0xbc677888	-0.014127858
41	0xbc76400a	-0.015029917
42	0xbd8618e2	-0.06547715
43	0x3dfc5aca	0.12322004
44	0x3d2acf01	0.04170132
45	0x3d8d5f2f	0.069029205
46	0x3dfb7596	0.12278287
47	0x3d63482a	0.055488743
48	0xbdeafb72	-0.11473741
49	0x3dc813fc	0.09769437
50	0xbe1c03c4	-0.15235811
51	0x3df56da1	0.11983801
52	0x3d2e6fd9	0.042587135
53	0xbe195ec5	-0.14977558
54	0x3e134af3	0.1438406
55	0x3e85a28d	0.2610058
56	0xbe106ff1	-0.14105202
57	0x3af9947d	0.0019041445
58	0xbe5d9155	-0.21637471
59	0xbcd02766	-0.025409412
60	0x3d5c29b9	0.053750727
61	0x3e19c85a	0.15017834
62	0x3d8e670e	0.0695325
63	0x3dceffb8	0.10107368
64	0x3b747264	0.0037299627
65	0xbd8b5766	-0.06803779
66	0x3cf38268	0.029725268
67	0x3e41579e	0.1888108
68	0xbdd648cd	-0.104631044
69	0xbd770599	-0.060308073
70	0xbdc83921	-0.097765215
71	0xbd6178bb	-0.05504678
72	0x3d46e23a	0.04855559
73	0x3d9a3a8a	0.07530697
74	0xbda8a617	-0.08234804
75	0x3c98f928	0.018673494
76	0xbdc13c0a	-0.0943528
77	0xbdf3e4c3	-0.11908867
78	0x3e024947	0.12723266
79	0xbde16e8c	-0.11007413
80	0xbda8cbf1	-0.08242024
81	0xbd8f4f1d	-0.069975115
82	0x3c673135	0.014110853
83	0x3d88b603	0.06675341
84	0x3e007407	0.12544261
85	0x3d8dfe77	0.06933301
86	0xbde7605b	-0.11297675
87	0xbcae7068	-0.021293834
88	0xbe274890	-0.16336274
89	0x3e147471	0.14497544
90	0x3d523faa	0.051330246
91	0xbd7fa8bd	-0.06241678
92	0xbd5a17a5	-0.053245205
93	0x3b233573	0.0024903684
94	0xbd18d354	-0.037310913
95	0xba86a01d	-0.0010271106
96	0xbd659c57	-0.0560573
97	0xbbe76be6	-0.007062423
98	0x3d9a68cb	0.07539519
99	0xbe10244d	-0.14076348
100	0x3d97c93e	0.07411431
101	0xbd47c70f	-0.04877382
102	0x3d97b2ec	0.074071735
103	0xbcf37329	-0.029717999
104	0x3e202121	0.15637638
105	0xbe0cdda9	-0.13756432
106	0xbd271014	-0.040786818
107	0xbe2f063d	-0.17092223
108	0x3d9d8078	0.07690519
109	0xbc2e0853	-0.010622102
110	0xbc078db2	-0.008273529
111	0x3e3bf7df	0.18356274
112	0xbd96901b	-0.07351705
113	0xbb2c0f9b	-0.0026254419
114	0x3d673276	0.056444608
115	0xbcf51174	-0.029915549
116	0x3d9ff50e	0.07810412
117	0x3dbc0767	0.091810994
118	0x3db6c9ad	0.08925185
119	0xbc82601b	-0.015914967
120	0x3bcc217e	0.0062295785
121	0xbd593871	-0.053032342
122	0xbe152564	-0.14565045
123	0xbd95ca8a	-0.07314022
124	0xbce3584b	-0.027752062
125	0xbd4770ca	-0.04869155
126	0xbe07a6b6	-0.13247189
127	0x3dcdb235	0.10043756

conv_layers.0.lin_edge.weight f4 [128, 11]
0	0x3d1dc08b	0.0385137
1	0xbe191e22	-0.14952901
2	0xbd986931	-0.07441939
3	0xbe52aea6	-0.20574436
4	0xbe0d60e5	-0.13806494
5	0xbed80b17	-0.4219596
6	0xbdf825cc	-0.12116584
7	0x000ef554	1.373704e-39
8	0x3f1fa62b	0.6236293
9	0xbdfff2d1	-0.124974854
10	0x8006c008	-6.19901e-40
11	0xbd73f86d	-0.05956309
12	0x3e9a8f19	0.301873
13	0xbce2be7e	-0.027678724
14	0xbe6f1b45	-0.23350246
15	0x3eaf7345	0.3426763
16	0x3e36b710	0.1784327
17	0xbe34323c	-0.17597288
18	0x000291aa	2.35925e-40
19	0x3e0a7575	0.13521369
20	0xbce411eb	-0.027840575
21	0x000567df	4.9644e-40
22	0xbe03f00a	-0.12884536
23	0x3dbced27	0.09224921
24	0xbd516a1f	-0.051126596
25	0xbd8d2069	-0.06890947
26	0x3d61ba45	0.05510928
27	0xbdc42f92	-0.09579386
28	0x3d9f2863	0.07771375
29	0x000894d0	7.88068e-40
30	0x3d990ba7	0.07472926
31	0x3b1156dd	0.0022177019
32	0x800a4b14	-9.45288e-40
33	0x3d724af5	0.059153516
34	0x3deafb00	0.11473656
35	0x3d15fd0a	0.03661827
36	0xbe864de7	-0.2623131
37	0x3defff2a	0.117185906
38	0x3d324671	0.04352421
39	0x3d572ac7	0.05253103
40	0x0009c55a	8.97316e-40
41	0xbe60ee5d	-0.21965928
42	0xbe4dc99d	-0.2009644
43	0x0008446b	7.59228e-40
44	0xbe1ae0f2	-0.15124872
45	0xbac21504	-0.0014807289
46	0x3d90c07b	0.07067963
47	0xbd5a85ee	-0.05335038
48	0x3e9b6408	0.30349755
49	0xbd89ceb3	-0.06728878
50	0x3e822c92	0.2542463
51	0x80029cb4	-2.39885e-40
52	0x3d85385c	0.0650489
53	0xbe48098d	-0.19534893
54	0x0009a9c1	8.87416e-40
55	0x3e4605f8	0.19338214
56	0x3e63fea3	0.22265105
57	0xbdeed383	-0.116614364
58	0xbde1ed9a	-0.11031647
59	0xbe74690b	-0.23868196
60	0xbc0acafe	-0.008471249
61	0x3e22bd91	0.15892626
62	0x80076b5b	-6.8136e-40
63	0xbf021478	-0.5081248
64	0xbe23e546	-0.1600543
65	0x00051df1	4.69918e-40
66	0xbc5021df	-0.012703388
67	0xbdbd6db6	-0.09249441
68	0x3e834ab1	0.25642923
69	0xbd5752c3	-0.052569162
70	0xbcbc0ae0	-0.022954404
71	0x3e8c115a	0.27356988
72	0xbe65944c	-0.22419852
73	0x800a6dfb	-9.57809e-40
74	0xbd9a71ee	-0.075412616
75	0x3ea9a852	0.3313623
76	0x0006ecab	6.35913e-40
77	0xbe4a4753	-0.1975377
78	0x3df6ca04	0.1205025
79	0xbe3b89cf	-0.18314289
80	0x3dd12240	0.10211611
81	0xbeb96cc4	-0.36215794
82	0xbdc68c7a	-0.096947625
83	0xbd62e090	-0.05538994
84	0x000634ed	5.69999e-40
85	0x3e6c7f6d	0.23095484
86	0xbe6f8cc9	-0.23393549
87	0x0007b438	7.07499e-40
88	0x3e80545f	0.2506437
89	0xbd66620b	-0.056245845
90	0xbe2b309c	-0.16717762
91	0x3deef3a5	0.11667565
92	0xbeec67f3	-0.46173057
93	0x3e8ba44d	0.2727379
94	0xbe6f409f	-0.23364495
95	0x800bf898	-1.099369e-39
96	0x3de76d6e	0.11300169
97	0x3da845b1	0.082164176
98	0x000f011e	1.377933e-39
99	0x3e4a9a69	0.19785465
100	0x3e3fac77	0.18718134
101	0xbe71b0d8	-0.23602617
102	0x3e59391b	0.2121319
103	0x3dfc18f7	0.12309449
104	0x3db27191	0.08713067
105	0xbd41d9a7	-0.04732671
106	0x80018a22	-1.41388e-40
107	0x3cd5dd44	0.026106484
108	0xbced3949	-0.02895798
109	0x00026566	2.20046e-40
110	0xbe1123d8	-0.1417383
111	0xbdc33f85	-0.095336
112	0xbe2bf6d4	-0.16793376
113	0xbe6fc46b	-0.23414771
114	0xbd4fb93f	-0.050713774
115	0xbe2e279a	-0.17007294
116	0x3e88aada	0.2669285
117	0x800d94fb	-1.247306e-39
118	0x3e0102ef	0.12598775
119	0xbd8bdee0	-0.068296194
120	0x000c38af	1.12236e-39
121	0x3e8f484b	0.27984843
122	0xbe11ee9d	-0.1425118
123	0xbe01e1cb	-0.1268379
124	0x3dda4195	0.1065704
125	0x3e5a6b82	0.21330073
126	0x3e7cc754	0.24685413
127	0xbd55064f	-0.05200797
128	0x8008a1b0	-7.92687e-40
129	0x3e4f80ef	0.20264028
130	0xbd97535a	-0.07388945
131	0x8001e8e7	-1.75385e-40
132	0xbe117161	-0.14203407
133	0xbe3cbdaa	-0.18431726
134	0xbe8e0ab5	-0.27742544
135	0xbe485e80	-0.19567299
136	0xbd41f77e	-0.047355168
137	0x3d9fa45e	0.077950224
138	0xbe75e1cb	-0.24011914
139	0x000c61c9	1.137105e-39
140	0xbed59a0c	-0.4171909
141	0xbd8a6c84	-0.06758979
142	0x8009a0ce	-8.84205e-40
143	0x3c9fe57d	0.019518608
144	0xbdbda944	-0.092608005
145	0x3da8477f	0.08216762
146	0x3becf0cc	0.0072308537
147	0xbd1bf3c1	-0.03807426
148	0xbe8b7526	-0.27237815
149	0x3e47b34b	0.19501989
150	0x00034aff	3.0241e-40
151	0x3e8761df	0.26441857
152	0x3c56a6a9	0.013101258
153	0x0007640d	6.7874e-40
154	0x3d9dfc4c	0.077141374
155	0xbdc6eefb	-0.09713551
156	0x3dc05c12	0.09392561
157	0x3e5c7047	0.21527205
158	0x3de57a0a	0.11204918
159	0x3e6512e7	0.22370492
160	0xbdc93d08	-0.09826094
161	0x000e5feb	1.320106e-39
162	0xbe7ba221	-0.24573566
163	0x3df2f8dc	0.118638724
164	0x8008db55	-8.13365e-40
165	0x3e75d300	0.24006271
166	0xbe50bd17	-0.20384632
167	0xbdb29d5b	-0.087214194
168	0x3d32838b	0.04358248
169	0x3e8d08a3	0.27545652
170	0x3e81c338	0.25344253
171	0x3dc1a4d6	0.09455268
172	0x80039e40	-3.32276e-40
173	0xbdd51e7e	-0.104062065
174	0xbda75632	-0.08170737
175	0x80056bf0	-4.97898e-40
176	0xbe4d3b47	-0.20042144
177	0xbc6a4187	-0.0142978495
178	0x3e2ba950	0.16763806
179	0x3e94a816	0.2903449
180	0xbc9e24e5	-0.019304702
181	0xbd5a2fa8	-0.053268105
182	0x3e566c77	0.20939814
183	0x80013a46	-1.1274e-40
184	0xbe77dc13	-0.24205045
185	0x3e88c2fa	0.26711255
186	0x00014ecf	1.20107e-40
187	0xbdfcc871	-0.12342919
188	0xbe829f29	-0.25512055
189	0xbe1b90df	-0.15191983
190	0x3e01ec6a	0.12687841
191	0xbdfb1142	-0.12259151
192	0x3e9fe74e	0.3123116
193	0x3e377a22	0.17917684
194	0x00002442	1.3007e-41
195	0xbe6e3364	-0.23261791
196	0x3e4ffd5a	0.2031149
197	0x0009ef76	9.12422e-40
198	0x3e45b34d	0.19306679
199	0xbde1604f	-0.110046975
200	0x3ec13b71	0.37740663
201	0x3e0d1fa0	0.13781595
202	0xbdc4e820	-0.09614587
203	0x3e56d2cf	0.20978855
204	0xbd0e5140	-0.034745455
205	0x8001c47b	-1.6232e-40
206	0xbe37d9a4	-0.17954117
207	0x3d2223a4	0.03958477
208	0x000691d0	6.0332e-40
209	0x3d5f9ec7	0.05459478
210	0x3e38123f	0.1797571
211	0xbeaab3ab	-0.333402
212	0x3e0801c1	0.13281919
213	0x3e95b555	0.29239908
214	0xbc8c8ec4	-0.01715792
215	0x3e29accf	0.16569827
216	0x000fa783	1.437624e-39
217	0xbdd7f958	-0.105456054
218	0xbd555e65	-0.052091975
219	0x800831ca	-7.52545e-40
220	0xbe94cff1	-0.29064897
221	0xbe2e2daa	-0.17009607
222	0x3e5ff5e5	0.21871145
223	0x3d619153	0.055070233
224	0xbd4fe109	-0.05075172
225	0x3e5a01a8	0.21289694
226	0xbd81ec68	-0.06343919
227	0x800b6366	-1.045848e-39
228	0xbe9f9ab5	-0.3117272
229	0x3eb14e59	0.34630087
230	0x80062466	-5.6407e-40
231	0xbe553362	-0.20820382
232	0xbe282298	-0.16419446
233	0xbb4f8fb3	-0.0031671345
234	0x3c11cf8e	0.008899583
235	0xbeaabca9	-0.3334706
236	0x3eb2eb36	0.34945077
237	0x3e44e998	0.19229734
238	0x0009260d	8.4017e-40
239	0x3e94393f	0.28949925
240	0xbd0b1c85	-0.033962745
241	0x0004cc8b	4.40718e-40
242	0x3e84f89c	0.25970924
243	0x3da4ca87	0.080464415
244	0x3e3a6d84	0.1820584
245	0x3eba0fd8	0.36340213
246	0xbebccd2c	-0.36875284
247	0xbe9abafa	-0.30220777
248	0xbe5930c9	-0.21210016
249	0x80032217	-2.87736e-40
250	0x3e570af3	0.2100027
251	0xbdafcead	-0.08584342
252	0x000ede14	1.365364e-39
253	0xbe86c5fc	-0.26322925
254	0x3de9b321	0.11411119
255	0xbc1755f0	-0.009236798

conv_layers.0.lin_skip.weight f4 [128, 32]
0	0xbe527a16	-0.20554385
1	0x3da26cb8	0.07930893
2	0x3dfc9577	0.12333196
3	0xbdb41ddd	-0.087947585
4	0xbd6a2ec9	-0.057173524
5	0xbdeedcf7	-0.116632394
6	0x3e80dbd3	0.25167713
7	0x3e2cb4e4	0.1686588
8	0xbd3b1812	-0.045677252
9	0x3e90db73	0.28292426
10	0x3e16f761	0.14742805
11	0x3deec823	0.11659267
12	0x3d701478	0.05861327
13	0xbdebca37	-0.11513179
14	0x3d9d3203	0.076755546
15	0x3e1a925e	0.15094897
16	0xbdda799f	-0.10667729
17	0x000bacec	1.072223e-39
18	0x3e4e1995	0.20126946
19	0xbe5fd7ad	-0.21859618
20	0x3defe939	0.117144056
21	0xbda2c956	-0.07948558
22	0x0004aab9	4.28586e-40
23	0x800a4e3f	-9.46424e-40
24	0xbdaaaac9	-0.08333356
25	0xbe478606	-0.1948472
26	0xbd7bc47f	-0.06146669
27	0x3e98c7d3	0.29839954
28	0x800f34fe	-1.396542e-39
29	0x8005829b	-5.0603e-40
30	0xbdccfa6e	-0.10008703
31	0xbdfc9851	-0.123337395
32	0x3e09f37a	0.13471785
33	0xbd865342	-0.06558849
34	0x3cc7becc	0.024382971
35	0xbc959e17	-0.01826386
36	0x3d337ba3	0.04381908
37	0xbc8ce661	-0.017199697
38	0x3ccee54c	0.025255822
39	0xbd14dcc7	-0.036343362
40	0x3ea751e0	0.32679653
41	0xbe4ba8e2	-0.19888642
42	0xbdf425a3	-0.11921241
43	0x3da9cbff	0.08290862
44	0xbe0f7249	-0.1400844
45	0xbc90d5ba	-0.017680038
46	0x3e27d4ba	0.16389742
47	0xbe57c31c	-0.21070522
48	0x3e6022ae	0.21888229
49	0x00062ce9	5.67124e-40
50	0x3c0718cd	0.008245659
51	0x3e72e6e9	0.23720898
52	0xbe5eb735	-0.21749575
53	0xbe24b59e	-0.16084906
54	0x000a6275	9.53675e-40
55	0x800cab85	-1.163556e-39
56	0x3dc3f266	0.09567718
57	0x3e212039	0.15734948
58	0x3d40939f	0.047015782
59	0x3cee0779	0.029056298
60	0x800146c2	-1.17219e-40
61	0x80004537	-2.483e-41
62	0x3da4e78b	0.08051976
63	0xbdc257c7	-0.094893984
64	0xbe63b6b7	-0.22237669
65	0x3e7f3b39	0.24924935
66	0xbdf2a565	-0.11847953
67	0xbdb1bc3c	-0.08678481
68	0x3e1c4263	0.152597
69	0x3c790203	0.015198234
70	0xbd1e737b	-0.03868435
71	0x3c9ea7ed	0.019367183
72	0x3c80d20b	0.015725156
73	0xbe1f8eee	-0.15581867
74	0x3c7f1f4b	0.015571426
75	0xbddfd0b1	-0.109284766
76	0x3d8bacd6	0.06820075
77	0x3ab5e999	0.0013878822
78	0x3e51bc67	0.20482026
79	0xbd607087	-0.054794814
80	0x3d8c27c8	0.06843525
81	0x800af9a1	-1.007905e-39
82	0x3d542878	0.051796407
83	0xbcd7a11c	-0.02632194
84	0xbd9900cf	-0.07470857
85	0xbe2981e2	-0.16553453
86	0x800c36d4	-1.121695e-39
87	0x80021b20	-1.93402e-40
88	0xbd46baa7	-0.04851785
89	0xbdb48c33	-0.088158034
90	0x3e696f09	0.22796263
91	0xbd14811e	-0.03625595
92	0x00007279	4.1065e-41
93	0x0002ba26	2.50448e-40
94	0x3e235e40	0.15953922
95	0x3e26ae67	0.16277467
96	0xbde40c88	-0.11135203
97	0x3c777127	0.015102661
98	0x3df653a5	0.12027673
99	0x3e271a94	0.16318733
100	0xbc85bcdd	-0.016325409
101	0xbe28b0e3	-0.16473727
102	0x3de08c75	0.1096429
103	0xbe004744	-0.12527186
104	0xbe3bb887	-0.1833211
105	0x3e708fb7	0.23492323
106	0x3da1966b	0.07890018
107	0x3eabc213	0.33546504
108	0xbbfe8911	-0.0077678044
109	0x3beaab5d	0.0071615414
110	0xbd1bc3a6	-0.03802838
111	0xbc5e5b1f	-0.01357153
112	0x3d9f52f3	0.07779493
113	0x00027d73	2.28674e-40
114	0x3da094fe	0.07840918
115	0x3e2b3ba9	0.16721977
116	0xbdab6e7b	-0.08370682
117	0x3dd7ca69	0.105366535
118	0x00078690	6.9112e-40
119	0x000920a5	8.3823e-40
120	0x3cb5025d	0.022095853
121	0x3dfb1571	0.12259949
122	0xbd41b73b	-0.047293883
123	0x3de5448a	0.111947134
124	0x0004d247	4.42775e-40
125	0x800aabdc	-9.80006e-40
126	0xbe5f294a	-0.21793094
127	0xbdf48a54	-0.119404465
128	0xbd155767	-0.036460306
129	0x3c836250	0.01603809
130	0x3d836d83	0.06417372
131	0xbd38293f	-0.04496121
132	0xbca9cebb	-0.02072846
133	0x3d3570c9	0.044297013
134	0x3e5a5d8d	0.2132475
135	0xbe4259fe	-0.18979642
136	0x3d1bee89	0.03806928
137	0x3d556fac	0.05210845
138	0xbde0c23e	-0.10974549
139	0x3e8e7973	0.27827033
140	0x3dbc3db3	0.09191456
141	0xbd741ce5	-0.05959787
142	0x3bc595d1	0.0060298224
143	0x3d00fea0	0.03149283
144	0xbdccbcf5	-0.09996978
145	0x800c0d0e	-1.106709e-39
146	0x3d81f71e	0.06345962
147	0x3ce88dc7	0.028387917
148	0xbd184201	-0.03717232
149	0x3dc40798	0.09571761
150	0x8007abc3	-7.04465e-40
151	0x800726bd	-6.56745e-40
152	0xbe0e8332	-0.13917235
153	0xbc6c609b	-0.014427329
154	0x3eabe33d	0.33571807
155	0x3e2dddef	0.16979192
156	0x0006acc4	6.1299e-40
157	0x00080e29	7.39764e-40
158	0xbcab956b	-0.020945271
159	0x3d41408f	0.04718071
160	0x3d432152	0.0476392
161	0x3e8dc3d3	0.27688465
162	0x3e3841ef	0.17993902
163	0x3cc0974e	0.023509648
164	0x3e5c4692	0.21511295
165	0x3dbbc12c	0.09167704
166	0xbe286c9f	-0.16447686
167	0xbe805b16	-0.25069493
168	0xbe281ec0	-0.1641798
169	0xbe6da386	-0.2320691
170	0x3e6d7dc6	0.2319251
171	0x3e399e2f	0.18126749
172	0x3d0eca89	0.03486112
173	0xbdc03fbe	-0.09387158
174	0x3d398193	0.045289587
175	0x3ddef126	0.10885839
176	0x3dca08b3	0.098649405
177	0x80090a4c	-8.30213e-40
178	0xbe83f768	-0.25774693
179	0xbe530eee	-0.20611164
180	0xbe0a03cb	-0.1347801
181	0x3b2d998c	0.0026489226
182	0x000570f0	4.99692e-40
183	0x0002b708	2.4933e-40
184	0x3e34e602	0.17665866
185	0xbe1cec7c	-0.15324587
186	0xbe49bedd	-0.19701715
187	0xbcd7c7a4	-0.026340313
188	0x800cbac9	-1.169032e-39
189	0x000cf711	1.190657e-39
190	0x3da9343e	0.082619175
191	0x3eb4270f	0.3518605
192	0x3deeb3cf	0.116553895
193	0x3e559bb0	0.20860171
194	0x3d8c440c	0.068489164
195	0x3c61c617	0.013780138
196	0x3dcbb276	0.09946148
197	0xbdd5c45e	-0.10437845
198	0x3d856636	0.06513636
199	0xbc9579b4	-0.01824651
200	0x3c047d74	0.008086551
201	0x3e67bab2	0.22629812
202	0x3e968f4f	0.2940621
203	0x3e1624de	0.14662501
204	0xbde06fdb	-0.10958835
205	0x3d21b8ed	0.039483
206	0xbdfbdeb7	-0.12298339
207	0x3d9fc9fe	0.07802199
208	0x3e0fd49f	0.14045952
209	0x00071b8e	6.52733e-40
210	0xbe185ff2	-0.1488035
211	0xbc951354	-0.018197693
212	0x3c4068d2	0.011743741
213	0x3e1a3bcb	0.15061872
214	0x8005cf2f	-5.33501e-40
215	0x800ea684	-1.345431e-39
216	0x3e4e62e4	0.20154911
217	0x3e610b54	0.21976978
218	0xbda2f4ef	-0.079568736
219	0xbec067fd	-0.37579337
220	0x800df064	-1.280097e-39
221	0x00026631	2.2033e-40
222	0x3e37a55d	0.17934175
223	0x3ea059f3	0.31318626
224	0x3cd306e8	0.02576013
225	0x3d7a604a	0.061126985
226	0x3cc6b9df	0.024258552
227	0x3d284f30	0.041091144
228	0x3d9c5b06	0.07634549
229	0x3df0de6f	0.11761176
230	0xbe3b7510	-0.18306375
231	0x3dddb3ab	0.108252846
232	0xbdec34fd	-0.11533544
233	0xbc26cdd7	-0.010180912
234	0xbc89ae36	-0.016806703
235	0xbdcd4512	-0.1002294
236	0xbd3a24df	-0.04544532
237	0xbe2d0d8c	-0.16899699
238	0x3da8d07d	0.08242891
239	0xbd4c39d3	-0.049859833
240	0xbde6d508	-0.11271101
241	0x800936d7	-8.46192e-40
242	0xbe5bfffe	-0.21484372
243	0x3cbb2b13	0.022847688
244	0xbd9b6482	-0.0758753
245	0x3d3eba93	0.04656465
246	0x0001623a	1.27073e-40
247	0x00102e5c	1.485999e-39
248	0x3dd3bf87	0.10339265
249	0xbc625d12	-0.013816135
250	0x3e43c042	0.1911631
251	0xbebadad6	-0.36495084
252	0x80050af8	-4.63112e-40
253	0x00048418	4.14728e-40
254	0x3e45314e	0.1925709
255	0xbda52a54	-0.08064714

conv_layers.0.lin_skip.bias f4 [128]
0	0x3dda45a1	0.10657812
1	0x3d191166	0.037370108
2	0x3d21e8cf	0.039528664
3	0x3de5d068	0.11221391
4	0x3cc2b00a	0.023765583
5	0xbcfe49a6	-0.031040978
6	0xbe226def	-0.15862249
7	0xbcafb229	-0.021447258
8	0x3d83e859	0.06440801
9	0xbb845902	-0.004038931
10	0xbdbd6800	-0.09248352
11	0x3d031f07	0.03201201
12	0xbd7097b5	-0.05873843
13	0xbe25c9eb	-0.16190307
14	0xba682387	-0.00088553916
15	0xbdfc6804	-0.12324527
16	0x3dd17e08	0.10229117
17	0x3da2f3f3	0.07956686
18	0x3c49e4ed	0.012322647
19	0xbe05a9e0	-0.13053083
20	0xbd10071d	-0.035163034
21	0xbcc7ece7	-0.024404956
22	0xbdf242f6	-0.11829178
23	0xbe211245	-0.15729626
24	0xbe04098b	-0.12894265
25	0x3de66dbf	0.11251401
26	0xbdb683bf	-0.08911847
27	0xbba3d132	-0.0049993033
28	0xbd980a38	-0.07423824
29	0x3db25d51	0.08709205
30	0x3dcdf031	0.100555785
31	0xbd1b18c4	-0.037865415
32	0xbe2b7b77	-0.16746317
33	0x3dc6d1cd	0.09707985
34	0xbc4ecf12	-0.012622612
35	0x3d59814d	0.053101826
36	0x3d589cce	0.052883916
37	0xbda49d65	-0.08037833
38	0x39176bc7	0.00014440632
39	0x3d8290bb	0.063752614
40	0x3e26ade4	0.16277272
41	0x3dcded16	0.10054986
42	0x3b7ed1de	0.0038882415
43	0xbdbafbe4	-0.091300756
44	0x3b23e4ce	0.0025008204
45	0xbd895292	-0.06705202
46	0x3c5c29bb	0.013437684
47	0x3d7c0a21	0.061533097
48	0xbe110724	-0.1416288
49	0xbd9f6394	-0.07782665
50	0x3b982912	0.004643568
51	0x3d648fb1	0.055801097
52	0x3cdb87e6	0.0267982
53	0x3db0ac72	0.08626641
54	0xbe094d28	-0.13408339
55	0xbdeff812	-0.117172375
56	0x3d8e7dc2	0.0695758
57	0xbd9fdfda	-0.07806368
58	0x3d340033	0.043945502
59	0x3d62c23f	0.05536103
60	0x3ce3b41e	0.027795848
61	0xbd740eb2	-0.059584327
62	0x3e17c66d	0.14821787
63	0xbc4efa0a	-0.012632856
64	0xbd721e51	-0.059110943
65	0xbb91b8e5	-0.00444709
66	0x3d865e1b	0.06560918
67	0xbdf8a944	-0.1214166
68	0xbdb612ff	-0.08890342
69	0x3dcf5eed	0.101255275
70	0x3b2dfe17	0.0026549154
71	0xb95caf7b	-0.00021046207
72	0xbc70923d	-0.014683303
73	0xbd639445	-0.055561323
74	0x3e140fc4	0.14459139
75	0xbd8fae43	-0.0701566
76	0xbd8240d9	-0.06360025
77	0x3da9fa4c	0.082996935
78	0xbda34c54	-0.07973543
79	0x3dcfc7ff	0.10145568
80	0x3da56c4c	0.080772966
81	0xbdbbef86	-0.09176545
82	0xbdd66ab7	-0.10469573
83	0x3d415348	0.047198564
84	0xbe168bf7	-0.1470183
85	0x3dae138f	0.08499824
86	0x3ccea988	0.025227323
87	0xbd597417	-0.053089228
88	0x3e0463f4	0.12928754
89	0xbdcba0c0	-0.0994277
90	0xbd523e69	-0.05132905
91	0xbd53b318	-0.05168447
92	0xbdd8fbf4	-0.10594931
93	0x3cd124c0	0.02553022
94	0xbd28b508	-0.04118827
95	0x3d444409	0.047916446
96	0xbceec79d	-0.029147917
97	0xbc907b16	-0.017636817
98	0xbe2cd46d	-0.16877909
99	0x3e14a53c	0.14516157
100	0xbc8986a9	-0.016787844
101	0x3c050145	0.008117978
102	0xbd401d81	-0.046903137
103	0xbd166c18	-0.03672418
104	0xbb31cc7f	-0.0027129946
105	0x3ca377f5	0.01995466
106	0x3c8df219	0.017327355
107	0xbd188b64	-0.03724231
108	0x3de8b1df	0.11362051
109	0xbd09d741	-0.033652548
110	0x3d885f34	0.066587836
111	0xbe10ef36	-0.14153752
112	0x3c09c062	0.008407684
113	0xbd3bde2e	-0.045866184
114	0x3d86fffb	0.06591793
115	0xbdf16115	-0.11786095
116	0xbdb2dbcc	-0.08733329
117	0xbe1e0cd0	-0.15434575
118	0xbac72e47	-0.0015196287
119	0x3d912baa	0.070884064
120	0xbd6097f8	-0.05483243
121	0xbe069fbf	-0.13146876
122	0x3cb7065e	0.022341903
123	0x3d9e1354	0.0771853
124	0x3d95a533	0.073069
125	0xbe16aba5	-0.14713915
126	0x3acf3f57	0.0015811723
127	0xbd011a5b	-0.031519275
