graph_models/antagonist/ros/AFP.pth (torch, 386450 bytes, 30 tensors)

lin1.weight f4 [64, 32]
00000000: 5d1c eeb8 02ec 4636 394b dcb5 9ec8 55b5
00000010: cbb9 f334 c2eb 05b5 868f 4c34 d83a 6934
00000020: dca2 5c34 7743 b634 af4a 2634 8014 9eb4
00000030: f242 01ba d3d3 e636 3ee0 0136 8b8a 7236
00000040: 2ab6 95b9 60a1 fc31 fb6c 4f35 d2e4 2336
00000050: 5b69 60b9 92f0 8236 a338 86b8 687d f1b8
00000060: 6083 0737 cc61 1337 5e48 6733 8c4e 6cb4
00000070: ef89 f22d 9531 770a c420 e433 679d 9fb5
00000080: 21bf 19b9 ddf4 34b7 bea5 92b7 8d61 c9b7
00000090: 962a 5fb7 fd52 3a37 02e4 bdb7 64fe 3837
000000a0: 7667 9035 360c 3635 76c6 30b7 b0e8 1cb7
000000b0: 6923 e7b8 c82b 9bb8 b2c1 0eb8 1ca3 b7b7
000000c0: 07ef 27b9 33ff 5331 7439 c9b7 d26a e5b7
000000d0: a7df 08b9 2290 6eb8 7b68 7139 9637 300e
000000e0: 4e32 30b8 6b7a 29b9 1b79 7db8 19ee 95b7
000000f0: 5588 5b2f b5c1 9136 a378 9db8 1286 32b7
00000100: f6ef 5c32 67d9 6a31 e394 9630 86e5 182d
00000110: 4697 b0af fc6b 29b0 f66a 3c30 67d8 802f
00000120: b869 f5ae 26fe 262e 179f 68b0 d1ab 81b0
00000130: 6114 4932 e71f b931 5e11 7631 1c86 2d31
00000140: 39ad 0bb2 7f0b aeac 9579 7d2f 45b1 0231
00000150: 66ca 0f32 7add 8331 6754 0080 9eda 83a6
00000160: d3f4 ed31 e695 d431 7e71 7231 cdf8 d6b0
00000170: da73 1282 ed5a f0af 85cc 42b0 0b7b b32f
00000180: bf8d e1b9 3d2e 23ba 9c90 c338 6d6a 2db9
00000190: dbc5 463a d9a6 94b9 fba3 0a35 edea be36
000001a0: 7200 6231 cbf5 2b3a fb1c aa3a b399 f0b6
000001b0: c822 2cb6 c229 e8b9 828b 37ba 6ae5 42b9
000001c0: e7b4 b4b7 798b 9738 e095 97b9 3fe8 8db9
000001d0: bedd 41b9 a3c1 feb9 b0fb 2b1f ee17 39a6
000001e0: 924b 89b9 cf74 6bb6 c6b9 0dba 37b7 ba38
000001f0: 93cc 9ab3 4b86 b31b 4c62 eeb9 5b7c 3339
00000200: e0a1 d4b8 ce5c b036 4b61 9536 b81a 5335
00000210: bb42 0a36 c5d5 ee35 f72d 8b34 6934 f2b5
00000220: 2039 3bb6 7d85 22b3 8acc 60b6 7011 14b5
00000230: 74e0 2ab8 2255 8437 b7a1 b336 d812 cb36
00000240: 92fd 9437 f797 921e 23b6 7036 a7f5 a336
00000250: 2982 af37 7b85 4437 110f c8b6 56c0 84a9
00000260: c07d 4d37 fb42 9137 05e4 ad36 b6ca 2735
00000270: 0749 1fa3 c2d8 3234 b89c 2635 94b8 a535
00000280: 46e3 17b5 4223 f4b5 21d5 13b5 45d0 8bb3
00000290: 70ab f434 6ab1 bf35 c530 8c34 86cb da34
000002a0: b2f0 8932 72fb 6ab4 dc0a 0536 e8ee 0cb4
000002b0: ef5b c9b5 13da 2fb4 4f49 74b3 5650 00b5
000002c0: c52d d334 f0c8 06a9 4f0d adb4 8406 abb4
000002d0: 292b 3733 0567 2cb5 4110 9ba7 182c 4210
000002e0: d703 aeb5 84b5 a7b4 947c 3eb5 6e21 c332
000002f0: 4574 ee2f 6e29 44a2 704d 84b4 a47e df35
00000300: 6dd8 7cbb 889a fb36 6e7c ed36 81c4 da35
00000310: 06ea c8b5 970d ca35 eb67 2935 a966 9935
00000320: dd93 7bb5 3b7c 31b4 3659 a935 89e6 17b5
00000330: 68ff bbba 2374 6737 baf9 be36 355a 0d37
00000340: f554 4bb8 899e 80b0 706b b636 0887 ec36
00000350: 0de1 1aba d2d2 c937 df79 8639 58e0 f525
00000360: 2db7 77b9 501d 9cb8 5d69 5537 4881 8f36
00000370: e402 312b 7def d928 a343 92b5 ed02 9236
00000380: 914f 1336 a589 c534 2e5f 4534 ee6d f4af
00000390: 3074 ed33 2672 9032 4832 1f33 3331 0132
000003a0: 9d97 2d31 3394 a032 15c5 b532 9f61 2cb3
000003b0: 7e0b 2c36 5e2c be35 2140 9534 96cd ba34
000003c0: f040 4635 92dc b39c 12de 5934 2534 aa34
000003d0: 1163 c735 6b9c 8535 bf0a 8cac 0f5e 272f
000003e0: 41f6 0e35 53ea b035 a661 0235 3e50 2833
000003f0: a8fa d4a9 8764 4297 c420 d2b3 ffc9 c3b3
-0.000113540074 2.9641674e-06 -1.641317e-06 -7.964062e-07 4.539746e-07 -4.9889434e-07 1.9051194e-07 2.1721223e-07
2.0548345e-07 3.394923e-07 1.5487124e-07 -2.944471e-07 -0.0004930935 6.8791937e-06 1.9353024e-06 3.6141453e-06
-0.00028555217 7.3525115e-09 7.7272097e-07 2.4422084e-06 -0.00021401553 3.902308e-06 -6.400167e-05 -0.00011515134
8.077215e-06 8.784653e-06 5.3849696e-08 -2.2007788e-07 2.757347e-11 1.1901943e-32 1.06230374e-07 -1.1892233e-06
-0.00014662418 -1.0785848e-05 -1.7481736e-05 -2.4006493e-05 -1.3301751e-05 1.1105786e-05 -2.263673e-05 1.1026485e-05
1.0758947e-06 6.781805e-07 -1.0536625e-05 -9.352501e-06 -0.00011021534 -7.399131e-05 -3.403583e-05 -2.1891254e-05
-0.00016015406 3.0849605e-09 -2.398782e-05 -2.734867e-05 -0.00013053288 -5.6877856e-05 0.00023022473 2.1720439e-30
-4.200852e-05 -0.000161627 -6.043269e-05 -1.7873057e-05 1.9966369e-10 4.343887e-06 -7.508814e-05 -1.0640842e-05
1.2860246e-08 3.417506e-09 1.0956253e-09 8.691164e-12 -3.21217e-10 -6.1635297e-10 6.8546e-10 2.3436827e-10
-1.11600895e-10 3.796976e-11 -8.462719e-10 -9.434818e-10 1.17043735e-08 5.3878355e-09 3.5807584e-09 2.5251046e-09
-8.130251e-09 -4.9466538e-12 2.305341e-10 1.9018256e-09 8.369716e-09 3.8377808e-09 -3.0278e-41 -9.149207e-16
6.925441e-09 6.1870535e-09 3.5280148e-09 -1.5641263e-09 -1.0759634e-37 -4.3720352e-10 -7.086743e-10 3.2647338e-10
-0.00043020953 -0.00062248466 9.32526e-05 -0.00016538212 0.00075825833 -0.0002835307 5.164763e-07 5.68979e-06
3.2887582e-09 0.00065597583 0.0012978608 -7.1704503e-06 -2.5650243e-06 -0.000442816 -0.0007001684 -0.00018586745
-2.1541911e-05 7.22622e-05 -0.0002891263 -0.00027066653 -0.0001848852 -0.00048590926 3.641885e-20 -6.42172e-16
-0.0002618698 -3.508572e-06 -0.00054064055 8.9032976e-05 -7.208396e-08 2.969985e-22 -0.00045468134 0.00017117096
-0.00010139099 5.2560126e-06 4.4518724e-06 7.8642506e-07 2.0602445e-06 1.7794597e-06 2.592421e-07 -1.8045658e-06
-2.7898423e-06 -3.783997e-08 -3.3497658e-06 -5.515967e-07 -4.0740197e-05 1.577527e-05 5.353442e-06 6.052065e-06
1.7761053e-05 1.5521202e-20 3.5868804e-06 4.8863762e-06 2.0922236e-05 1.1713589e-05 -5.9622184e-06 -5.8953425e-14
1.2248231e-05 1.7316537e-05 5.1823467e-06 6.250733e-07 -8.634871e-18 1.6656398e-07 6.2067875e-07 1.2347177e-06
-5.658261e-07 -1.8189678e-06 -5.507191e-07 -6.510576e-08 4.557328e-07 1.4282243e-06 2.6112517e-07 4.0753747e-07
1.6058355e-08 -2.1884424e-07 1.9824865e-06 -1.312543e-07 -1.5002423e-06 -1.637748e-07 -5.687735e-08 -4.780062e-07
3.9335114e-07 -2.9928263e-14 -3.2233444e-07 -3.1855973e-07 4.264726e-08 -6.4224906e-07 -4.3038765e-15 3.8293722e-29
-1.2965128e-06 -3.1238244e-07 -7.09618e-07 2.271619e-08 4.3374562e-10 -2.6584886e-18 -2.464326e-07 1.6651652e-06
-0.0038581148 7.4983727e-06 7.077636e-06 1.6299456e-06 -1.4969271e-06 1.5054128e-06 6.3108627e-07 1.1429266e-06
-9.3719956e-07 -1.6529604e-07 1.2617445e-06 -5.6587356e-07 -0.0014343085 1.3795713e-05 5.6915133e-06 8.425258e-06
-4.8478094e-05 -9.358284e-10 5.43653e-06 7.049068e-06 -0.0005908169 2.4059238e-05 0.00025649273 4.2652746e-16
-0.00023623994 -7.4441195e-05 1.2720321e-05 4.2767824e-06 6.2887044e-13 2.4195701e-14 -1.0897533e-06 4.3514797e-06
2.195102e-06 3.679426e-07 1.8381681e-07 -4.446145e-10 1.1057307e-07 1.6815715e-08 3.7065803e-08 7.519975e-09
2.5260996e-09 1.8693845e-08 2.1160796e-08 -4.0135657e-08 2.5636687e-06 1.4169016e-06 2.7800073e-07 3.4794783e-07
7.3855244e-07 -1.1902242e-21 2.0290489e-07 3.1702908e-07 1.4855488e-06 9.954796e-07 -3.9802324e-12 1.5221978e-10
5.325747e-07 1.3181219e-06 4.857087e-07 3.9188528e-08 -9.458173e-14 -6.2811664e-25 -9.784847e-08 -9.117138e-08

lin1.bias f4 [64]
00000000: d37e 0dba fa00 efb8 ea8c 82b4 e86a 5fba
00000010: 3b14 a5ba 0a24 10b6 607a 10bc 1c0f c6b8
00000020: ba9c 92b4 f156 d2bb 9c38 b5b8 5b39 22b1
00000030: 1366 18bc 4633 0eb4 6faa 51b5 a97e f3bc
00000040: 725f 09be b704 aab0 f39e 83b2 95a2 d6ba
00000050: 85e4 b7b6 8b68 f7bd 8031 dfb5 aa38 a13e
00000060: 3e75 9cb8 cccf 76b4 d14c 7eb8 b016 30bc
00000070: 9166 ae3d 5a54 92bb b6b6 02b2 7e4f 9bbd
00000080: d33b 7eb8 281d 77ba 3b49 463e 25bb 4db7
00000090: 1f69 b4ba 1a32 eb3d 6d75 6ebe 347c 40be
000000a0: 3130 d4bb 5e2c 79bd be57 6dbd 9918 f2b4
000000b0: 842a 05b5 fe38 a5bc 38b0 dbbc 59e1 e7b5
000000c0: 1bde afbe 4ecb 5ebc 2bd6 2bbc adb7 0bbb
000000d0: d635 d0bc c10c 2dbe bc8b 69bd d00c 473d
000000e0: c0a3 83b3 f8ae f0b7 9dad 33b5 8541 29be
000000f0: c7a6 e5ba bfe6 c2b6 3797 55be 3a06 24b4
-0.00053976214 -0.0001139659 -2.4316915e-07 -0.0008522705 -0.001259453 -2.147865e-06 -0.008818239 -9.44419e-05
-2.7308653e-07 -0.0064190556 -8.641297e-05 -2.3606705e-09 -0.00930168 -1.3243434e-07 -7.810658e-07 -0.029723482
-0.13415316 -1.2370468e-09 -1.5322689e-08 -0.0016375358 -5.480428e-06 -0.12080487 -1.6629201e-06 0.31488544
-7.460498e-05 -2.2986131e-07 -6.062986e-05 -0.010747597 0.08515657 -0.004465622 -7.60854e-09 -0.07583521
-6.0614035e-05 -0.0009426647 0.19363873 -1.2262525e-05 -0.0013764239 0.114841655 -0.23286982 -0.1879738
-0.0064754714 -0.060833327 -0.057945006 -4.509391e-07 -4.960823e-07 -0.020168778 -0.026817426 -1.7276426e-06
-0.3434914 -0.013598276 -0.010488073 -0.0021319196 -0.025416296 -0.16899396 -0.057018027 0.048596203
-6.129949e-08 -2.8691706e-05 -6.6935337e-07 -0.165289 -0.0017521017 -5.808513e-06 -0.20858465 -1.5275955e-07

gate_conv.att_l f4 [1, 64]
00000000: 7d1d 852d 40e5 0a2f 7b3d 32b3 5fea eaae
00000010: 02b2 e42f c6f2 7ead 3df0 a02e 1876 1cac
00000020: f091 842f 3a23 c52d 99d7 a731 ab8b 5d32
00000030: c0dc b42f ff3b 4c28 f685 e6b2 d4be a62b
00000040: df40 1ead d323 41af 6983 7926 65b5 ee9c
00000050: e09e 7034 fc90 a334 aed2 252b 5e4d ac2a
00000060: caaf 002c acff cb31 4567 9aad ba43 27af
00000070: d512 30ad e76f 0931 b2db dbb2 8aa6 43ad
00000080: 0309 90ab ecf2 db32 1eea 23af 2236 652f
00000090: c57f 662f 126e 4fad 73e1 e9ae 4159 7bb4
000000a0: 3a3d dc32 0db2 b6b3 778e 1703 21c9 a0a2
000000b0: 07a8 e12e 1cfa f8b5 2240 7318 fe52 87af
000000c0: 357d 1632 f365 eaac a876 22ad 4dd9 8735
000000d0: 63da 1cb1 0340 b1ab 1cfe 5e2d 8d43 d433
000000e0: d222 ae30 7ecb c11c 2f22 8bb0 a355 1931
000000f0: 8e30 9c31 826e d015 afcc 3ab3 4bf9 ecb3
1.5133445e-11 1.2632473e-10 -4.149977e-08 -1.0682721e-10 4.159944e-10 -1.4492135e-11 7.3186325e-11 -2.2234489e-12
2.4114355e-10 2.241195e-11 4.8848503e-09 1.289565e-08 3.2898662e-10 1.13372844e-14 -2.6836442e-08 1.1847975e-12
-8.9956645e-12 -1.7565975e-10 8.6567323e-16 -1.5796408e-21 2.240954e-07 3.0466606e-07 5.891215e-13 3.0607022e-13
1.8287477e-12 5.937144e-09 -1.7553634e-11 -1.5212623e-10 -1.0008623e-11 1.9999733e-09 -2.5594861e-08 -1.1121446e-11
-1.0234317e-12 2.5605424e-08 -1.4907939e-10 2.084666e-10 2.0963771e-10 -1.1791028e-11 -1.0635661e-10 -2.3408667e-07
2.5639213e-08 -8.507423e-08 4.4538453e-37 -4.358104e-18 1.0261663e-10 -1.8550231e-06 3.1439393e-24 -2.4615326e-10
8.759618e-09 -6.6619986e-12 -9.234981e-12 1.0121527e-06 -2.2825126e-09 -1.2594373e-12 1.2675663e-11 9.884307e-08
1.2670063e-09 1.282427e-21 -1.0123297e-09 2.231311e-09 4.5457176e-09 8.418488e-26 -4.349266e-08 -1.10349525e-07

gate_conv.att_r f4 [1, 64]
00000000: 4ee0 04b0 efcc 1d2d ca01 83ac 8dce 1e2f
00000010: b643 55b0 b2c2 68b6 c818 5f32 1c7f cbae
00000020: 9322 a82b 2687 a131 0187 12ad 34f6 3c28
00000030: 52c3 2eb1 f3e1 19ab d509 6a2b 99da 41b2
00000040: 23d5 2b32 a1ec a726 4883 7f29 623d 5531
00000050: e8a3 f82c a979 d434 cc78 89ac 0799 c3b5
00000060: b31e 242d 18bb f530 af52 942f 4bf2 8432
00000070: 0c53 9f36 2e75 e831 49f9 8ea9 21c8 b032
00000080: ee24 f5ad 8e76 44b3 3d9b 7036 f1f9 48ac
00000090: 1877 5730 1a36 2d36 195c 0336 96a8 09b5
000000a0: ca7c 2e2f ef42 a135 ee7f cdb2 e6dc 312b
000000b0: 250d 742a 725b 79b3 3947 80b2 30a1 f9ad
000000c0: 2f74 14b6 be9b aa2f e4f2 c1af 9489 3cb2
000000d0: 7dcf 7b33 fc00 9b2d 30e5 ba35 4ada 6236
000000e0: f8c2 532c 373a 00b6 e6fe 8aad 4290 0fb2
000000f0: 5001 2931 f05d e8ac 8fda 0bb2 aa25 1daa
-4.8340076e-10 8.969921e-12 -3.7234426e-12 1.4443398e-10 -7.758517e-10 -3.4684022e-06 1.2985943e-08 -9.2539504e-11
1.1946714e-12 4.7010813e-09 -8.329116e-12 1.0489483e-14 -2.543136e-09 -5.4670087e-13 8.3147145e-13 -1.1283782e-08
1.0001972e-08 1.1652091e-15 5.6735243e-14 3.1030472e-09 7.066781e-12 3.9576597e-07 -3.9071853e-12 -1.4573169e-06
9.329137e-12 1.7879271e-09 2.6979793e-10 1.5477005e-08 4.748237e-06 6.7654105e-09 -6.349311e-14 2.0580105e-08
-2.7869675e-11 -4.574263e-08 3.5853147e-06 -2.8560455e-12 7.8385787e-10 2.58105e-06 1.957413e-06 -5.12818e-07
1.5869542e-10 1.2014915e-06 -2.3923317e-08 6.318959e-13 2.1676114e-13 -5.8058e-08 -1.493355e-08 -2.8379604e-11
-2.2121346e-06 3.103348e-10 -3.527908e-10 -1.0974322e-08 5.86292e-08 1.7621897e-11 1.3924782e-06 3.3803685e-06
3.0093133e-12 -1.9107372e-06 -1.5801981e-11 -8.356496e-09 2.4593483e-09 -6.6042657e-12 -8.140559e-09 -1.3957469e-13

gate_conv.bias f4 [64]
00000000: 8104 da39 bcbc 92b8 c536 373b 7f26 a43b
00000010: d73a 183b da3a ff38 9617 11ba 3871 53bb
00000020: 4816 f83b 0f33 59b9 c260 b53c b662 b5ba
00000030: 7132 28bb 5c7e 223a 3e2d 01bb 3af2 31ba
00000040: 4ee5 89ba c758 9fba ee05 e63a c48b 503a
00000050: 3fcd 08bb 61af d1b9 371e 86ba 04d2 eb3a
00000060: abbc 8538 e8fc fa3b cf15 f039 52f4 7db8
00000070: 054f 9a3a 7452 8539 28f2 683a dcf1 a5ba
00000080: 467e 10bb 8726 003a 8dc2 96b9 302b 8eb9
00000090: 6cbd f839 f863 bb3a 3c1a 23bb eeff eb3b
000000a0: c196 27bb 23ab 8cb9 dd14 0d38 06fe bbb9
000000b0: 40b5 53ba 3122 883a 8b7c acb9 0362 393b
000000c0: f753 2539 16c8 e1ba c155 51ba b826 dbba
000000d0: 6ec5 5e3a ee55 9fba b2eb b9b9 e5f9 083a
000000e0: ed53 de39 2757 df39 c2ee 26bc 4edd 963a
000000f0: f244 9f3b 6862 89b9 a363 ddba 0595 b1ba
0.00041583556 -6.996977e-05 0.002795623 0.005009472 0.002322843 0.000121703095 -0.00055348256 -0.0032263529
0.0075710155 -0.00020713753 0.022140864 -0.0013838622 -0.002566483 0.00061986386 -0.0019710804 -0.0006788109
-0.0010520609 -0.0012157195 0.0017549375 0.0007955397 -0.002087429 -0.00039994254 -0.0010232393 0.0017991667
6.377076e-05 0.0076595433 0.00045792616 -6.054744e-05 0.0011772817 0.0002542917 0.0008886182 -0.0012660581
-0.002204792 0.00048885535 -0.0002875518 -0.00027116528 0.00047443376 0.0014296761 -0.0024887463 0.00720214
-0.0025572034 -0.00026830388 3.363645e-05 -0.00035856682 -0.00080760196 0.0010386166 -0.00032899188 0.002828718
0.00015766906 -0.0017225768 -0.00079854956 -0.0016719913 0.0008498047 -0.0012156346 -0.00035461556 0.00052252255
0.0004240567 0.00042598808 -0.01018876 0.0011510046 0.004860514 -0.00026203995 -0.0016890656 -0.001354844

gate_conv.lin1.weight f4 [64, 75]
00000000: 32a9 93ac e990 802b f321 1528 ccfe d7ad
00000010: 3893 ad2b f01f 702b 0748 df2e 1082 3baa
00000020: a1de 8b28 4b22 35ab 15bf 0c28 bd1f c723
00000030: 6aa9 802e d991 f2a7 17dc 1bb2 0ec1 4eaf
00000040: 41ff 1fb3 f85a 8b23 f13e fba3 0fb9 0b2d
00000050: 8a97 b7a8 4f86 08b2 e855 8327 dfe0 3633
00000060: 8779 d22a c5fa 4aa6 8567 592b b1e2 1eaf
00000070: d200 1031 3215 a9ae 1359 cc24 6822 cfb7
00000080: 95d0 eb2b 5942 3dad bd99 2f32 24d7 8a2a
00000090: 632b 86ad 6b53 4d31 03b0 5832 843a 3631
000000a0: 305a f8ad 3092 9531 5ebc e030 4015 93a8
000000b0: 7ba5 2035 b97d c72f ce69 f2ae d696 35a9
000000c0: 743f 4430 3d50 122f 6b52 50ae 9599 f2ad
000000d0: 447c f3ae c960 a92f e7ef ddb0 aaca 5b31
000000e0: 57e3 aca8 3569 98b7 badf 982b f0ee cfb7
000000f0: ad77 1baf b56c 33aa c539 b2b3 f871 9326
00000100: e9d6 3eb1 bd87 5333 6fa5 36ad 6f9a 8bb4
00000110: e789 bdb6 2310 9db7 c223 a6b8 a831 dda4
00000120: d3f8 be33 702c 9cb3 0d06 a9b3 ba86 adba
00000130: b6c0 bc31 e8d4 152c 9de4 e932 d807 d2af
00000140: 48a0 47b1 fb0d 9db1 fe26 942f 1435 f934
00000150: 6ea4 12b3 148a a4ad 8280 4128 85c5 bfb2
00000160: 539e 112e cf46 b7b6 d25a 63b3 a3c8 bcb5
00000170: 20a4 7c26 e2c6 b029 202f 4faf a740 a835
00000180: 1116 93b4 92d8 91ac a549 9036 13ba 8132
00000190: 9c4e 4433 8cef 9cb9 12ed a636 e608 1eb6
000001a0: 50c5 ebb1 91b5 caa8 5448 fe39 0053 75b6
000001b0: ed35 8c37 fd35 9d35 3131 2d2b ccab 2b31
000001c0: b167 a035 5103 2db5 5ff7 0636 203a deb0
000001d0: 4728 5f35 ce63 29b7 129c 8eb3 a9e6 f2b0
000001e0: 2125 1634 13f3 0cb3 117e c234 2d38 f332
000001f0: 4faa 29b3 7571 0a33 0013 ae39 44c2 c2b3
00000200: 928e da34 21e6 8eb5 d0e1 6a35 ca55 1baa
00000210: b16a 26b9 77a6 b4ae 8070 61b4 9fb0 00b8
00000220: 2e7d b6ae 5dc8 ba37 1193 c1aa df70 e3b4
00000230: 04d1 0934 3715 69b4 02da 1836 79e6 8b36
00000240: c651 9136 771c 9ab6 4965 0000 60bd b135
00000250: b6d2 87b4 dcea 1b1e 1de5 75b0 0e24 3732
00000260: 118b 102f 5611 59b0 9165 a231 308a b0b0
00000270: db6b 092e e8fe 4030 e096 372e d04d a331
00000280: 891d 0b2e 08c0 30aa c16b b434 bb6e 2d39
00000290: 7c9c cdb7 b003 b0b1 8045 0036 819c 8e25
000002a0: c03a d9a9 97f7 53b1 6630 852f 7941 b8b5
000002b0: 2cd6 e82d e393 1037 dbfc a0b0 8d3e faa9
000002c0: dfff c6ae 3852 acb2 a386 fbb5 ee71 7d33
000002d0: f772 f9ab 7210 3534 fb4e fab0 5e0b 9cb1
000002e0: 7e15 9c36 8f7b 152f 36db 3e32 d4b1 56b7
000002f0: f908 79b6 91cd efb3 8054 cbb2 add5 12b6
00000300: 0ecd deb4 4bec 8cb9 aaee f7b6 364c 6bb3
00000310: e9e0 97b3 3379 a6b6 3d7e c935 d0db c3b2
00000320: d8f7 0ab3 f32f 6e34 be61 b3b3 c9d6 1036
00000330: e202 1236 9b16 e8b3 67ad 5cae 9445 9a32
00000340: 18e0 59b1 5eba 0935 57be e530 2728 82b8
00000350: 47a0 3037 9d4d 3a2c 6ee1 8236 9e9e ef35
00000360: 7959 0635 152f e336 b2cd 0037 901a 0737
00000370: 7ee6 81b7 3450 9d3a 36b6 35b5 2fe8 7fb4
00000380: 9bd0 f4aa 6ad7 7a30 6ccc 0db1 d7e6 91aa
00000390: d617 f631 7564 1a31 96a8 e02c 351c 5f32
000003a0: a4d3 b92e e95c b22b b52a 4ab2 ca08 a62d
000003b0: 6479 4427 8346 d5b2 ebdd cd29 d784 1fb1
000003c0: a3be 32b2 fd87 20b5 4e93 dd26 d282 c028
000003d0: 12e3 0b31 f124 a836 d63a eeb5 d23f 062c
000003e0: 154e 9d35 766c efae cc68 812a cc64 0233
000003f0: a92b 5b32 b24f 01b6 1ab7 0332 1fb3 9a28
-4.1967757e-12 9.135168e-13 8.278523e-15 -2.4555823e-11 1.2333251e-12 8.530945e-13 1.01536606e-10 -1.6654061e-13
1.552865e-14 -6.435171e-13 7.8129955e-15 2.1589065e-17 5.85086e-11 -6.732662e-15 -9.07223e-09 -1.8804178e-10
-3.7252224e-08 1.5108937e-17 -2.7240131e-17 7.9423265e-12 -2.0382801e-14 -7.94678e-09 3.6452944e-15 4.2579696e-08
3.738782e-13 -7.0422685e-16 7.723755e-13 -1.4450553e-10 2.0955224e-09 -7.688995e-11 8.8621795e-17 -2.4692345e-05
1.6755647e-12 -1.0758138e-11 1.0221297e-08 2.4663008e-13 -1.5253304e-11 2.9878844e-09 1.2612875e-08 2.6517748e-09
-2.8234387e-11 4.3530903e-09 1.6351682e-09 -1.6329494e-14 5.984545e-07 3.628722e-10 -1.10236806e-10 -4.0320903e-14
7.1394557e-10 1.3307129e-10 -4.7366926e-11 -2.7580419e-11 -1.10724346e-10 3.080969e-10 -1.6148051e-09 3.1983896e-09
-1.9194429e-14 -1.8168803e-05 1.0862346e-12 -2.4787587e-05 -1.4139685e-10 -1.5936109e-13 -8.299279e-08 1.0231065e-15
-2.7770801e-09 4.925072e-08 -1.0382236e-11 -2.6003133e-07 -5.648693e-06 -1.8723373e-05 -7.922157e-05 -9.592759e-17
8.892825e-08 -7.272399e-08 -7.8707764e-08 -0.0013239004 5.493429e-09 2.129236e-12 2.7228731e-08 -3.820435e-10
-2.904942e-09 -4.5708908e-09 2.694875e-10 4.6418484e-07 -3.4142822e-08 -1.870596e-11 1.0741518e-14 -2.2325148e-08
3.3109803e-11 -5.462068e-06 -5.2935157e-08 -1.4065484e-06 8.7652494e-16 7.850471e-14 -1.8843282e-10 1.2535792e-06
-2.739694e-07 -4.145192e-12 4.300108e-06 1.5102193e-08 4.57063e-08 -0.00029933115 4.974784e-06 -2.3549014e-06
-6.861832e-09 -2.2505247e-14 0.00048500544 -3.6556157e-06 1.6714412e-05 1.1713124e-06 6.1530213e-13 2.498143e-09
1.1951107e-06 -6.445235e-07 2.0111545e-06 -1.6169146e-09 8.3132585e-07 -1.0096423e-05 -6.640779e-08 -1.7673375e-09
1.3983346e-07 -3.2817365e-08 3.622704e-07 2.8314469e-08 -3.9503274e-08 3.2233817e-08 0.00033202022 -9.069166e-08
4.0709398e-07 -1.0646801e-06 8.7500393e-07 -1.379653e-13 -0.0001587074 -8.2150224e-11 -2.0995685e-07 -3.068207e-05
-8.298638e-11 2.226623e-05 -3.4385735e-13 -4.236417e-07 1.2835159e-07 -2.1707534e-07 2.2776662e-06 4.1693534e-06
4.3308564e-06 -4.5928714e-06 3.6334e-41 1.3242643e-06 -2.5299022e-07 8.2541995e-21 -8.945607e-10 1.06602e-08
1.314613e-10 -7.8968776e-10 4.7263673e-09 -1.2844961e-09 3.124599e-11 7.0211437e-10 4.1743387e-11 4.7527706e-09
3.1631173e-11 -1.5698564e-13 3.3606014e-07 0.00016539816 -2.4510773e-05 -5.1226934e-09 1.911394e-06 2.4739125e-16
-9.6469274e-14 -3.084528e-09 2.4226948e-10 -1.3728123e-06 2.6470458e-11 8.617501e-06 -1.1713398e-09 -1.1113081e-13
-9.0494494e-11 -2.0060824e-08 -1.8740142e-06 5.900977e-08 -1.7724423e-12 1.6862921e-07 -1.8212342e-09 -4.54149e-09
4.6516643e-06 1.3595368e-10 1.1109298e-08 -1.2796798e-05 -3.7109114e-06 -1.1166697e-07 -2.3670736e-08 -2.188007e-06
-4.149992e-07 -0.00026878933 -7.388958e-06 -5.4784515e-08 -7.0723964e-08 -4.961295e-06 1.5012407e-06 -2.2800947e-08
-3.235604e-08 2.2182921e-07 -8.353116e-08 2.1582694e-06 2.1757373e-06 -1.0807454e-07 -5.017622e-11 1.79596e-08
-3.1705039e-09 5.1307677e-07 1.6716041e-09 -6.206362e-05 1.0527735e-05 2.6475274e-12 3.9005454e-06 1.7853051e-06
5.004909e-07 6.7706083e-06 7.677287e-06 8.052812e-06 -1.548533e-05 0.0012002052 -6.7692906e-07 -2.3833194e-07
-4.3487856e-13 9.125559e-10 -2.06344e-09 -2.5917351e-13 7.162252e-09 2.2467053e-09 6.3851797e-12 1.2986722e-08
8.450421e-11 1.2673448e-12 -1.1767658e-08 1.8875918e-11 2.726627e-15 -2.4828529e-08 9.1423254e-14 -2.3213056e-09
-1.0404309e-08 -5.9802534e-07 1.5374883e-15 2.1373016e-14 2.0356237e-09 5.0110907e-06 -1.7749505e-06 1.9077973e-12
1.1720136e-06 -1.0887728e-10 2.298772e-13 3.0359658e-08 1.2757405e-08 -1.9268887e-06 7.666836e-09 1.7175116e-14

gate_conv.lin2.weight f4 [64, 64]
00000000: 043f c1b2 3e9a 7634 623f 3434 1f5c 6cb5
00000010: 07dc 4033 695f 5db0 f8e4 1433 9673 e8b2
00000020: 8434 fbb1 634b 60b3 085d b9b2 8062 32b6
00000030: ee41 86b3 f87f c42a e6fb 77b6 5447 43b2
00000040: 7c1f 0eb1 231b 7a34 d36b 9c2c 873c 7123
00000050: 48ec 2c37 e109 b6b8 3d64 15af bc90 91ac
00000060: 7ec7 b9b1 e625 03b6 1e3c ef2b 5ebb 99b3
00000070: 9ba5 fa32 ccce 38b6 79e7 2635 eec5 b4b0
00000080: a893 b530 4223 b234 b4e2 04b4 6b56 fa33
00000090: 0103 c5b3 9283 dc2f 434c 7cb4 8706 2b36
000000a0: 6c2e f2b7 d12b feba c312 3606 d7e8 8327
000000b0: 8980 40b4 fd98 58b9 8f08 1d1f e83f 6736
000000c0: c3b9 bdb3 84b8 1a32 52c2 3bb4 44db 1e39
000000d0: 986a f2b5 54bf 3432 69d0 16b2 af6e c1b7
000000e0: a260 38b5 e199 0522 9a1b 88b6 f96f 84b3
000000f0: bcb7 ffb7 ffda 3999 6277 9032 0722 1336
00000100: d848 14b2 f0f7 2b34 86ad 5435 af6f 8634
00000110: 9724 d433 8050 32b0 c203 c82e 7129 8fb1
00000120: 365b 8031 e9e7 ec31 3c00 0535 b139 e4b4
00000130: 0179 abb3 0007 a5a5 6449 06b5 0c23 2232
00000140: 7f60 a1af 51e9 aeb2 f385 2aaa cdb1 cc20
00000150: 00ac 85b6 dc17 afb6 7281 022d 90ab 962a
00000160: 4443 b6b1 8cce 3db4 3932 2c2d 667c 0834
00000170: 2c44 f532 6620 b5b4 e036 85b5 0ee1 f02f
00000180: db28 4230 2c45 d3b4 ec6a bc31 d4df 4134
00000190: 7f6f 8f31 5469 34b1 4bcb 6534 7bc4 61b5
000001a0: b259 94b4 529d e036 1675 0806 aec1 9225
000001b0: 798a bbb2 c263 91b7 3e54 931d 5b53 9236
000001c0: 0fd8 43b3 012c f32f bbaf 5b32 3296 c2b8
000001d0: 0701 94b3 21ff 562f 4ef3 8ab0 0027 9036
000001e0: 7571 1c34 ef4f 919e aecc 50b5 7dd6 5733
000001f0: 97dc 37b5 fd0f 9d19 f398 05b6 fab6 f8b5
00000200: cb52 a533 114f 3fb5 d66b abb6 635d c636
00000210: 4831 3832 3e6a 31b1 16da d933 680f 47b0
00000220: 51fc 4732 8ef3 2cb3 74ea d6b5 f512 ca36
00000230: b1ff 5fb3 661e 212b b04f 76b6 8fc4 51b3
00000240: 1aea 5531 f7ea 7c35 023a fa2c 1b17 5022
00000250: 33b6 7b37 fe8f 83b8 c6d6 87ae a2fe c5ad
00000260: e642 ef33 1300 aeb6 c6be a5af ef8d c136
00000270: 2a4c 3b34 08ea fd35 2365 bbb4 0c10 31b0
00000280: 43e7 d6b1 2224 0cb5 d4cb 6a34 ddae 4ab6
00000290: acf1 bb32 a4ed 0832 ca1d 98b6 ca51 0b37
000002a0: ec08 0038 323b b7b8 523f bc05 e611 ee26
000002b0: 48c6 84b5 0bae 663a 5f89 971e 6019 b235
000002c0: 4b3e eeb3 012e c031 7424 1735 6b74 15b9
000002d0: 5b3c 32b6 50f4 2532 4a15 8c32 35af c433
000002e0: bbb6 0337 c36c ea20 3354 1eb7 ccca d133
000002f0: cc5f eab7 8baf 5c9a 33d6 d934 c956 f737
00000300: 65cd 73b4 02df b435 8966 1c34 4a81 fe36
00000310: 9fb2 7835 463c c8b2 9da6 ceb3 f2bc ea33
00000320: 96c2 a331 2ec2 8bb4 d17f 4b36 18b0 75b6
00000330: 2e8f e5b3 6c81 b52b 81e4 abb6 2524 afb3
00000340: a376 7831 e23b 76b4 207d 5aac 1010 bf22
00000350: e240 3cb7 6139 88b9 d487 50af 9527 2d2c
00000360: 7bb3 4cb2 caf9 15b7 1e10 712f 8e6e 1cb7
00000370: 904a ae33 c46c 8a36 b789 6335 f075 16b1
00000380: 3cad dcb2 f97a 9434 9dc8 12b5 11e7 ccb6
00000390: 1752 05b4 aa37 f8b2 7aaf a436 9733 41b7
000003a0: 7aaa 8d38 7e34 b3b8 ad07 9407 629a 9227
000003b0: 6082 f8b4 ddae e83a 933b 8c1f d081 07b8
000003c0: ac34 91b4 3fb2 9332 ef06 a034 f288 23b7
000003d0: 26d2 94b6 0d2f dbb1 0773 9f32 5d1d 91b7
000003e0: 13e5 83b6 42e2 ab21 88f3 f8b5 1933 24b4
000003f0: 1942 84b7 7156 841a 9c99 d035 a98a 62b7
-2.2496813e-08 2.2966648e-07 1.6786865e-07 -8.8050905e-07 4.4903597e-08 -8.053492e-10 3.466718e-08 -2.7060917e-08
-7.311032e-09 -5.2222628e-08 -2.157914e-08 -2.6581401e-06 -6.251854e-08 3.490539e-13 -3.6952492e-06 -1.1366712e-08
-2.0681616e-09 2.3292937e-07 4.4457576e-12 1.3077453e-17 1.0307012e-05 -8.6802764e-05 -1.3587083e-10 -4.1372166e-12
-5.4068883e-09 -1.954258e-06 1.6998657e-12 -7.1586996e-08 2.9179139e-08 -2.7538508e-06 6.2176656e-07 -1.3152979e-09
1.321145e-09 3.3180737e-07 -1.2375932e-07 1.16572515e-07 -9.174074e-08 4.0111253e-10 -2.3497073e-07 2.5484785e-06
-2.8870265e-05 -0.001939172 3.424418e-35 3.661225e-15 -1.7928154e-07 -0.00020656358 3.3253123e-20 3.445888e-06
-8.834788e-08 9.005934e-09 -1.7486425e-07 0.00015149737 -1.8061428e-06 1.0520882e-08 -8.778536e-09 -2.3058934e-05
-6.868596e-07 1.8106324e-18 -4.056329e-06 -6.167097e-08 -3.0483927e-05 -9.608502e-24 1.6818095e-08 2.1924513e-06
-8.631297e-09 1.6015815e-07 7.9228664e-07 2.5040706e-07 9.878675e-08 -6.487042e-10 9.0956145e-11 -4.166559e-09
3.73566e-09 6.894869e-09 4.95467e-07 -4.2510285e-07 -7.9848185e-08 -2.862768e-16 -5.002569e-07 9.43761e-09
-2.9354294e-10 -2.0362366e-08 -1.5145506e-13 3.4676603e-19 -3.9837323e-06 -5.218184e-06 7.418387e-12 2.6764398e-13
-5.3045444e-09 -1.7677138e-07 9.78822e-12 1.2711243e-07 2.8552755e-08 -3.373745e-07 -9.925243e-07 4.3815657e-10
7.063485e-10 -3.9352142e-07 5.4836757e-09 1.8055954e-07 4.1745234e-09 -2.625332e-09 2.1401245e-07 -8.410495e-07
-2.763241e-07 6.6940347e-06 2.5664778e-35 2.5458205e-16 -2.1832635e-08 -1.73318e-05 3.899768e-21 4.360843e-06
-4.559848e-08 4.423271e-10 1.2787434e-08 -9.278617e-05 -6.891974e-08 1.9553827e-10 -1.0109973e-09 4.2960746e-06
1.4569908e-07 -1.5385532e-20 -7.7783886e-07 5.0253664e-08 -6.8493813e-07 1.6239877e-23 -1.9907573e-06 -1.8530693e-06
7.698471e-08 -7.12681e-07 -5.108751e-06 5.9117315e-06 1.0721415e-08 -2.5817282e-09 1.01445195e-07 -7.241767e-10
1.1640695e-08 -4.0268382e-08 -1.6012477e-06 6.022276e-06 -5.2153784e-08 5.7240877e-13 -3.670324e-06 -4.8840374e-08
3.112865e-09 9.4219234e-07 7.1118675e-12 2.8201488e-18 1.5003187e-05 -6.2733874e-05 -6.177241e-11 -2.2509387e-11
1.11414735e-07 -5.1856127e-06 -3.0148878e-10 5.7683715e-06 1.744344e-07 1.8918081e-06 -3.490505e-07 -6.441503e-10
-6.254511e-09 -5.2206644e-07 2.18671e-07 -3.020213e-06 2.1879565e-08 7.970275e-09 -4.533421e-06 8.304089e-06
3.0525887e-05 -8.737146e-05 1.7702695e-35 1.6519419e-15 -9.892474e-07 0.0008799738 1.6044562e-20 1.3269419e-06
-1.109407e-07 5.5931655e-09 5.630493e-07 -0.00014253116 -2.6559198e-06 9.659814e-09 1.6307826e-08 9.158831e-08
7.850754e-06 3.9713114e-19 -9.437138e-06 9.7692094e-08 -2.7939583e-05 -4.5636736e-23 4.057525e-07 2.9485107e-05
-2.270586e-07 1.3475949e-06 1.4565934e-07 7.584841e-06 9.264713e-07 -2.3310474e-08 -9.622929e-08 1.0930843e-07
4.7660462e-09 -2.6032052e-07 3.0323756e-06 -3.6610345e-06 -1.0689688e-07 1.2896745e-12 -5.1227985e-06 -8.155647e-08
3.6156187e-09 -2.293232e-07 -3.1049122e-12 5.178766e-18 -1.122078e-05 -0.00025982692 -1.8965746e-10 2.4606751e-12
-1.1915172e-08 -8.939251e-06 2.1924548e-10 -9.324065e-06 8.116069e-08 4.1253825e-06 8.476449e-07 -2.1894913e-09
-2.5690149e-08 2.7656623e-07 -5.468117e-07 -6.1065734e-06 -1.2416454e-07 -2.8896313e-08 4.908009e-06 -1.1515708e-05
6.755158e-05 -8.5451626e-05 2.2273076e-34 4.0690523e-15 -4.628846e-07 0.0017752309 5.9390864e-20 -3.2307405e-05
-2.7046678e-07 1.719411e-08 2.9807367e-07 -9.747442e-06 -4.435208e-06 -6.379088e-09 1.8562345e-08 -1.729902e-05
-3.930772e-06 1.1647301e-18 -1.8548317e-06 -1.529228e-07 -1.5766405e-05 5.4733574e-23 1.5541914e-06 -1.3502934e-05

gru.weight_ih f4 [192, 64]
00000000: 11eb b019 7753 8f34 5329 81b1 a65b 9c19
00000010: 7495 6f34 e7dc d932 34be 4531 ace4 ad32
00000020: ef52 b318 c8a0 223a 86cc 1eb6 fe76 7299
00000030: e136 1c9a bb6c cc97 238d 9836 f3a5 5d9a
00000040: 6026 b699 9fb3 cb99 7cff da1a d0e2 0019
00000050: 5059 6db1 a9b2 5831 cdb2 599b 14d8 9618
00000060: 9fad 5bb7 37b0 36b7 a318 d932 4a46 b3ad
00000070: b62d 1399 f2f8 65b7 882f 261b 73b8 479a
00000080: 4d08 231b 0120 cab6 b092 bfb7 cbee fa30
00000090: 2d49 01b7 a283 de18 c1b0 ac9a 4d39 cdb8
000000a0: fcd4 bc33 b0c3 632c c188 78ac 2746 7816
000000b0: 7e00 9c99 c4fb d319 ae30 9eb3 fb37 0898
000000c0: eb79 202d a790 f118 7ee8 c899 9944 65b9
000000d0: 6d12 4eb4 bdf0 7e9a f3e0 fcb0 c096 d819
000000e0: 995b 171b 89b7 5d99 505b c097 2622 c399
000000f0: ec91 b22b 04d1 b01a c896 bbb1 6993 8237
00000100: 118c 4da7 da5b 69a7 3da8 07a8 d18f 17a9
00000110: cad0 0ab7 b34e b4a5 65b8 a0a6 da1a 1229
00000120: 0678 cfa9 97e1 2426 98e5 27ab 3a32 0824
00000130: 9d2e 9329 1905 eca7 2c11 f538 1931 22a7
00000140: 1242 89a8 9d12 3fa7 b69f 68a8 95a9 ffb3
00000150: b32e d3a9 503c 4fa9 96fe 9a27 0742 13b9
00000160: 63d7 a434 bad6 c0aa 79ac 1cb5 48de 6339
00000170: b059 c327 8053 f823 d14f 0c29 e0f3 5c26
00000180: 2e19 0429 4e76 3ab5 5a84 1426 b80e 8826
00000190: e7ca 74ba c975 fc31 f401 7829 6cc0 a8a9
000001a0: f050 e929 23df d8a5 066e baa4 6461 5e27
000001b0: 7c56 78a7 8bce 1da8 09d6 a8a6 58cd 1ca8
000001c0: 5d5a 9e24 3a2f 0227 14a7 8d28 b064 2fa9
000001d0: 2189 0f28 501a a2a5 6106 1727 c518 c527
000001e0: e058 62b3 cddd 8fa8 4651 b429 6ec6 2128
000001f0: 0500 1cb9 9f1b f926 3a36 cf28 9a3a ad28
00000200: ff2b 97ab 3f52 1fac bd98 d5ac b469 0aad
00000210: 6818 852b 91e7 bc2c bc61 d2ab 7e4f 85ab
00000220: 27b3 67ac 6db2 c0ac 0573 16ac e383 302c
00000230: c058 4fa9 b5ad c12a 35c9 2aab 45c8 582c
00000240: 04d6 0cab 15f5 552b 2f98 a1ab 09ca 10ab
00000250: 48e1 b0aa b2be a52a 5e0a 1aaa b423 ba2c
00000260: a919 d2ab ecf5 7faa 3b83 a12b d800 992a
00000270: 20bb 1a2b 9659 7bab c22f b0aa ac79 fdaa
00000280: f6d6 c7ab 6f94 abab 69da 722a 7860 3d29
00000290: 73e8 8daa 61aa b5ab 12d2 982b 9fc4 e5ab
000002a0: 6ff4 33ab ef42 222a f230 85ac 6f0c a5ab
000002b0: 03c6 e3aa 6569 80aa b6b3 7a2c 8bc1 b534
000002c0: a1b2 8a2c b232 acab 8d5e 462b c6b2 82ac
000002d0: c824 992c 0026 0cab 34fb 31ab a4a3 13ac
000002e0: d43a 302c b286 feab c604 8eab 966a 8eac
000002f0: 4446 66ac d6a6 88ab 1aca 10aa 15b5 1aaa
00000300: db68 8930 1e9c a0ae aecf 25b1 ef23 dab1
00000310: be2a 1a31 f024 8430 4b9b 762e 59dd 21b1
00000320: 9cc9 0532 efd7 3230 af30 9f31 210e 6a31
00000330: 1a49 6632 cd89 2fb1 bd25 592e b3df 68ae
00000340: c268 bbaf 3859 9830 f4d7 4db0 4753 61b0
00000350: deea 12b1 8aa9 c131 344a 10b0 19b7 c531
00000360: 0ca1 fd2e 76a9 0432 6b84 2fb1 ec6b 55af
00000370: 4fde f730 413a 662f 6bdc 79b1 ce00 8e31
00000380: d7b7 3dad e10c d8af d23c f530 f5ab bab0
00000390: f582 45b1 326b 0031 fcc3 54b1 615b 5db1
000003a0: f110 da30 aa57 732f 8bf5 8a30 e30a 9b30
000003b0: 052e 6030 a603 9fb0 c398 8fb1 d753 a731
000003c0: 79c3 a1ad 6b1c 82b0 c2bc 0931 18c2 692f
000003d0: 7def 96ae e09d 5c31 eaa2 56ae 6e08 12b1
000003e0: 6f3d 7a31 d9d1 262e 719c e731 d6fd 13b0
000003f0: 648e 3c31 41c9 08b2 4403 0b31 4834 7032
1.8292916e-23 2.6696554e-07 -3.759092e-09 1.6167038e-23 2.231298e-07 2.536258e-08 2.877539e-09 2.0243839e-08
4.6354157e-24 0.0006203768 -2.3662883e-06 -1.2535137e-23 -3.2304375e-23 -1.3210638e-24 4.5463835e-06 -4.583578e-23
-1.8833858e-23 -2.1062256e-23 9.0575444e-23 6.663249e-24 -3.4538807e-09 3.1533693e-09 -1.8007593e-22 3.8992274e-24
-1.30938415e-05 -1.0889074e-05 2.5273328e-08 -2.0381159e-11 -7.608953e-24 -1.3707426e-05 1.3746556e-22 -4.1301232e-23
1.3485726e-22 -6.023795e-06 -2.2837281e-05 1.8257763e-09 -7.706037e-06 5.751857e-24 -7.1423094e-23 -9.785835e-05
8.793174e-08 3.2367269e-12 -3.5318833e-12 2.0055417e-25 -1.613022e-23 2.1918576e-23 -7.366303e-08 -1.760585e-24
9.122018e-12 6.24431e-24 -2.0773418e-23 -0.00021864696 -1.9191948e-07 -5.2720436e-23 -1.8399348e-09 2.2394764e-23
1.2520024e-22 -1.1462497e-23 -1.243076e-24 -2.017632e-23 1.2688162e-12 7.312958e-23 -5.459558e-09 1.556585e-05
-2.8525395e-15 -3.2385038e-15 -7.530486e-15 -3.3653476e-14 -8.2740535e-06 -3.127835e-16 -1.115221e-15 3.2441802e-14
-9.2134674e-14 5.720466e-16 -5.9648944e-13 2.9532843e-17 6.5361975e-14 -6.5508685e-15 0.00011685709 -2.2508632e-15
-1.5238709e-14 -2.6516665e-15 -1.2913219e-14 -1.19052096e-07 -9.3783834e-14 -4.6015546e-14 4.301961e-15 -0.0001404361
3.0704095e-07 -3.4255048e-13 -5.836551e-07 0.00021731213 5.422061e-15 2.6923578e-17 3.1155474e-14 7.6658345e-16
2.9331728e-14 -6.9462556e-07 5.1527185e-16 9.440885e-16 -0.0009338096 7.347556e-09 5.5068756e-14 -7.4940786e-14
1.0361319e-13 -3.762123e-16 -8.085103e-17 3.0861484e-15 -3.4463797e-15 -8.760038e-15 -1.1715356e-15 -8.704266e-15
6.867466e-17 1.8066726e-15 1.5726603e-14 -3.894514e-14 7.96783e-15 -2.812035e-16 2.0958918e-15 5.470534e-15
-5.2700557e-08 -1.597238e-14 8.0077045e-14 8.980323e-15 -0.00014877327 1.7285333e-15 2.3005134e-14 1.9232273e-14
-1.0741407e-12 -2.2640915e-12 -6.0707815e-12 -7.867863e-12 9.456992e-13 5.3689904e-12 -1.4948524e-12 -9.472282e-13
-3.2926524e-12 -5.4767775e-12 -2.138013e-12 2.5084316e-12 -4.604021e-14 3.440422e-13 -6.0675363e-13 3.0806618e-12
-5.0035e-13 7.601292e-13 -1.1481977e-12 -5.1439457e-13 -3.14202e-13 2.944221e-13 -1.3681545e-13 5.290402e-12
-1.492852e-12 -2.2733871e-13 1.1476162e-12 2.7178845e-13 5.497148e-13 -8.929744e-13 -3.129702e-13 -4.5026255e-13
-1.4199464e-12 -1.2191479e-12 2.1569694e-13 4.2050104e-14 -2.5207925e-13 -1.2908113e-12 1.0858556e-12 -1.6326002e-12
-6.3932795e-13 1.4411713e-13 -3.7855214e-12 -1.1727406e-12 -4.0460698e-13 -2.28105e-13 3.5626896e-12 3.3854698e-07
3.9420277e-12 -1.2235406e-12 7.0474946e-13 -3.71467e-12 4.352605e-12 -4.9790727e-13 -6.3231646e-13 -2.0980795e-12
2.504376e-12 -1.8085171e-12 -1.0091032e-12 -4.047716e-12 -3.2723971e-12 -9.709687e-13 -1.2859887e-13 -1.3740773e-13
9.997864e-10 -7.3036896e-11 -2.4128712e-09 -6.34872e-09 2.2434246e-09 9.614762e-10 5.6071852e-11 -2.3554405e-09
7.78746e-09 6.5062883e-10 4.6330437e-09 3.4059513e-09 1.3404383e-08 -2.5544182e-09 4.9373606e-11 -5.2949378e-11
-3.4089537e-10 1.1084813e-09 -7.4885453e-10 -8.197287e-10 -2.1379303e-09 5.6363136e-09 -5.2492344e-10 5.7542704e-09
1.15337156e-10 7.721942e-09 -2.5541123e-09 -1.9410579e-10 1.8034799e-09 2.0939074e-10 -3.6359562e-09 4.1328354e-09
-1.0784227e-11 -3.9299322e-10 1.7843382e-09 -1.3582154e-09 -2.8741713e-09 1.8687385e-09 -3.0961465e-09 -3.2211676e-09
1.5866403e-09 2.2131866e-10 1.0110609e-09 1.1280828e-09 8.1556123e-10 -1.156981e-09 -4.1792148e-09 4.869871e-09
-1.8390388e-11 -9.466822e-10 2.004342e-09 2.1260183e-10 -6.863752e-11 3.2103955e-09 -4.8802663e-11 -2.1250588e-09
3.641471e-09 3.7930412e-11 6.74077e-09 -5.383901e-10 2.743854e-09 -7.962002e-09 2.0229018e-09 1.3981726e-08

gru.weight_hh f4 [192, 64]
00000000: f9f8 739b 0167 382c 7abd cf2f 0e03 3f31
00000010: 0b3e a72c 31c6 c0b8 fe54 331a 96b0 858f
00000020: c76f 9334 7bce e2ac 1e72 2695 69ed 3f31
00000030: 17f5 b0b9 0936 df2e aaae 4430 b34c a92f
00000040: a8af 53b6 8665 d78f 3e95 beb3 7264 5d1a
00000050: eac4 f333 adad 1d9b c712 8eb5 7698 7f1c
00000060: 588a cdb3 7547 51b2 676e 63b2 930f c138
00000070: 9263 549c f925 a83a 05cf ad2c 5961 8fb8
00000080: 86e2 8eb4 5b56 0fb7 4089 571a 7043 74ba
00000090: a5b6 a519 a536 5799 91d8 4aac c1fe 462f
000000a0: aa90 9e18 34a4 009c 397e 51b3 1b42 75b0
000000b0: 9cc5 ee39 177b 5135 e555 fb19 6ef2 0cb7
000000c0: b62c 349b b147 3cb1 ebe8 8b0a 494b 14ba
000000d0: 1402 eb32 0ec7 04b7 b37a 8119 1f3b 089b
000000e0: 2651 2532 787f 922b 14bb aeb4 9652 92b1
000000f0: 16b8 cdb6 41c5 9fb2 088c b4b5 0fac a9b3
00000100: 4a82 7f23 18e3 98a6 108d 1931 d0f9 e835
00000110: e6d6 aca5 40a7 5c20 d04e 66a8 b574 18b6
00000120: 56b2 90b1 2521 6427 ab80 89a2 1325 269c
00000130: 4f75 3135 44ca 3ab2 d61d 7635 3084 72ae
00000140: 0f6d 5aaf f826 f61a 961b 4a1d b01f c0ad
00000150: e2f6 beb6 6bcc 802b 9fc9 2d21 3bea 92ab
00000160: 0381 8d32 6a79 39b5 94be ba2d e4f3 1826
00000170: c4d5 c4ac 2534 9ea5 ed8d 6d9d fa8f 52b4
00000180: e4dd 84b6 22d2 ce27 040f a0aa 63ff cc21
00000190: 2e19 1b24 0847 28ac 8be3 88b9 aa4f db28
000001a0: f3ed 5226 f18b 842b 07f7 26ba 1d6c 8939
000001b0: d23e bdb0 213a 5033 dae3 b427 fdea 13b8
000001c0: 3b6b 4cab ce8f e7a6 28a1 d4a4 2c7e b9a8
000001d0: a120 87ba 2813 792a b621 8729 ad8c 322a
000001e0: 707e 1d9f 7989 3b30 a920 e821 e29b 66b7
000001f0: 3070 3eb0 61ae 2830 4245 1aba b782 201f
00000200: 7592 a2b0 d634 7c2f e3f0 13a9 90d9 3529
00000210: cc9d e8ab 46d4 1dbb 8ac4 1a2c a822 2527
00000220: c894 f739 1559 6aac e796 ac26 dd26 30a1
00000230: d118 993a 7aef cf38 66b1 2cb8 7ce5 37ac
00000240: f284 1ea6 0ed4 3e9d 7c94 0037 51c9 76b7
00000250: 2c20 01b9 6d7d 0f2d 49b1 2eb5 7a3a 862e
00000260: 237f 8a29 9a3b fa37 c480 5cb4 b29c b9ab
00000270: ddab 5aae c38a 0b35 5d63 0132 ee5f 63b6
00000280: 1ad7 32b8 4aa7 7a37 48b1 282e 1497 41b4
00000290: de60 05b9 f606 bf2d b385 0ab1 4518 fbb1
000002a0: ffa5 fea9 8b75 81ad 478b 8426 9ed5 82b2
000002b0: 7387 02b3 b259 4b2b cc91 8cab 26af e5b1
000002c0: ff6c 012e 9222 80ac c355 c9a0 cd19 4b2a
000002d0: cecb 5ea9 e2c7 2bb0 d9f3 332d 2666 9f2e
000002e0: 74dc 16a9 67a4 b6ba 7e63 63aa fee1 d232
000002f0: cf83 f4b4 97fe 25ac 830d 1733 38fa 3a32
00000300: 051b 93b4 9155 662f 786b c9ae 295f 9730
00000310: 7e9f b9b8 cb5a be2b b784 872e d7b8 6f35
00000320: 97b0 5837 c20b c7b7 9b20 4b2b d339 fb25
00000330: 4a5c 6f30 f428 5e39 655f d037 a61b 0f30
00000340: bf65 2830 17fe b623 f088 203b 723c 38b6
00000350: 6927 fdaf e445 a731 3ed2 25aa bfe7 04b4
00000360: ae64 5532 f129 be37 b758 b5b1 6e1b b638
00000370: a455 8733 b245 b0af 7830 01b6 3dab 5635
00000380: aacd 22b8 0617 70ad c777 a132 498c 972a
00000390: 4fef b532 a752 28b4 8b5e 1fb9 2df4 98b4
000003a0: 6c05 edad d224 adb0 a756 5cb2 9313 84b4
000003b0: 9332 442d f2a6 be30 9234 47b0 8003 88b9
000003c0: 6d7e c6b4 190d 2f39 9fab fbaf 77c0 1cb7
000003d0: ecc8 11b3 42cf 92b0 bb3c 37b3 bb81 1a33
000003e0: ad0b 85b6 4e2d 9b38 5d4f 1e2b 95ef 0bb3
000003f0: 4841 ceb3 7d94 bc3a 1cb6 86b9 aa9d 412e
-2.0180936e-22 2.6205151e-12 3.7787712e-10 2.7795894e-09 4.7533136e-12 -9.1921895e-05 3.708499e-23 -1.3182831e-29
2.7462212e-07 -6.4462303e-12 -3.3613456e-26 2.792911e-09 -0.00033751942 1.01504645e-10 7.1552597e-10 3.079542e-10
-3.1543696e-06 -2.1239742e-29 -8.8747115e-08 4.5782868e-23 1.1351388e-07 -1.3042853e-22 -1.0585289e-06 8.4569474e-22
-9.571221e-08 -1.2181649e-08 -1.3238242e-08 9.205858e-05 -7.027361e-22 0.00128287 4.9399395e-12 -6.836904e-05
-2.661438e-07 -8.54357e-06 4.4571828e-23 -0.00093179103 1.713437e-23 -1.1126275e-23 -2.8826145e-12 1.8098502e-10
4.0988116e-24 -4.2563875e-22 -4.8776403e-08 -8.922442e-10 0.00045542128 7.8037687e-07 2.5987484e-23 -8.401095e-06
-1.4903698e-22 -2.7398352e-09 1.3472827e-32 -0.00056569703 2.7358546e-08 -7.914159e-06 1.3387845e-23 -1.126876e-22
9.622715e-09 1.0409304e-12 -3.2546143e-07 -4.258548e-09 -6.1309065e-06 -1.8599737e-08 -1.34518e-06 -7.900973e-08
1.38511675e-17 -1.0608673e-15 2.2344615e-09 1.7358052e-06 -2.9982865e-16 1.8690063e-19 -1.27846545e-14 -2.2717697e-06
-4.211226e-09 3.1659324e-15 -3.7270157e-18 -5.497271e-22 6.6108345e-07 -1.0872615e-08 9.168556e-07 -5.5141836e-11
-1.986573e-10 1.0180617e-22 2.674874e-21 -2.1841945e-11 -5.691182e-06 9.151684e-13 5.8881523e-19 -1.0438936e-12
1.6473228e-08 -6.909455e-07 2.1230386e-11 5.3066127e-16 -5.594388e-12 -2.7443965e-16 -3.1440063e-21 -1.9610152e-07
-3.959738e-06 5.7404312e-15 -2.8432129e-13 1.3891178e-18 3.3631595e-17 -2.3913666e-12 -0.00026109474 2.4348433e-14
7.3180867e-16 9.418006e-13 -0.00063692074 0.00026211227 -1.3769414e-09 4.8481642e-08 5.0207073e-15 -3.526638e-05
-7.262417e-13 -1.6067823e-15 -9.2213354e-17 -2.0593844e-14 -0.0010309407 2.2122289e-13 6.001052e-14 1.5858383e-13
-3.335063e-20 6.8225564e-10 1.5729577e-18 -1.3745363e-05 -6.9281025e-10 6.136585e-10 -0.0005884954 3.3989443e-20
-1.1828677e-09 2.2938038e-10 -3.2849493e-14 4.037878e-14 -1.6528389e-12 -0.0024082824 2.1993817e-12 2.2917137e-15
0.00047222362 -3.330285e-12 1.19758e-15 -5.9682555e-19 0.001168037 9.915135e-05 -4.117321e-05 -2.6133254e-12
-5.4997436e-16 -2.525592e-21 7.663966e-06 -1.4709615e-05 -0.00012314384 8.156459e-12 -6.5078035e-07 6.104002e-11
6.150486e-14 2.9830077e-05 -2.0535941e-07 -1.3188532e-12 -4.9720107e-11 5.198346e-07 7.531381e-09 -3.3881474e-06
-4.2638836e-05 1.4940111e-05 3.8356235e-11 -1.8029488e-07 -0.00012719954 2.1717277e-11 -2.0157642e-09 -7.3078206e-09
-1.1308662e-13 -1.4717802e-11 9.197091e-16 -1.5231134e-08 -3.0391174e-08 7.2244565e-13 -9.988065e-13 -6.6846892e-09
2.9428012e-11 -3.641817e-12 -3.4107477e-19 1.8038973e-13 -4.9470675e-14 -6.249349e-10 1.0229117e-11 7.248628e-11
-3.3497903e-14 -0.0013934494 -2.0196168e-13 2.4549987e-08 -4.5544445e-07 -2.3589236e-12 3.5169716e-08 1.0883518e-08
-2.7400543e-07 2.0948777e-10 -9.159512e-11 1.1013742e-09 -8.851195e-05 1.3525512e-12 6.162664e-11 8.9303416e-07
1.2915719e-05 -2.3728124e-05 7.2165337e-13 4.3580742e-16 8.7078844e-10 0.00021186826 2.4839954e-05 5.206239e-10
6.1262634e-10 1.984009e-17 0.0024495684 -2.745332e-06 -4.6048435e-10 4.8682853e-09 -1.4727886e-13 -1.2377767e-07
1.2421124e-08 2.2669296e-05 -5.277879e-09 8.6835455e-05 6.302005e-08 -3.2063735e-10 -1.925071e-06 7.9970397e-07
-3.881535e-05 -1.3647533e-11 1.8797335e-08 2.692033e-13 2.1179998e-08 -1.5676288e-07 -0.00015198642 -2.8489868e-07
-2.6946188e-11 -1.2597872e-09 -1.2825388e-08 -2.4601158e-07 1.115254e-11 1.3871768e-09 -7.2470485e-10 -0.0002594255
-3.697236e-07 0.0001669418 -4.5778578e-10 -9.343136e-06 -3.394318e-08 -1.0681804e-09 -4.2663242e-08 3.597391e-08
-3.965068e-06 7.3994146e-05 5.6243015e-13 -3.2581358e-08 -9.604497e-08 0.0014387515 -0.00025694154 4.4023153e-11

gru.bias_ih f4 [192]
00000000: 747a 9e1c 3170 86ab 293c 2a2e d5fc fb33
00000010: 1708 0080 9109 0631 3bdd 2b10 f222 9828
00000020: 274c a42e 1e84 81aa 677e a313 a336 0028
00000030: b434 7cb4 17dd a729 76e4 61aa 6752 4829
00000040: 2588 bf38 4c4c b094 98a7 1ba9 723e 9e8b
00000050: baac ae21 80fe 8fb9 4815 5b2d 57db 37bd
00000060: 363f 991d cfa5 e6a7 cd31 81b0 7584 0c2c
00000070: 9bda 79bc f633 0130 fcba 781e 4dd0 9833
00000080: 5490 78b1 ae3e 28ad 365b 80bb 188d 0000
00000090: 55f5 c205 cbcc 543d 4d2a 1c39 ff94 c8b9
000000a0: f506 0080 0f7b 513c e86f f8b0 75cf 0bae
000000b0: 65e9 45af dcfc 2fb3 4605 0000 bf60 762c
000000c0: 2b60 bfbc 0dfa 0929 c39a 5733 8a15 3530
000000d0: 424d 28af 2845 34bc 2655 c0bc f648 10bd
000000e0: 96a4 83ad 9ffd a0b3 dc74 ddb1 98c7 15be
000000f0: c0ec 8b32 751e 1628 47fc 5839 579f 89a7
00000100: db14 1d1c 886a e530 4182 6b2e 7b16 df32
00000110: 1503 0080 d418 b7af 7037 169d 8605 eda6
00000120: 6cdd 15af 22e4 172c f3c0 9819 1700 94a8
00000130: 4768 c7b4 8d6f f5a9 6db8 23ab 4f07 70ac
00000140: be90 39bb 41c2 2519 a88b c6a8 6cbd 458c
00000150: d6fb ac25 286a 8f3d 744e 062c 807f 8c3e
00000160: 0072 0d1f 0718 13a6 9c60 0131 1969 d0ac
00000170: 2f44 d93d 123b 3630 252b 859e 5d07 0c32
00000180: c691 cdb0 c6aa e7af a343 d23e c452 0000
00000190: 2c6b d206 9474 053e 43c1 f2bb b2cb 3bbd
000001a0: 6f05 0080 016b ae3d 788d b0b6 df4c 39ae
000001b0: dfb4 c72f 19ce 24b4 b910 0080 ee31 3dad
000001c0: 3846 703e a067 b626 ab1e f0b3 d827 4035
000001d0: 71b5 3f30 c877 bb3c 3599 9c3e d0a7 bb3e
000001e0: dfef aa2b fc76 e632 d0c3 a130 6e50 39be
000001f0: 9509 4b35 e5de 67a9 a6e7 e6b9 34a4 bc26
00000200: 170e 18bb 6b87 82b8 d9e7 87bb d37c a1b9
00000210: 72cc b5ba 2108 1eb8 5ca0 a9b9 25ce 37b5
00000220: abd7 d2b7 2b08 b8b8 60a6 a3b5 7b1a 0fb3
00000230: a295 d9bb 892b fdb4 2c9e cbb5 98a4 5abc
00000240: 2b14 4cbd 8fcf 7c28 2b0f 43b5 de8d 0ebb
00000250: 69d0 b1b9 0a69 dcbd e307 49b6 549f 923c
00000260: 550b eab7 d57f bab4 8475 56bb 40be f4bc
00000270: 39f7 96be 7193 b7bc 4686 e9b4 b223 cbbb
00000280: bb39 53b8 b815 3bbb e48f 5fbd 5f08 9ab7
00000290: 2cb1 96b8 57f4 c83e 976d 64be f394 43be
000002a0: 082c f1bb 7a4d dbbe a565 adbd 9e12 04b7
000002b0: ff1d 81b7 d371 8ebd 955c e6bc 4f94 70b6
000002c0: f054 87bd c198 35bc e3f9 49ba 1e53 d6b9
000002d0: d035 84bc 360c 0bbe 93a1 1bbe 9de7 08bd
000002e0: 8631 06b7 5a68 83ba d1f0 58b5 0502 0dbe
000002f0: 5ac4 91ba 9412 95b3 f033 60bd 2de2 58b4
1.0487216e-21 -9.552412e-13 3.8706958e-11 1.1734088e-07 -2.902e-42 1.9505004e-09 3.3894233e-29 1.6890545e-14
7.471384e-11 -2.3006678e-13 4.1271627e-27 7.117275e-15 -2.3488502e-07 7.454643e-14 -2.0063278e-13 4.4480394e-14
9.1329486e-05 -1.7801552e-26 -3.4562278e-14 -6.0953344e-32 1.1836419e-18 -0.00027464703 1.2453434e-11 -0.044886913
4.056412e-21 -6.4017594e-15 -9.40014e-10 1.9968725e-12 -0.0152498735 4.700377e-10 1.3167678e-20 7.115941e-08
-3.617079e-09 -9.563612e-12 -0.003917123 5.0615e-41 1.8333793e-35 0.05195312 0.00014893078 -0.00038257983
-2.496e-42 0.012785687 -1.807618e-09 -3.17892e-11 -1.7999964e-10 -4.0975337e-08 1.892e-42 3.5012407e-12
-0.023361286 3.0636995e-14 5.0199343e-08 6.5878025e-10 -1.5306958e-10 -0.011002816 -0.023478102 -0.03522583
-1.4966067e-11 -7.496714e-08 -6.445232e-09 -0.1462692 1.6289391e-08 8.333277e-15 0.00020693346 -3.8197895e-15
5.19739e-22 1.6692221e-09 5.3548502e-11 2.597084e-08 -1.106e-42 -3.3305148e-10 -1.9880995e-21 -1.6446676e-15
-1.3630136e-10 2.158503e-12 1.5794363e-23 -1.643134e-14 -3.714251e-07 -1.08995366e-13 -5.8165175e-13 -3.4110108e-12
-0.0028315033 8.569529e-24 -2.2042982e-14 -1.523333e-31 3.0007894e-16 0.070026696 1.9086096e-12 0.27441025
2.995221e-20 -5.1033433e-16 1.8826887e-09 -5.9233837e-12 0.10608708 6.629516e-10 -1.4099767e-20 8.150747e-09
-1.4957144e-09 -4.2139997e-10 0.41067228 2.9691e-41 7.9150695e-35 0.13032752 -0.0074082925 -0.045848556
-1.949e-42 0.08516503 -5.261678e-06 -4.2132405e-11 3.6326406e-10 -1.5348668e-07 -5.999e-42 -1.0754493e-11
0.23464286 1.2656875e-15 -1.11814494e-07 7.1583554e-07 6.974324e-10 0.022884265 0.30585638 0.36651468
1.2145804e-12 2.6829632e-08 1.1769945e-09 -0.18097088 7.5637337e-07 -5.1485634e-14 -0.0004404161 1.3089628e-15
-0.0023201758 -6.2241066e-05 -0.0041475114 -0.00030801314 -0.0013870134 -3.7677706e-05 -0.0003235367 -6.847279e-07
-2.5134379e-05 -8.775325e-05 -1.2192868e-06 -3.3318866e-08 -0.006640152 -4.7156598e-07 -1.5170713e-06 -0.013344906
-0.04982392 1.4033817e-14 -7.2665233e-07 -0.002175204 -0.00033915348 -0.10762222 -2.9955925e-06 0.01789824
-2.790025e-05 -3.473821e-07 -0.0032723853 -0.029875875 -0.2948549 -0.022409173 -4.349733e-07 -0.0061993236
-5.0360086e-05 -0.002854688 -0.054580584 -1.8362129e-05 -7.185558e-05 0.39248917 -0.2230743 -0.19099788
-0.0073599853 -0.42832547 -0.08466653 -7.872148e-06 -1.5391966e-05 -0.06955304 -0.028120318 -3.5849114e-06
-0.066079974 -0.011083783 -0.00077047775 -0.00040879188 -0.016138941 -0.13578877 -0.15198354 -0.03342401
-7.998553e-06 -0.0010025606 -8.0816704e-07 -0.13770302 -0.0011121139 -6.9417325e-08 -0.05473703 -2.019885e-07
