graph_models/antagonist/ros/GCN.pth (torch, 47767 bytes, 9 tensors)

conv_layers.0.bias f4 [64]
0.046444364 0.031242775 0.047155242 0.02265513 0.04032425 0.07292325 0.044040073 0.10482686
-0.020860273 0.016499957 0.03305212 0.08176521 0.0088191945 0.08080912 0.05966455 0.07781594
0.05856017 0.04010203 -0.0071371295 0.05697624 0.062010728 0.02338018 -0.026881374 0.07184793
0.07655277 0.046110824 0.06352235 0.056660645 0.080349855 -0.010733204 0.021236017 0.058184844
0.053935286 0.02549639 0.054591488 0.008476356 -0.00634378 0.12189185 0.031172907 0.012707969
0.082989775 0.02312193 0.049737703 0.04404243 -0.00076594803 0.0508115 0.024269082 0.023292499
-0.0076131346 0.12602758 0.005355243 0.10036305 0.058319762 -0.008730339 0.06907444 0.0961982
0.07057441 0.053123757 0.043269247 0.02535553 0.00020067672 0.08375667 0.049404345 0.018017443
00000000: 723c 3e3d d9f0 ff3c db25 413d 4097 b93c
00000010: 0a2b 253d c958 953d 5d63 343d 77af d63d
00000020: 2ae3 aabc eb2a 873c a961 073d 8574 a73d
00000030: 627e 103c 407f a53d d162 743d f75d 9f3d
00000040: cadc 6f3d 0742 243d 95de e9bb eb5f 693d
00000050: f6fe 7d3d cb87 bf3c 5436 dcbc 0225 933d
00000060: b3c7 9c3d b4de 3c3d 0118 823d fe14 683d
00000070: 778e a43d 52da 2fbc 28f7 ad3c 3b53 6e3d
00000080: 3feb 5c3d cedd d03c 539b 5f3d 6ae0 0a3c
00000090: 7cdf cfbb 6fa2 f93d 535e ff3c 1635 503c
000000a0: 8bf6 a93d 346a bd3c c3b9 4b3d d665 343d
000000b0: e7c9 48ba b81f 503d f4cf c63c e9cf be3c
000000c0: 9a77 f9bb 600d 013e 097b af3b 258b cd3d
000000d0: b4e0 6e3d b209 0fbc e676 8d3d 9003 c53d
000000e0: 5189 903d 4c98 593d 183b 313d 67b6 cf3c
000000f0: bf6c 5239 9e88 ab3d 365c 4a3d 5199 933c

conv_layers.0.lin.weight f4 [64, 32]
-0.11236551 0.39647296 -0.17482457 -0.057723116 -0.7282935 0.20540501 0.15841527 0.4205539
-0.07808368 0.22932178 -0.13231869 0.40781203 0.099069625 0.054747187 0.39509857 0.1683769
0.07066171 2.86529e-40 -0.074499056 0.3464713 -0.116473146 0.100293666 5.29395e-40 9.3058e-40
-0.01922507 0.029443057 -0.08315343 -0.026731754 4.74527e-40 -8.88835e-40 -0.16619654 0.0071176467
0.19584823 -0.076293096 -0.28425857 -0.6021415 -0.050264195 0.46306807 -0.26409113 -0.13731053
0.40317503 1.1201967 0.09857902 0.14783466 0.22654076 -0.14770578 0.4385449 -0.037768435
-0.059064087 -5.3522e-40 -0.43487647 0.34080857 0.16401634 -0.4560484 1.519837e-39 -2.7407e-40
0.033205044 -0.17196932 0.10666236 -0.36420104 -8.82932e-40 7.92115e-40 -0.32157004 0.52759963
0.1123244 0.3812323 -0.13453697 0.15336628 -0.15889715 0.4258885 0.112594925 0.32889977
-0.03695846 0.602045 0.35271585 0.24010336 -0.19703472 0.1759725 0.37416586 -0.029550135
0.0015390959 -9.88514e-40 -0.07105802 0.42074937 -0.06399504 -0.21742299 4.45239e-40 -7.66928e-40
0.0049134702 0.12399545 0.012352983 -0.17133193 -7.13803e-40 -4.66746e-40 0.09892023 -0.012953971
0.3679055 -0.9733138 -0.3821606 0.41939443 0.64976543 -0.18321323 -0.18083677 0.7937386
-0.35169408 0.8136784 -1.0263343 -0.61480135 0.00503998 0.03173972 -0.023508327 0.0927906
-0.38654715 1.499908e-39 -0.07384846 -0.02158623 0.15644766 0.054041963 -8.06739e-40 7.63566e-40
0.33615947 -0.14144804 -0.5119379 0.0017625282 -4.63145e-40 -1.524383e-39 -1.1406281 0.43882856
0.015106374 -0.30457428 0.032104187 0.2698285 0.07883245 -0.23848748 0.41917947 0.022060584
-0.051303614 -0.13157487 -0.8160236 -0.42037827 0.07250441 0.17602919 0.08927146 -0.11864822
-0.056516476 8.49003e-40 0.40819278 -0.59702057 -0.091882296 0.01772425 -5.12337e-40 7.77058e-40
0.20778891 0.2839612 -0.35057724 -0.20983103 8.54166e-40 -2.0045e-40 -0.10870739 0.43034908
0.03433316 -0.20651264 0.3487704 0.230687 0.24520083 -1.1902082 -0.051414803 -0.52247685
-0.5015934 -0.7421496 0.37343144 -0.6347842 -0.070219375 -0.05446575 -0.14330903 -0.09308912
0.08113022 -5.4475e-41 0.10900439 -0.14123291 -0.37023565 0.33091748 1.719242e-39 9.84802e-40
0.11234451 0.030625008 -0.108549275 0.10534389 7.76871e-40 5.77053e-40 0.24726984 0.09346053
-0.14327067 0.10950638 -0.14090525 -0.2521649 -0.35210195 -0.58332515 0.38353664 0.3605524
-0.25046203 -0.48144746 -0.43583697 -0.013953872 0.057676535 -0.08228246 0.21072441 0.029907659
0.454882 -2.0174e-40 0.021475201 -0.031380136 0.0004086906 -0.34731787 -9.5651e-41 2.76675e-40
0.33068672 -0.43021366 -0.98779094 0.5877349 -8.42002e-40 3.24314e-40 0.27344012 0.09601199
0.3245593 -0.49119464 0.12729774 0.47829103 -0.3166952 0.0053157643 -0.05515894 0.19959027
0.2529183 0.51413953 0.0019028183 0.6104409 -0.012927297 -0.064478934 -0.019155914 0.091980375
0.15177317 1.9915e-41 -0.7724446 0.54825324 0.01858416 0.08767666 4.7717e-40 1.246821e-39
-0.09823322 0.12583676 0.09456033 -0.27064773 -5.98024e-40 1.377122e-39 0.6973489 -0.3078406
00000000: e31f e6bd 81fe ca3e 3605 33be 136f 6cbd
00000010: 7171 3abf b155 523e 9d37 223e d752 d73e
00000020: 56ea 9fbd 54d3 6a3e 8d7e 07be bdcc d03e
00000030: 04e5 ca3d 963e 603d 5c4a ca3e fe6a 2c3e
00000040: 16b7 903d ba1e 0300 f692 98bd b064 b13e
00000050: 7989 eebd c466 cd3d bdc3 0500 1422 0a00
00000060: e57d 9dbc 9132 f13c 584c aabd 8dfc dabc
00000070: ca2a 0500 b6ad 0980 6d2f 2abe 263b e93b
00000080: 708c 483e 8e3f 9cbd 578a 91be f225 1abf
00000090: d4e1 4dbd 4217 ed3e f436 87be 229b 0cbe
000000a0: f56c ce3e 9b62 8f3f cce3 c93d f861 173e
000000b0: 4dfa 673e 2f40 17be f588 e03e 13b3 1abd
000000c0: 2fed 71bd fad3 0580 21a8 debe 767e ae3e
000000d0: e6f3 273e 2d7f e9be b08c 1000 fffb 0280
000000e0: 0302 083d ba18 30be cc71 da3d 8f78 babe
000000f0: 419d 0980 18a0 0800 d4a4 a4be c510 073f
00000100: 560a e63d e130 c33e 0fc4 09be 0d0c 1d3e
00000110: efb5 22be 0f0e da3e 2b98 e63d 8d65 a83e
00000120: c161 17bd 9f1f 1a3f 2c97 b43e a8dd 753e
00000130: 78c3 49be 2332 343e ab92 bf3e 2013 f2bc
00000140: 7dbb c93a 93c3 0a80 de86 91bd 766c d73e
00000150: d50f 83bd 22a4 5ebe 25d9 0400 e259 0880
00000160: 2d01 a13b 54f1 fd3d 2a64 4a3c a371 2fbe
00000170: cbc5 0780 1915 0580 b196 ca3d e43c 54bc
00000180: 1c5e bc3e 182b 79bf 8eaa c3be deba d63e
00000190: 0757 263f 409c 3bbe 462d 39be 7432 4b3f
000001a0: 3f11 b4be 3a4d 503f ec5e 83bf 9f63 1dbf
000001b0: 6b26 a53b 8201 023d 8994 c0bc 0009 be3d
000001c0: 82e9 c5be 2255 1000 dd3d 97bd 9bd5 b0bc
000001d0: d133 203e 1b5b 5d3d dcc8 0880 8350 0800
000001e0: 181d ac3e c1d7 10be 5d0e 03bf a204 e73a
000001f0: 0f0b 0580 5c99 1080 1a00 92bf 23ae e03e
00000200: ba80 773c 29f1 9bbe ae7f 033d f626 8a3e
00000210: e872 a13d 1036 74be b19e d63e 66b8 b43c
00000220: bd23 52bd 90bb 06be ece6 50bf d23b d7be
00000230: 317d 943d ff40 343e f5d3 b63d d7fd f2bd
00000240: d27d 67bd ad3e 0900 a5fe d03e 57d6 18bf
00000250: c92c bcbd 7232 913c 3094 0580 1f76 0800
00000260: 9ec6 543e 5d63 913e dc7e b3be f2dd 56be
00000270: 114d 0900 c62e 0280 fba1 debd b756 dc3e
00000280: eda0 0c3d 0d78 53be 0992 b23e 3739 6c3e
00000290: ed15 7b3e be58 98bf 5498 52bd 0bc1 05bf
000002a0: 6d68 00bf 84fd 3dbf 6832 bf3e 3881 22bf
000002b0: 2dcf 8fbd 7a17 5fbd 9abf 12be 82a5 bebd
000002c0: 9a27 a63d db97 0080 b23d df3d 5c9f 10be
000002d0: 878f bdbe 046e a93e 8cb8 1200 3ab9 0a00
000002e0: e114 e63d 4ce1 fa3c 154f debd 8abe d73d
000002f0: 9a75 0800 9748 0600 4e34 7d3e 3c68 bf3d
00000300: 8cb5 12be e244 e03d 7749 10be c21b 81be
00000310: b546 b4be cc54 15bf ea5e c43e 539a b83e
00000320: 8f3c 80be 4880 f6be 0626 dfbe c89e 64bc
00000330: 3b3e 6c3d b583 a8bd 24c8 573e e800 f53c
00000340: 4be6 e83e 5e32 0280 c3ec af3c 7588 00bd
00000350: 8645 d639 a6d3 b1be a30a 0180 4203 0300
00000360: c54f a93e f744 dcbe dedf 7cbf cb75 163f
00000370: 292b 0980 0e88 0300 5800 8c3e efa1 c43d
00000380: a32c a63e dd7d fbbe 575a 023e 90e2 f43e
00000390: e025 a2be dd2f ae3b 57ee 61bd 6461 4c3e
000003a0: 827e 813e a69e 033f fd67 f93a db45 1c3f
000003b0: 03cd 53bc 880d 84bd ddec 9cbc 3560 bc3d
000003c0: 6d6a 1b3e 8437 0000 eebe 45bf 535a 0c3f
000003d0: cf3d 983c d28f b33d 2832 0500 a193 0d00
000003e0: 802e c9bd 5adb 003e d9a8 c13d 5792 8abe
000003f0: 0c83 0680 dbfe 0e00 7585 323f 489d 9dbe

conv_layers.1.bias f4 [64]
0.0031168226 -0.026975207 0.030557975 0.063650586 0.04951971 -0.048683148 0.032510318 -0.0042198636
0.04676806 0.035599384 -0.03389501 0.009218802 0.040572885 -0.04247366 -0.035080332 0.006562399
-0.012934988 -0.03879735 -0.03724301 0.014147544 0.010603422 0.01300097 -0.04419085 -0.09250973
-0.002209174 0.005113989 0.024213612 -0.004701504 0.08242977 -0.08388412 -0.0013038298 -0.049572404
-0.013589738 -0.031760003 0.0034140386 0.046780232 -0.020079194 -0.003590325 0.0017479344 -0.027290642
-0.007890607 -0.017910596 -0.01333125 -0.00848182 -0.004048907 -1.7404927e-12 0.07926651 0.011955675
-0.027445672 0.038558923 -0.039062478 -0.038560387 -0.014467025 -0.03784881 0.035660952 0.00642703
0.01298675 0.08259652 -0.02197925 0.034126364 0.011830468 0.005386879 0.012471697 0.028759995
00000000: 9b43 4c3b 1cfb dcbc b854 fa3c 3d5b 823d
00000010: 2ed5 4a3d fb67 47bd 8a29 053d c846 8abb
00000020: de8f 3f3d a9d0 113d 7ed5 0abd 750a 173c
00000030: c12f 263d dcf8 2dbd 65b0 0fbd 6509 d73b
00000040: 46ed 53bc f8e9 1ebd 208c 18bd 1acb 673c
00000050: fab9 2d3c 0502 553c 7701 35bd be75 bdbd
00000060: cac7 10bb 4093 a73b a05b c63c 130f 9abb
00000070: f0d0 a83d 70cb abbd 45e5 aaba 6f0c 4bbd
00000080: 7ea7 5ebc c716 02bd 10be 5f3b a19c 3f3d
00000090: 1f7d a4bc a84b 6bbb f21a e53a a090 dfbc
000000a0: 9b47 01bc 3eb9 92bc 516b 5abc 55f7 0abc
000000b0: b2ac 84bb dcf3 f4ab 7b56 a23d bce1 433c
000000c0: bfd5 e0bc f6ef 1d3d faff 1fbd 7ff1 1dbd
000000d0: 1a07 6dbc 5b07 1bbd 3811 123d d699 d23b
000000e0: 61c6 543c 5d28 a93d d40d b4bc 16c8 0b3d
000000f0: 94d4 413c 6b84 b03b 1756 4c3c 159a eb3c

conv_layers.1.lin.weight f4 [64, 64]
0.20487744 -0.12944473 0.1160797 -0.3181781 0.19110204 -0.047590416 0.28392458 0.09793247
-0.19582066 -0.11551608 0.059031423 -0.15280885 -0.0902836 -0.13160977 -0.03429031 -0.103304364
-0.042138316 -0.024903497 0.08109167 -0.6561044 0.16221628 -0.22548607 -0.16274925 -0.71910936
0.036304675 0.06289108 -0.14659679 -0.06169348 -0.101614244 -0.0043164855 -0.63965696 -0.3627497
0.18955587 0.21295895 0.07608653 -0.16629207 -0.029275369 -0.016177176 -0.28618094 0.03331339
0.19172351 -0.010398502 -0.08180979 -0.33904654 0.14833309 0.033133987 0.057340767 0.12077464
0.11070188 0.18242358 0.46281606 -0.0022453107 0.020228613 0.011426912 0.025383256 -0.2549197
0.2338328 -0.26240277 -0.24402763 -0.2819769 -8.1842165e-07 -0.027588032 0.14338225 -0.19356465
-0.12208517 -0.10573263 0.09248312 -0.17254366 -0.09577119 -0.03973312 -0.07601069 -0.38737118
-0.18796277 0.08666544 -0.098642804 -0.14242682 0.37945446 -0.663263 0.017202666 0.08228089
-0.14846404 0.29619876 0.33677703 0.015695943 0.018528093 -0.061275154 0.15594001 0.13718383
0.38494205 -0.12061093 0.42546284 0.2721739 0.35716963 -0.20130914 0.10497751 0.06044641
0.11515921 0.23940344 0.35579628 -0.45063412 0.026524425 -0.17700423 0.14230995 -0.15966521
0.301907 0.007533144 0.18806747 0.13817 0.12752135 0.43826893 0.17225912 0.107727714
0.14321093 -0.0537814 -0.09560143 0.30247152 0.001641362 0.04421346 0.038968522 -0.825557
-0.054168567 0.25684825 -0.37368223 -0.34845066 0.044092637 0.2943998 0.23392196 0.031672075
0.13315949 0.12556276 -0.081814595 0.052643433 -0.1592768 -0.22643907 -0.10722157 0.20988041
-0.24405806 -0.03292748 -0.18036215 -0.016607376 -0.07897378 0.15149176 0.25925815 -0.24497077
-0.31722108 -0.23095703 0.008892004 -0.7118635 -0.16017646 0.20219338 -0.12965328 -0.21589527
-0.27383515 -0.07536373 0.10746702 0.013996074 0.13210352 -0.011255647 -0.76327336 0.1510083
0.049671277 0.21646152 -0.007852458 -0.114268064 0.10661959 0.22197032 0.11704835 -0.33128992
0.025793076 -0.045248035 0.21691245 -0.3322638 -0.0031408276 -0.09811662 0.018683983 0.043209422
0.27997074 0.2453612 0.5882324 0.22574246 0.25177157 -0.324993 -0.03248013 -0.25989422
0.08338734 -0.31670377 0.1208657 -0.23010191 0.49458405 -0.24467964 0.1832767 -0.10060712
-0.14775889 -0.30554563 -0.36132437 -0.025280032 0.08960637 0.08960725 -0.8002657 -0.094906665
0.19361657 -0.24005659 -0.099789456 0.060956966 -0.07961804 0.16188274 -0.077616505 0.23914169
-0.34853405 0.3332654 0.08506394 0.18152742 0.27228147 -0.15358979 -0.06560462 0.36934373
-0.11210083 0.33639374 -0.085953996 -0.13485523 0.09868276 0.16039899 -0.100200966 -0.08928337
0.08800757 -0.15266418 0.0027936348 -1.1178811 -0.7197803 0.015697723 0.20058873 -0.13673759
-1.0134542 0.24510042 -0.5508091 0.08565626 -0.20432313 0.26593167 -0.20094827 -0.14249612
-0.4776736 -0.32895964 -0.5263889 -0.17435727 -0.045628842 0.283264 0.1363599 -0.037048515
-0.2342907 0.06438033 -0.27121845 0.118262246 -0.28063825 0.028418193 -0.0882824 -0.2616922
00000000: 64cb 513e 298d 04be 32bb ed3d 3de8 a2be
00000010: 41b0 433e 2bee 42bd 905e 913e d290 c83d
00000020: 3685 48be b293 ecbd efca 713d ec79 1cbe
00000030: 9ce6 b8bd b6c4 06be ff73 0cbd 3d91 d3bd
00000040: 3a99 2cbd 6b02 ccbc 6413 a63d 75f6 27bf
00000050: 061c 263e d2e5 66be bda7 26be 8d17 38bf
00000060: 36b4 143d 0acd 803d 781d 16be 4db2 7cbd
00000070: 211b d0bd 4e71 8dbb 8fc0 23bf 54ba b9be
00000080: ef1a 423e e911 5a3e 41d3 9b3d 7848 2abe
00000090: e6d2 efbc ff85 84bc 4f86 92be 9f73 083d
000000a0: 2b53 443e 7b5e 2abc e48b a7bd 8297 adbe
000000b0: a1e4 173e 81b7 073d 27de 6a3d b258 f73d
000000c0: abb7 e23d 3fcd 3a3e 3af6 ec3e 1026 13bb
000000d0: 7ab6 a53c f137 3b3c 8cf0 cf3c d684 82be
000000e0: de71 6f3e a859 86be 61e2 79be 475f 90be
000000f0: 82b1 5bb5 4c00 e2bc ccd2 123e d035 46be
00000100: ca07 fabd 598a d8bd ca67 bd3d 49af 30be
00000110: b023 c4bd 32bf 22bd 7eab 9bbd 8455 c6be
00000120: 5079 40be a67d b13d 3d05 cabd 56d8 11be
00000130: db47 c23e 9bcb 29bf 9bec 8c3c e282 a83d
00000140: f506 18be 5da7 973e 0a6e ac3e c794 803c
00000150: 3ac8 973c a8fb 7abd bdae 1f3e eb79 0c3e
00000160: 2017 c53e dd02 f7bd 44d6 d93e 615a 8b3e
00000170: f0de b63e fc23 4ebe 73fe d63d a896 773d
00000180: 98d8 eb3d 2d26 753e ee2a b63e 84b9 e6be
00000190: c049 d93c 9940 35be b3b9 113e 477f 23be
000001a0: 8e93 9a3e 98d8 f63b c294 403e 707c 0d3e
000001b0: f594 023e c964 e03e b264 303e 59a0 dc3d
000001c0: e3a5 123e e349 5cbd afca c3bd 8cdd 9a3e
000001d0: f822 d73a 2c19 353d 759d 1f3d b457 53bf
000001e0: dcdf 5dbd 9d81 833e 4753 bfbe 2068 b2be
000001f0: 7b9a 343d 92bb 963e 3d89 6f3e 94ba 013d
00000200: f65a 083e 8693 003e 698e a7bd a4a0 573d
00000210: 7519 23be a5df 67be fc96 dbbd e4ea 563e
00000220: 5bea 79be f7de 06bd dbb0 38be 310c 88bc
00000230: 01bd a1bd a820 1b3e 7cbd 843e 9ed9 7abe
00000240: cd6a a2be 0080 6cbe c5af 113c b03c 36bf
00000250: 4c05 24be c80b 4f3e d4c3 04be a613 5dbe
00000260: 1f34 8cbe 4d58 9abd ab17 dc3d ca4f 653c
00000270: 2546 073e 9b69 38bc e265 43bf eba1 1a3e
00000280: 1c74 4b3d 17a8 5d3e 99a7 00bc 6005 eabd
00000290: 5f5b da3d 304c 633e 0cb7 ef3d d59e a9be
000002a0: 004c d33c 0156 39bd 4c1e 5e3e 7b1e aabe
000002b0: 58d6 4dbb 5ef1 c8bd 270f 993c 5dfc 303d
000002c0: 5358 8f3e f73f 7b3e 6696 163f 0829 673e
000002d0: 34e8 803e 7c65 a6be e309 05bd db10 85be
000002e0: fbc6 aa3d ff26 a2be 7088 f73d d69f 6bbe
000002f0: 1f3a fd3e 4d8d 7abe e3ac 3b3e 1b0b cebd
00000300: 1b4e 17be 7a70 9cbe 82ff b8be 1218 cfbc
00000310: 8b83 b73d 0284 b73d 37de 4cbf 6d5e c2bd
00000320: 6c43 463e 65d1 75be 6a5e ccbd 03ae 793d
00000330: c80e a3bd 97c4 253e 67f5 9ebd 8fe1 743e
00000340: 0e73 b2be c3a1 aa3e 0136 ae3d 53e2 393e
00000350: 7a68 8b3e a446 1dbe b75b 86bd 9f1a bd3e
00000360: 1f95 e5bd cd3b ac3e a608 b0bd 7d17 0abe
00000370: 301a ca3d a23f 243e 2a36 cdbd 33da b6bd
00000380: 503d b43d 0054 1cbe 6a15 373b ba16 8fbf
00000390: 8643 38bf 8398 803c 2267 4d3e f004 0cbe
000003a0: deb8 81bf 9bfb 7a3e d301 0dbf 8d6c af3d
000003b0: 153a 51be 3228 883e 62c5 4dbe 81ea 11be
000003c0: a291 f4be 666d a8be 6cc1 06bf b68a 32be
000003d0: 4fe5 3abd fb07 913e eea1 0b3e 2fc0 17bd
000003e0: e7e9 6fbe d6d9 833d 25dd 8abe 7a33 f23d
000003f0: d1af 8fbe 45cd e83c 67cd b4bd 85fc 85be

edge_linear.weight f4 [64, 11]
-0.26180574 -0.10607477 0.039030645 -0.103607625 -0.0080216285 0.070302546 -0.20565799 7.71291e-40
-0.035843935 0.07487126 -1.010824e-39 -0.008255437 0.040713497 -0.051133763 -0.08744237 0.04367192
-0.043797024 -0.21534869 -1.433342e-39 0.059854135 0.0104696425 5.89473e-40 -0.063564606 -0.064192764
0.12276073 -0.14838286 0.119463876 -0.095875196 -0.22164981 4.58624e-40 0.19635719 0.12505347
3.69923e-40 0.041067917 -0.12610957 0.1010585 0.18212181 0.0054071364 -0.28009504 -0.15124705
-6.66207e-40 0.08655819 -0.043167543 -3.79347e-40 0.036820877 -0.112612344 -0.10476595 0.11333138
-0.39332208 0.0037559117 -0.2889559 1.698521e-39 -0.15202679 -0.028555881 -2.82154e-40 0.057753418
-0.066098526 -0.011757814 0.05703117 -0.25007552 -0.2427905 0.2505133 4.47327e-40 0.050619222
-0.03391848 5.75466e-40 -0.14967825 0.21202396 -0.1615312 0.23000985 0.13324673 0.2699991
-0.26713982 1.31271e-40 0.13914093 -0.10703241 8.76e-42 0.048263945 0.09811316 0.008557822
-0.25990006 -0.15742292 0.07295658 0.08064787 -7.14445e-40 0.0012965373 0.014843299 7.2189e-41
0.050390575 -0.20387916 0.15178476 0.25107613 -0.2526583 0.15945947 -0.24706303 1.98288e-40
0.16417365 0.122307755 -1.61201e-40 0.21194391 -0.12020437 0.048109815 -0.2877029 -0.26925153
0.21296541 0.12262989 -4.5974e-40 -0.15221168 -0.09733474 1.0954e-41 0.2336906 -0.12430863
0.0067130513 0.13599515 -0.21880753 0.12085648 -0.0021878814 5.25125e-40 0.034108855 -0.0820956
3.8725e-41 -0.2642562 -0.33025193 -0.047328573 0.11560935 0.001085711 0.124233074 -0.1873413
-8.6131e-41 -0.016900625 0.020840863 3.3677e-41 -0.13192037 -0.20582616 0.07500854 0.12136605
-0.10170488 0.1673301 -0.115443274 -1.40297e-40 -0.02678666 -0.10775794 -7.84118e-40 -0.08587225
-0.13489199 -0.076597 0.08656853 -0.119699895 -0.020650249 0.3051321 -5.96739e-40 0.07834415
-0.0254132 1.85912e-40 -0.02496793 -0.26688042 0.031058852 -0.0018003876 -0.26054415 0.24756812
-0.19202729 -2.09592e-40 -0.036166284 -0.061056785 7.0877e-40 -0.16176158 -0.2592106 0.018030802
0.071288966 -0.30482793 0.2350819 0.10975641 1.63724e-40 -0.0132522145 -0.009701982 9.7547e-40
-0.2617631 -0.04209226 0.096754104 0.123145446 -0.2348588 0.05638659 0.0031467252 8.72705e-40
-0.034943093 0.07113888 2.81647e-40 -0.06406702 -0.1784159 0.09848876 -0.25835672 0.24661455
-0.0938304 0.17225873 -1.027012e-39 -0.01316287 -0.04636562 7.49398e-40 0.03379794 -0.048775833
-0.07917838 0.2698152 -0.25374326 -0.031233713 -0.27075914 6.74627e-40 0.16815253 0.112579085
-1.40924e-40 -0.33009446 -0.1071134 -0.023290843 -0.09993134 0.1554061 -0.052142404 0.20216769
4.2965e-40 0.027432567 -0.0076882057 -5.34394e-40 0.15085904 0.20912068 0.013971801 -0.29860157
-0.14340106 -0.25741574 -0.026839443 1.274129e-39 -0.05964983 -0.005342973 -7.2311e-40 0.02734851
-0.12421922 0.12234576 0.005189162 -0.18084492 0.0016564829 0.057604082 2.25606e-40 -0.026783066
0.0134236915 1.60285e-40 0.0769532 0.18976878 0.03635038 0.19261402 0.0499787 -0.014827268
0.16399226 3.75112e-40 -0.079467095 0.03390543 -1.37647e-40 -0.01743094 0.10855339 -0.07956805
00000000: 670b 86be bb3d d9bd 99de 1f3d 3c30 d4bd
00000010: 266d 03bc c8fa 8f3d 0298 52be 0c66 0800
00000020: 17d1 12bd 1a56 993d c401 0b80 d041 07bc
00000030: 32c3 263d a371 51bd fc14 b3bd 54e1 323d
00000040: 8264 33bd 5e84 5cbe 939b 0f80 9c29 753d
00000050: dd88 2b3c 366b 0600 292e 82bd 7f77 83bd
00000060: fa69 fb3d adf1 17be 7aa9 f43d 375a c4bd
00000070: 2bf8 62be 75fe 0400 dc11 493e 040e 003e
00000080: 3207 0400 d536 283d de22 01be c2f7 ce3d
00000090: 247e 3a3e 592e b13b 9e68 8fbe 82e0 1abe
000000a0: 1d41 0780 6c45 b13d 73d0 30bd 7721 0480
000000b0: 7dd1 163d 4da1 e6bd 888f d6bd 481a e83d
000000c0: 8361 c9be be25 763b 07f2 93be c97e 1200
000000d0: e9ac 1bbe 06ee e9bc 8812 0380 d98e 6c3d
000000e0: aa5e 87bd d9a3 40bc 8499 693d e609 80be
000000f0: 139e 78be 4743 803e f7de 0400 1a56 4f3d
00000100: 1bee 0abd 2a44 0600 4145 19be cf1c 593e
00000110: 6f68 25be b487 6b3e d571 083e 523d 8a3e
00000120: 8dc6 88be ee6d 0100 f67a 0e3e cf33 dbbd
00000130: 6b18 0000 6ab0 453d 8def c83d 1b36 0c3c
00000140: 9f11 85be 7933 21be 426a 953d b62a a53d
00000150: 95c7 0780 93f0 a93a 4f31 733c 3cc9 0000
00000160: 5966 4e3d b3c5 50be 776d 1b3e 0d8d 803e
00000170: 6e5c 81be 5849 233e 17fe 7cbe bf28 0200
00000180: 231d 283e 7d7c fa3d 5dc1 0180 d307 593e
00000190: b52d f6bd cc0e 453d cb4d 93be 56db 89be
000001a0: 9b13 5a3e 6125 fb3d 9101 0580 61dd 1bbe
000001b0: 7057 c7bd 891e 0000 974c 6f3e 8695 febd
000001c0: 28f9 db3b 5042 0b3e 150f 60be 9a83 f73d
000001d0: 8f62 0fbb d6b7 0500 bab5 0b3d bd21 a8bd
000001e0: f36b 0000 974c 87be c816 a9be 9bdb 41bd
000001f0: 98c4 ec3d 6a4e 8e3a e96d fe3d 66d6 3fbe
00000200: 19f0 0080 2e73 8abc 75ba aa3c e15d 0000
00000210: 2216 07be 18c4 52be 149e 993d c38e f83d
00000220: a64a d0bd 9558 2b3e 866d ecbd 1787 0180
00000230: b36f dbbc 32b0 dcbd cd89 0880 cadd afbd
00000240: 2021 0abe e3de 9cbd d74a b13d 3825 f5bd
00000250: b62a a9bc 463a 9c3e 777f 0680 e672 a03d
00000260: 582f d0bc 3f06 0200 8b89 ccbc 8da4 88be
00000270: 226f fe3c fcfa ebba 0b66 85be 7f82 7d3e
00000280: cda2 44be 4248 0280 1923 14bd ae16 7abd
00000290: c3b7 0700 d4a4 25be 40b7 84be 55b5 933c
000002a0: f3ff 913d 6812 9cbe 4fb9 703e f8c7 e03d
000002b0: 65c8 0100 d11f 59bc 10f5 1ebc 379f 0a00
000002c0: d005 86be ef68 2cbd 0427 c63d ae33 fc3d
000002d0: d37e 70be a0f5 663d 4a39 4e3b bf80 0900
000002e0: 7d20 0fbd 43b1 913d 1e11 0300 9235 83bd
000002f0: a8b2 36be 7ab4 c93d 5547 84be 8688 7c3e
00000300: 272a c0bd 9864 303e e42e 0b80 14a9 57bc
00000310: e0e9 3dbd 0429 0800 b56f 0a3d 2bc9 47bd
00000320: 4628 a2bd 3825 8a3e a3ea 81be d8dd ffbc
00000330: f1a0 8abe 9658 0700 2d30 2c3e dd8f e63d
00000340: d788 0180 2402 a9be 455e dbbd 70cc bebc
00000350: cda8 ccbd c722 1f3e 4693 55bd 0c05 4f3e
00000360: b0ad 0400 43ba e03c 58ed fbbb acd1 0580
00000370: cb7a 1a3e bb23 563e fbe9 643c 4ee2 98be
00000380: bad7 12be ffcb 83be 64de dbbc c1df 0d00
00000390: 6153 74bd 1b14 afbb bddf 0780 fc09 e03c
000003a0: a566 febd 6a90 fa3d d909 aa3b 692f 39be
000003b0: 581e d93a 42f2 6b3d e674 0200 2968 dbbc
000003c0: 0bef 5b3c cfbe 0100 a499 9d3d bf52 423e
000003d0: 23e4 143d 9c3c 453e 77b6 4c3d 12ee 72bc
000003e0: 96ed 273e a915 0400 a5bf a2bd 6ce0 0a3d
000003f0: b47f 0180 55cb 8ebc 3d51 de3d 93f4 a2bd

edge_linear.bias f4 [64]
0.12307473 0.01740795 -0.014352927 -0.023803687 0.15238777 -0.10671772 -0.24825965 0.035872933
-0.12430319 -0.23128586 0.22119005 0.052400462 -0.18038192 -0.19778416 0.17781778 0.07228168
0.14351669 -0.29565063 -0.13955803 -0.05702135 -0.1761552 0.15909576 -0.3114474 -0.1372288
-0.017374408 -0.059203055 -0.15616505 0.15333594 0.14128959 -0.0017394848 0.15343732 -0.19157471
0.16002956 0.13653511 -0.12573479 -0.15597838 0.093789876 -0.08857096 0.0062130815 -0.20298013
-0.21862817 -0.09699851 0.09641481 0.21057925 -0.13509822 0.14829259 -0.25287464 -0.33266756
0.2091648 -0.17770766 0.16660894 -0.28768885 0.24667557 0.01713147 0.009785616 -0.1398464
0.019597195 -0.23799588 0.19687471 -0.31065682 0.10626213 0.17871566 0.2657994 -0.15193197
00000000: 9b0e fc3d 1e9b 8e3c 8a28 6bbc f3ff c2bc
00000010: 8a0b 1c3e d28e dabd c737 7ebe 7fef 123d
00000020: ac92 febd 33d6 6cbe a57f 623e dea1 563d
00000030: 0ab6 38be ee87 4abe dd15 363e 6b08 943d
00000040: 0af6 123e 855f 97be 4de8 0ebe 388f 69bd
00000050: 0762 34be 00ea 223e 0976 9fbe b585 0cbe
00000060: c654 8ebc e77e 72bd bbe9 1fbe 1904 1d3e
00000070: 38ae 103e 6dff e3ba ac1e 1d3e 292c 44be
00000080: cade 233e dccf 0b3e 9fc0 00be ccb8 1fbe
00000090: e814 c03d b164 b5bd 1b97 cb3b 06da 4fbe
000000a0: 10e0 5fbe 28a7 c6bd 2175 c53d 16a2 573e
000000b0: 3057 0abe 03da 173e c978 81be 6753 aabe
000000c0: 4c2f 563e fff8 35be 899b 2a3e f44b 93be
000000d0: 8598 7c3e 4c57 8c3c d953 203c e533 0fbe
000000e0: 4c8a a03c 31b5 73be 8699 493e 690e 9fbe
000000f0: f69f d93d 3d01 373e dc16 883e 0e94 1bbe

linear1.weight f4 [32, 128]
0.0014402586 -0.013674895 -0.002442473 -0.0068732104 -0.012672607 0.00047457375 -0.0038771722 -1.4641886e-07
-8.54041e-05 -0.000115585 -0.0043622763 -0.019436887 -0.009530376 -8.065113e-06 -0.009547234 9.095612e-05
5.21799e-05 0.00013295548 -0.0046304404 -0.006552475 5.931517e-05 -0.013302841 -0.00013866815 -0.0016523859
0.00083556905 -0.016110223 -0.0025095062 0.00029706646 -0.0020048155 -0.0104059335 -8.816091e-06 9.9757985e-05
0.00030900474 -0.016546307 -0.0076935356 0.004070585 -2.3803315e-05 -1.3996106e-06 -0.016021144 0.0003715299
-0.012916921 3.654184e-06 -0.014340144 -0.01456951 -0.0076801786 9.227499e-06 -0.0009258233 0.0027863851
-0.014996537 -0.014086511 -0.0030918566 -0.009260625 6.9870393e-06 -0.007856336 -0.012410543 0.00015609757
-0.00070940936 3.548432e-05 -0.013043996 -0.0050747325 -0.00981001 -0.0068997247 -0.0122431535 -0.012935386
-0.00022475912 -5.8705456e-05 0.00018183478 -0.00042040678 8.4157175e-05 6.694186e-05 0.00017579836 4.253796e-07
0.0019873078 2.2501887e-05 -4.4625336e-05 -0.0046447273 -0.0022719274 3.6105143e-06 0.00016347133 -0.000110897796
6.679216e-05 -0.0001518832 -0.0003676734 -2.0595704e-05 -9.089484e-06 -0.0016327966 -0.00057861704 0.00023203061
-0.00034853804 8.134572e-05 -1.6467953e-05 -3.7127167e-05 -0.00012732157 -0.00010991866 -2.6780224e-06 1.5499858e-05
0.0002634754 -0.005757465 0.0001716717 0.0022890694 -2.3317638e-05 7.06438e-07 0.00037866208 -0.0001788593
0.0003311642 0.00030109577 -0.0040458804 -0.003352246 -0.00011756499 1.0423927e-05 0.00021723995 -0.00043581295
0.000157734 0.000286393 -1.6431592e-05 -0.00018307412 7.8135445e-06 0.00047731478 0.00021399675 -0.00017948252
6.1188207e-06 -0.00054005324 -0.0030930506 -0.00028120243 -0.0010992698 -0.0008338012 -0.000780426 6.5684326e-05
-0.038776327 0.26844504 -0.18247542 0.16710682 -0.04797004 0.37859946 -0.13070853 0.027695462
0.3215297 0.17238368 -0.10871868 0.19545834 -0.10759257 -0.050805625 -0.09251279 -0.040299788
-0.5303931 0.1592601 0.067036405 -0.044159953 0.10018342 -0.0014968542 0.013531809 0.1750926
0.04855122 -0.2557451 0.08864117 0.13953424 0.16376372 -0.21549077 -0.004229589 0.41975197
-0.097607546 -0.16661859 0.077343844 -0.2381341 -0.04392312 -0.0019646224 -0.1346264 0.23095931
0.12410805 0.12697472 0.15445217 0.06336607 0.38522798 -0.024454607 0.3023106 0.013225705
-0.029279672 -0.13393866 -0.017327873 0.13329755 0.004494876 -0.04506424 0.29490343 0.016529346
0.25529504 0.11542148 -0.104233965 -0.057740863 -0.14505135 0.09154027 -0.03140695 0.27373573
0.11076794 -0.26024097 -0.10024382 0.10432667 0.13502054 0.24324603 0.26433098 -0.0016129601
0.1623071 -0.12668133 -0.051309887 -0.1534347 -0.8124909 0.020785127 -0.112072095 -0.008691978
-0.038665153 -0.033106375 0.04964504 -0.034219485 0.13037337 -0.18719445 -0.0068723825 -0.05175466
0.0031566352 -0.031221671 0.2630441 0.01952615 -0.06461645 -0.041181453 -0.007203554 0.01934563
-0.09584297 -0.09709471 -0.14528435 0.07195536 0.023967922 -0.0026978732 0.19992226 0.08219817
-0.031320263 -0.018619811 -0.15260337 -0.064835116 -0.02753675 -0.018129991 -0.2748556 0.28453356
-0.16029613 0.106679104 0.067362465 -0.21950419 -0.003274435 -0.037946813 0.018134221 0.37023726
-0.26390794 -0.020686125 -0.12331344 -0.12385911 -0.19101916 -0.15163243 -0.10902913 0.0021669185
00000000: 0fc7 bc3a ab0c 60bc e611 20bb ab38 e1bb
00000010: c4a0 4fbc 36d0 f839 2818 7ebb 4f37 1db4
00000020: fa1a b3b8 3966 f2b8 6df1 8ebb 1b3a 9fbc
00000030: 4b25 1cbc 664f 07b7 006c 1cbc b2bf be38
00000040: bedb 5a38 f769 0b39 f3ba 97bb 25b6 d6bb
00000050: 2ec9 7838 29f4 59bc 7367 11b9 df94 d8ba
00000060: 170a 5b3a 96f9 83bc 8776 24bb 96bf 9b39
00000070: 3963 03bb a67d 2abc d3e8 13b7 2935 d138
00000080: ea01 a239 1f8c 87bc 0e1a fcbb 8b62 853b
00000090: 3bad c7b7 41da bbb5 c63e 83bc e6c9 c239
000000a0: 7ea1 53bc 673a 7536 ecf2 6abc f4b4 6ebc
000000b0: 02aa fbbb cecf 1a37 f3b2 72ba c99b 363b
000000c0: 09b4 75bc 1ccb 66bc bfa0 4abb e0b9 17bc
000000d0: 3672 ea36 ddb7 00bc 9755 4bbc 1fae 2339
000000e0: a8f7 39ba 00d5 1438 7cb6 55bc f149 a6bb
000000f0: 2aba 20bc 1617 e2bb 8297 48bc f1ee 53bc
00000100: 51ad 6bb9 813a 76b8 e7aa 3e39 0b6a dcb9
00000110: 8a7d b038 2363 8c38 8356 3839 ba5f e434
00000120: 7e3d 023b 6fc2 bc37 172c 3bb8 cc32 98bb
00000130: 9ee4 14bb 2a4c 7236 8069 2b39 cd91 e8b8
00000140: c512 8c38 d642 1fb9 4ac4 c0b9 f0c4 acb7
00000150: 097f 18b7 9003 d6ba 55ae 17ba 3e4d 7339
00000160: fcbb b6b9 2798 aa38 a924 8ab7 feb8 1bb8
00000170: a081 05b9 2284 e6b8 13b8 33b6 b105 8237
00000180: 1223 8a39 1ea9 bcbb c502 3439 3604 163b
00000190: 3f9a c3b7 0da2 3d35 2a87 c639 2e8c 3bb9
000001a0: 1ba0 ad39 64dc 9d39 4e93 84bb 5bb1 5bbb
000001b0: 398d f6b8 6de2 2e37 e8ca 6339 d37d e4b9
000001c0: 6665 2539 0527 9639 93d6 89b7 96f7 3fb9
000001d0: eb16 0337 1b40 fa39 5164 6039 7933 3cb9
000001e0: 4550 cd36 5c92 0dba c7b4 4abb 5a6e 93b9
000001f0: 6015 90ba 7493 5aba 8195 4cba 01c0 8938
00000200: edd3 1ebd a171 893e d6da 3abe 0d1e 2b3e
00000210: 3c7c 44bd cad7 c13e 75d8 05be 98e1 e23c
00000220: 8a9f a43e 5985 303e e6a7 debd 3b26 483e
00000230: 7e59 dcbd 8f19 50bd 5877 bdbd 6411 25bd
00000240: d8c7 07bf 1415 233e 624a 893d 11e1 34bd
00000250: f72c cd3d 1832 c4ba 85b4 5d3c 794b 333e
00000260: a5dd 463d 06f1 82be 8089 b53d 10e2 0e3e
00000270: adb1 273e 9da9 5cbe 5d98 8abb bbe9 d63e
00000280: 77e6 c7bd 109e 2abe 7366 9e3d 6dd9 73be
00000290: bbe8 33bd e5c0 00bb 81db 09be 9980 6c3e
000002a0: 5c2c fe3d a905 023e b628 1e3e 12c6 813d
000002b0: 9a3c c53e 0755 c8bc 74c8 9a3e a1b0 583c
000002c0: ecdb efbc 3727 09be 2ff3 8dbc 277f 083e
000002d0: c149 933b 4895 38bd 95fd 963e 8d68 873c
000002e0: 08b6 823e 1962 ec3d 9e78 d5bd af81 6cbd
000002f0: 5788 14be 7779 bb3d 93a4 00bd 1727 8c3e
00000300: 4dda e23d 4e3e 85be a24c cdbd 39a9 d53d
00000310: d342 0a3e 7d15 793e 6456 873e f669 d3ba
00000320: d533 263e c0b8 01be 512a 52bd fc1d 1dbe
00000330: 67ff 4fbf 9245 aa3c 0e86 e5bd cc68 0ebc
00000340: 5a5f 1ebd 8d9a 07bd 9958 4b3d bb29 0cbd
00000350: 9980 053e e7af 3fbe b931 e1bb b2fc 53bd
00000360: 8ddf 4e3b 97c4 ffbc b7ad 863e 4ef5 9f3c
00000370: a155 84bd e2ad 28bd ca0b ecbb ba7a 9e3c
00000380: 5249 c4bd 97d9 c6bd 6cc5 14be 555d 933d
00000390: 6058 c43c cdce 30bb 6cb8 4c3e 8457 a83d
000003a0: ad49 00bd 9388 98bc 0f44 1cbe 46c8 84bd
000003b0: c094 e1bc 5985 94bc e0b9 8cbe 62ae 913e
000003c0: ab24 24be 937a da3d 55f5 893d b5c5 60be
000003d0: e797 56bb 1e6e 1bbd 388e 943c bd8f bd3e
000003e0: f11e 87be f375 a9bc c28b fcbd d8a9 fdbd
000003f0: 879a 43be 8845 1bbe aa4a dfbd dc02 0e3b

linear1.bias f4 [32]
-0.0013455118 0.019079193 -0.055545155 0.0036844574 -0.031540796 0.05667266 0.06505624 -9.358514e-06
0.04649227 -0.0070613706 0.06449141 0.015350652 0.01335445 -0.019962274 -0.09469027 -0.059829913
0.03768485 -1.1155257e-05 -0.011390417 -7.406756e-17 0.06285997 0.024106098 -0.00528672 -4.1990324e-06
-0.00300278 0.035844155 -1.0288215e-05 -0.018111968 -1.2659573e-12 -0.062463824 -0.026418634 -0.06408609
00000000: e25b b0ba f84b 9c3c 5183 63bd f076 713b
00000010: ec30 01bd 9721 683d 353c 853d 8302 1db7
00000020: ae6e 3e3d 1263 e7bb 1314 843d 4d81 7b3c
00000030: a0cc 5a3c ec87 a3bc f9ec c1bd 3610 75bd
00000040: 6e5b 1a3d 7727 3bb7 df9e 3abc c5c9 aaa4
00000050: babc 803d 277a c53c 393c adbb 6ae5 8cb6
00000060: 4aca 44bb 52d1 123d 8c9b 2cb7 8d5f 94bc
00000070: eb2a b2ab 11da 7fbd e46b d8bc 913f 83bd

linear2.weight f4 [1, 32]
-0.027517052 0.60791045 0.5149733 -1.0011557 0.5716821 -0.9346054 -1.2321136 -0.019968126
0.68769443 0.52349705 -0.9132958 -1.0979725 0.36189842 -0.01594127 0.66117257 -0.9124548
-0.29789922 5.58855e-40 0.030341048 1.1667789e-15 -0.9657099 -0.8800619 0.6733583 0.0013675815
-0.8816626 0.5840435 0.00043882252 -0.024823619 0.0030571017 0.64892644 -0.8858421 0.58919346
00000000: 716b e1bc 05a0 1b3f 4ad5 033f df25 80bf
00000010: c259 123f 4d42 6fbf e6b5 9dbf 3294 a3bc
00000020: be0c 303f e703 063f c1cd 69bf 5d8a 8cbf
00000030: c04a b93e 4497 82bc 9b42 293f a396 69bf
00000040: 3f86 98be dc15 0600 ca8d f83c 8b26 a826
00000050: c438 77bf bd4b 61bf 3661 2c3f 6c40 b33a
00000060: a4b4 61bf e083 153f c311 e639 e75a cbbc
00000070: a859 483b 0b20 263f 8cc6 62bf 62d5 163f
