graph_models/antagonist/ros/GIN.pth (torch, 50107 bytes, 11 tensors)

conv_layers.0.nn.weight f4 [64, 32]
00000000: 73f4 a0bd 7894 03be 1f9d a4bd 690e c83c
00000010: 615b c0bd 9512 ff3d c579 ed3d 2d9f 0c3e
00000020: 1ff9 3d3d 5467 99bc 3d1e 063e 3f61 6abd
00000030: fbda 043e 03bc 4e3e a39e 5abe 2166 8fbd
00000040: 2277 763d 5163 2fbe b647 233e 31eb 71be
00000050: 1c2c 0b3e 9f01 933d 5c7c 8ebd d83e 163f
00000060: b91e 443e 299d 4abd 0d50 093e 88db 883d
00000070: 2a40 8a3e a371 0dbe ffb1 43be 975a 383d
00000080: 5c26 67bb a121 28be 687a 943c f08e 263e
00000090: 71de 503e 63f4 93be 330e 053d 023a 343e
000000a0: f050 393d faeb f6bd 6abf 623e 5543 70bd
000000b0: 87e0 28be 276f cbbd af49 6dbe 6b56 133e
000000c0: a948 f53d 9db3 d03d 2511 af3b 68fc b13e
000000d0: fe27 0dbe c93f 0dbd c619 3abd 8a79 d9bd
000000e0: dda2 4d3e 53d4 5d3d 6bf3 f83d 43fc 5fbd
000000f0: 026b 50be df49 87be e0da 01be 4ce6 fabd
00000100: 0b46 5cbe 59ec 503e 83b1 223e 0ea6 5e3e
00000110: fa39 20be 0008 f43c 08ca 62be 2d65 ea3d
00000120: 205e f53c 745b aa3d 72aa 1abe a529 a0bd
00000130: c93c f73d a549 fb3d 8416 dd3e acb3 63bd
00000140: 76b7 10bd b57d 163e 8b69 ce3d a58e 74bc
00000150: 792e cabd 3dec fa3d 50c6 b53d b2c3 41be
00000160: 77d1 27bd 9542 1bbe 9408 34bd 7707 42bd
00000170: 0e49 063e 806d d33d 53c9 98bd 6951 593e
00000180: 29f9 1fbe 5694 57bd 1443 883e 514d 0d3e
00000190: e50d 36be a169 37be 2c1a 7f3e 286b 713e
000001a0: 5f37 50bd c335 933c 65f6 10be 2879 f73d
000001b0: 16ec e83d b048 2c3c 2cc8 cb3d f9f8 833e
000001c0: dd19 85be 55c6 a3bd 8afd af3d 0b0e ff3d
000001d0: 62b0 bbbd 5ee4 ba3d 3086 87be 2709 d9be
000001e0: 12ca 1a3e b4f1 03be 468f 85be 1562 b73d
000001f0: 7416 893e 620e 0b3e 7a77 c6bd fcfd 003e
00000200: 9396 7abb 482d 87bd 13e4 d93d c3fe a63d
00000210: 9102 e33c 0d2c d8bc 963f 6d3e 8810 cd3a
00000220: 672c b63d 7e49 a23d 908a 1f3e c8d9 2f3e
00000230: 4c57 1d3e 59b6 7ebe 98dd 743d e36c 1f3d
00000240: 74ec 2f3e c610 a53c 1c49 f23c 9666 443c
00000250: 6ae0 99bc 06ab babd d01f 16be f7eb 60be
00000260: 74ac 753e 9b5f bdbd e096 d03c 6f4e c2bd
00000270: 343d bc3e 09b9 91be 6b9e 2d3e 8059 20be
00000280: 48f4 b13d 5e4f 533e a2d5 d2bd 420d 61bd
00000290: fa47 37bf a251 d43e 75be 3dbe cff7 afbd
000002a0: f666 653e e82c 353e f58d 493d f511 eabd
000002b0: 5879 6cbd 12eb cfbd 1573 143f 1217 b03d
000002c0: 16ac fbbd 00e1 eabd f425 45bd 441d 8a3e
000002d0: 8fc3 0bbe 2930 c0bd 20bd c0bd 4485 84be
000002e0: b1a1 ed3d f84c cf3c 4ad3 31bd e0ff 663e
000002f0: 2bab 8c3e 4bd4 e73d 6e01 83be a510 983e
00000300: af23 353e fc1d f53d edec aebd 5623 423e
00000310: abd9 523e fcb5 49bb 5a3c 233c 0165 c4bd
00000320: b1c2 80bb 5593 28be 288a e93d 3176 48be
00000330: 01ce adbd 74f5 5a3d 7f00 a9be db5e 863e
00000340: 3df1 923d 59e8 883d de35 083e e6a7 83bc
00000350: 9e23 45be 3be2 483e efaf 16be 31db 143d
00000360: 9d88 943d df96 86be 7608 023e 8fba 413d
00000370: ed4c 353d cf8f e9bd 7634 79bd beb6 df3d
00000380: 9651 983c 59b7 7abe 95a9 323d e633 58be
00000390: 5e2d fa3d 836c 50be c061 c23c 71a1 4f3d
000003a0: ba96 a6be 20b0 b33d da66 4e3c 9a68 863e
000003b0: 482a 153e 87bd 33be 4ee7 913d a8f2 cd3c
000003c0: 43f7 313e a956 69be 9ff4 0c3d 5220 37be
000003d0: 317b 203e 9183 3ebc 844f cf3d 59d7 b2be
000003e0: da83 1bbd 5a2e ddbc 92f1 7b3e 94dd f8bd
000003f0: d287 58be 740b d0bd eba4 44be 79bd 79be
-0.07859125 -0.12849605 -0.08037781 0.024420934 -0.09392429 0.12454716 0.11595491 0.13732596
0.04638016 -0.018726029 0.13097472 -0.057221647 0.1297416 0.20188908 -0.21349578 -0.070019014
0.060172208 -0.1712773 0.15945324 -0.23624875 0.13591045 0.071780436 -0.069573134 0.5868964
0.19152345 -0.049466286 0.13409443 0.06682497 0.27002078 -0.1381288 -0.19110869 0.04500827
-0.0035270667 -0.16419078 0.018124774 0.16265464 0.20397355 -0.2889739 0.032484245 0.17600253
0.045243204 -0.12056728 0.22143331 -0.058657963 -0.164919 -0.0993331 -0.2317264 0.14388435
0.119767494 0.101905085 0.00534262 0.34762883 -0.13784787 -0.03448466 -0.045434736 -0.10618885
0.20081659 0.054157566 0.12155803 -0.054683935 -0.2035332 -0.26423547 -0.1268115 -0.12250957
-0.21511094 0.2040266 0.15888028 0.21743032 -0.15647116 0.029788971 -0.22147381 0.11445079
0.029952109 0.083182245 -0.15104082 -0.07820443 0.12072141 0.12269906 0.4318124 -0.05559127
-0.035331212 0.14696391 0.100787245 -0.014926587 -0.09872145 0.1225209 0.08875716 -0.18922308
-0.040971246 -0.15162118 -0.043953493 -0.0473704 0.13113806 0.1032362 -0.074602745 0.21222462
-0.15622391 -0.0526317 0.26613677 0.13799025 -0.17778738 -0.17911388 0.24912328 0.23576033
-0.050834056 0.017969972 -0.14156492 0.120836556 0.11373155 0.010515377 0.09950289 0.2577589
-0.25996295 -0.07996813 0.085932806 0.1245385 -0.09164502 0.09125589 -0.26469564 -0.42389795
0.15116146 -0.12885171 -0.2608587 0.089542545 0.26774943 0.13579705 -0.09690757 0.12596887
-0.0038236722 -0.066004336 0.10639205 0.08154061 0.027711185 -0.026388193 0.23168787 0.0015645185
0.08895188 0.07924174 0.15580201 0.1717292 0.15365332 -0.24874248 0.05978164 0.0389222
0.17180043 0.0201496 0.029575877 0.011987349 -0.018783767 -0.091146514 -0.14660573 -0.21965013
0.23991567 -0.09246751 0.025462568 -0.09487616 0.36765444 -0.28461483 0.16954963 -0.15659142
0.08689171 0.20635745 -0.102946535 -0.054944284 -0.715942 0.4146853 -0.18529685 -0.085921876
0.22402558 0.17692912 0.049207646 -0.11429206 -0.05773291 -0.10152258 0.579881 0.0859815
-0.12288682 -0.114686966 -0.048131898 0.26975453 -0.13648818 -0.09384186 -0.09411073 -0.25882924
0.11603106 0.025305256 -0.04341439 0.22558546 0.2747434 0.113197885 -0.25587028 0.297002
0.17689393 0.1196861 -0.08541284 0.18958792 0.20590846 -0.0030778637 0.009963119 -0.095895775
-0.003929459 -0.16462453 0.11403304 -0.19576336 -0.08486558 0.05345674 -0.3300819 0.26244244
0.07174919 0.06684942 0.13301799 -0.016071271 -0.19251868 0.1961755 -0.14715551 0.03634185
0.072526194 -0.2628698 0.1269854 0.047297057 0.044262815 -0.114043824 -0.060841046 0.10923527
0.01859359 -0.24484004 0.043618757 -0.21113548 0.12215684 -0.20353894 0.023728251 0.050691072
-0.3253687 0.087738276 0.012597764 0.2625168 0.1456691 -0.17552768 0.07124196 0.025140122
0.17379479 -0.22786964 0.034412976 -0.17883423 0.15671994 -0.011628048 0.10122588 -0.34929922
-0.03796754 -0.026999641 0.2460387 -0.12151638 -0.21145561 -0.101584345 -0.19203536 -0.24388684

conv_layers.0.nn.bias f4 [64]
00000000: 214d 26be 2d5a e4bd 3495 0dbe 0bd9 643d
00000010: 9c2f 73bd d853 423e ef07 9fbd 1273 34bd
00000020: c8be 0a3e f4de 33be bfa6 6c3d 6bb3 43be
00000030: a60c ccb9 7d31 ee3c 6138 f5bd 0815 843e
00000040: 31f4 ef3d 3209 863c 110a 27be 9406 04be
00000050: eda8 2a3e 86ca 72bd 5235 eb3d 646a a8bd
00000060: 8469 34be 4c90 81bc 8a26 53be f682 703d
00000070: e19d 673d 25fd 53bd 7f37 35bd 4268 cebc
00000080: 67e9 28be 57f1 44bd e4cd 6b3d 7365 5b3e
00000090: a8c3 cf3d 65f7 39be 04b6 573e c607 e13c
000000a0: 6997 c33d 1feb 563e 5fa2 8ebd 4082 2d3e
000000b0: b5bc adbd d429 973d de5b 913d a12f 07bc
000000c0: 5ccf f6bd f31e f2bd 5427 8c3a df8b f03c
000000d0: 795c bfbc 7d0e 43be eeb5 8abd b603 75bc
000000e0: b42e d3bc 9aad 2abe 6d07 20be ecd4 9a3d
000000f0: 6830 96bc c855 2bbd 9000 fabd 919f 153e
-0.1624036 -0.11150012 -0.13826448 0.05587105 -0.059371576 0.18977296 -0.07765185 -0.044055052
0.1354934 -0.17565519 0.05777621 -0.19111411 -0.00038919336 0.029076332 -0.11973644 0.25797296
0.11716498 0.016361807 -0.16312434 -0.12893134 0.16666003 -0.059275173 0.114847794 -0.082234174
-0.17618376 -0.015815876 -0.2062017 0.058718644 0.05654705 -0.05175509 -0.04424238 -0.025196198
-0.16495286 -0.048081722 0.0575694 0.21425419 0.1014474 -0.1816078 0.21065527 0.027469527
0.095503636 0.20988129 -0.069645636 0.16944218 -0.08483259 0.07381025 0.070976004 -0.008251102
-0.120512694 -0.11822309 0.0010692873 0.02936357 -0.023359524 -0.19048496 -0.067729816 -0.014954498
-0.025779106 -0.16667786 -0.15627833 0.07560143 -0.018333629 -0.041829854 -0.122071385 0.14611651

conv_layers.0.lin.weight f4 [32, 11]
00000000: 79c4 8a3e 593f f0bc 31bd e83d c43e 5c3e
00000010: c103 ccbe 78d7 6f3d 1714 653b a2c7 0000
00000020: 61e4 69be 4c78 de3e 6c73 0480 6546 f13d
00000030: cbf2 07be 22e1 7e3b f0f9 e2bc 3ed9 9a3e
00000040: 928f ad3d cf3e 163e c18e 0180 44d8 103f
00000050: e560 5dbe f6ca 0080 0bc6 6e3e a16f b3bd
00000060: 744b 383e bf56 003e 2094 96be 2aeb e43d
00000070: c513 e33d 9c98 0700 5773 f7bd 2105 163e
00000080: e14b 0080 f160 ff3d 49ac 983e 3c2b 57ba
00000090: acb8 d5bd 08f7 2f3e 9224 98be a609 833e
000000a0: 23d3 0480 bcdb f4bd 1fd2 0d3e 3d86 0600
000000b0: 1a57 5abd 01b7 353e 4215 c93d 2ba6 1bbd
000000c0: 31e0 59bf 73b2 6ebe 558d fc3d 4199 0280
000000d0: ced3 093e 59f6 99bd 8536 0600 f222 a83c
000000e0: 229b 883e ae88 aabd e31f 8e3e 025e 40be
000000f0: 1e34 df3d 6d1c 343e c697 0880 1098 563e
00000100: e720 77bd 6ecd 0780 1363 8cbb 0ed8 30bd
00000110: 600d 3c3e 7c9f 94bb 8f8c a5bc 1141 15bd
00000120: 80ff d33d 4bde 0200 bd12 0480 cd1d 0f80
00000130: 108f 0780 0968 793e f653 8dbd 48c4 c43d
00000140: 027b af3b 6248 343e 5769 073e 75f8 183e
00000150: 4437 0880 3a69 5c3e 8921 59bd 752c 0300
00000160: 044b bf3d 239f 89bd 4d27 4cbd 8b42 0180
00000170: 8354 1ebe ac3a 68be 89eb 853e 73a9 0700
00000180: 5a88 0500 756f f809 e21e 0200 8ade c93d
00000190: f67c c33d ab18 f0bc c394 52be ce1c d1be
000001a0: a558 9f3e 897b 893e aa89 0d80 29b9 eb3e
000001b0: c1ec 7f3e 690f 0500 c62a 9f3e 27fb c9be
000001c0: a621 01be 2dd0 eabc a15b 773e d8c8 dbba
000001d0: e747 1d3e 42fc 0680 b9dd e6bb 481b 0300
000001e0: afc1 0500 4d29 12be 3653 b1bd 1d81 433f
000001f0: 40fa 22be c853 a63e d57d 813b c7d5 d6bd
00000200: dce5 0480 8d87 60bd f819 063e 2d5b 0800
00000210: 8441 06bd 8bc3 db3e 761a b5bd 36a1 89bc
00000220: aa46 493d af01 c63d 0be4 fe3d ab30 0100
00000230: 2f06 bf3e 3235 9bbe d1f4 0580 9848 183e
00000240: 0035 93be be2e 393e ca21 0600 acd8 98bc
00000250: e861 7abe 0ac4 7cbc d183 0b00 9189 af1e
00000260: 2f6e 0800 8dbc 0180 8c45 8c3e 4bbc 7d3e
00000270: 422c 0480 978e 49be 62a9 0a3e 27ac 7cbd
00000280: 5344 bfbd 0a5f 0b80 42fd ff3e 26ca 1fbe
00000290: d53c 0800 cebf 153d 0053 2fbd a926 a83e
000002a0: dee3 143e 49de 143e d6e4 25be 1edb 24bd
000002b0: a395 0700 bed6 d03d 8850 0780 94c3 0500
000002c0: 8f99 fcbd 4da8 e8be a6bb 29be 7aa0 0f3e
000002d0: 4610 ecbb 3841 f83d 4582 58be 6174 0080
000002e0: 0004 a83d 4d9c c2bd 2bc3 0780 0274 353e
000002f0: a235 e7bd 2eb0 0780 4d55 1a3e 5516 443e
00000300: 59a6 52be 2c8a 41be 55aa 0480 5401 ebbc
00000310: 61e5 c23d d441 0200 81a9 363e 9732 4abe
00000320: 7700 953d 0e91 4e3e 635b 1d3e 7921 b13d
00000330: 69da 443c fb8f 0c80 9922 8e3e 9d6a ea3d
00000340: b40f 0100 477a 2dbc e6e1 adbd 806e bf3e
00000350: a53c 423e 9e7e 783d efb8 1dbe 66b0 843e
00000360: 1a85 0400 5ac3 803e 8f90 8cbd 751c 0700
00000370: c65f 883e 3628 2ebe 1a08 16bd 92b4 223d
00000380: 9506 12be 6e60 913e 2494 66be 906c 0200
00000390: c0b4 1d3e 920b e83d fc7c 1480 777a a7be
000003a0: 587f 6abd 863f d6bd 7396 29be ed9d efbc
000003b0: ad69 783e 2d9a f33d 61c6 0300 0069 0abd
000003c0: f084 46be 16d2 0480 e80a 6cbe f76f 943d
000003d0: b5a0 f13e 0ad8 753e 7f79 99bd 014d 7c3e
000003e0: 1c6f 2e3e 6ed4 0280 c558 233e 29e8 ea3d
000003f0: 12f9 0180 b280 0000 775d ad3e f58c 0500
0.27103022 -0.029327082 0.113642104 0.21508318 -0.39846614 0.058555096 0.0034954601 7.1615e-41
-0.22841026 0.43451154 -4.08748e-40 0.11781005 -0.13276212 0.0038891514 -0.02770707 0.30243868
0.084746495 0.14672397 -1.43046e-40 0.56579995 -0.21618994 -7.2809e-41 0.23317735 -0.08761526
0.17997533 0.12533091 -0.29409885 0.111776665 0.11087755 6.97594e-40 -0.12082546 0.14650394
-2.722e-41 0.12469662 0.29818943 -0.00082080415 -0.10435614 0.17184079 -0.297154 0.255933
-4.43084e-40 -0.119559735 0.13849686 5.99169e-40 -0.053305723 0.17745592 0.09818508 -0.038000267
-0.85107714 -0.2331026 0.123316444 -2.38648e-40 0.13459703 -0.0751769 5.70571e-40 0.020524476
0.26680857 -0.08326851 0.27758703 -0.18785861 0.108986124 0.17588969 -7.8913e-40 0.20956445
-0.060334112 -7.16543e-40 -0.0042842715 -0.043174796 0.18364477 -0.0045356136 -0.020208625 -0.036439005
0.10351467 2.63415e-40 -3.74064e-40 -1.388223e-39 -6.9417e-40 0.24356093 -0.0690078 0.0960775
0.00535524 0.17605737 0.13223778 0.14938529 -7.5451e-40 0.21524516 -0.053010497 2.91455e-40
0.0934048 -0.06719806 -0.049842168 -1.15707e-40 -0.15461926 -0.22678632 0.26156262 7.03635e-40
5.08091e-40 5.9808642e-33 1.9475e-40 0.09856899 0.09545319 -0.029308638 -0.2056456 -0.4084229
0.31122318 0.26852062 -1.243246e-39 0.46039703 0.24992658 4.64706e-40 0.3108732 -0.39449427
-0.12610492 -0.02866372 0.24156047 -0.001676823 0.1535946 -6.41506e-40 -0.0070454744 2.85293e-40
5.28658e-40 -0.14273567 -0.08658449 0.76368886 -0.15915775 0.32485795 0.003951768 -0.104899935
-4.498e-40 -0.05481677 0.13095844 7.67392e-40 -0.032777324 0.42922625 -0.08842938 -0.016800504
0.049139656 0.0966829 0.124458395 1.09294e-40 0.37309405 -0.30314022 -5.47001e-40 0.14871442
-0.28751373 0.18084237 5.63134e-40 -0.018658005 -0.24451411 -0.015427599 1.057477e-39 1.8585742e-20
7.7421e-40 -1.59475e-40 0.2739681 0.2477886 -3.83219e-40 -0.196833 0.13541177 -0.061687615
-0.09339204 -1.044284e-39 0.49997908 -0.15604457 7.56506e-40 0.036559872 -0.042803764 0.32841995
0.1454005 0.1453792 -0.16200575 -0.04024803 6.96528e-40 0.10197209 -6.71738e-40 5.29338e-40
-0.123339765 -0.45440903 -0.16575488 0.1402606 -0.0072040884 0.121218145 -0.21143444 -4.1749e-41
0.08203888 -0.09502468 -7.12862e-40 0.17720035 -0.112895265 -7.0605e-40 0.15071602 0.19149144
-0.20571269 -0.18900365 -4.28446e-40 -0.028687157 0.09516407 2.07286e-40 0.17838098 -0.19745861
0.07275479 0.20172521 0.15366893 0.086489625 0.012014964 -1.153676e-39 0.2776077 0.11446116
9.7469e-41 -0.010588235 -0.08490352 0.37388992 0.18968447 0.060667627 -0.15402578 0.2591583
4.1509e-40 0.2514904 -0.0686351 6.53057e-40 0.2663557 -0.17007527 -0.03662882 0.039722987
-0.14260323 0.28393883 -0.22517449 2.22616e-40 0.15400982 0.11330332 -1.881546e-39 -0.3271062
-0.05725035 -0.10461335 -0.16561298 -0.02925011 0.24259062 0.11894641 3.46671e-40 -0.033791542
-0.19386649 -4.42707e-40 -0.23051035 0.07247918 0.47192922 0.24008194 -0.07493877 0.2463875
0.17034572 -2.59876e-40 0.15951832 0.11470062 -1.81185e-40 4.6167e-41 0.3386037 5.09743e-40

conv_layers.0.lin.bias f4 [32]
00000000: 0230 cb3c 6589 8bbe 1f8c 883e 974c 40be
00000010: 1ab4 a2bd 3d82 5fbe 4ee7 d0bd a11a 353e
00000020: 3794 5fbe 767d 72bc fec2 33bd 9b11 703e
00000030: c866 3fbe 83cc 593d 9014 03be 4b15 b0bb
00000040: 2e20 7a3e a8f7 e9b9 ab2a a53d 5303 cebd
00000050: 73b5 37bd 7155 523e 0a8f 4ebe 6378 323c
00000060: 2bb9 55bd f787 60bd bf9b a9bd 4748 42be
00000070: afd7 923e d60c 39bd 744d 30be 8620 143e
0.024803165 -0.2725326 0.26669404 -0.18779217 -0.07944508 -0.21827026 -0.10200368 0.1768594
-0.21833883 -0.01480042 -0.04388713 0.23444216 -0.18691552 0.053173553 -0.12800813 -0.005373632
0.24426338 -0.0004462574 0.08064779 -0.10059228 -0.044850778 0.20540406 -0.20171753 0.01089296
-0.052178543 -0.054817166 -0.08281659 -0.18972884 0.2868018 -0.045178257 -0.17217046 0.14465532

conv_layers.1.nn.weight f4 [64, 64]
00000000: dcb5 653b 35bc 3a3d 3e51 c4bd d1a9 253d
00000010: a0df b73d 5b69 18bd 9d01 0ebe 40c3 cb3d
00000020: a8a7 453e 3817 1bbc cddf 65bd 0f9a 35bd
00000030: 2873 003d e7a4 fe3d 5cf7 303d 4ca7 613d
00000040: d504 c8bd 8b47 503d a0bf 1a3e 3b98 c7be
00000050: c6ac 1f3e 073e 32bb a0fe 553d c5da 693d
00000060: 633d 28be a046 c9bc 7a6d c4bb 5682 b93d
00000070: d62d 17bc c5df 58be 04c4 cebc d278 82bc
00000080: 23f8 8fbe 92ef 483e 26f9 dabc bceb 8a3d
00000090: dabb 153d 8bdc 5e3e 3879 113e 5c4d aa3d
000000a0: aefa b3bd 901b 3f3e ff6f 1d3e 6b6f a43d
000000b0: fd18 69bd d40e 6f3c c310 a43d 776c 37bc
000000c0: a123 8d3e 9003 5e3d e7d9 9c3d dd36 743d
000000d0: ac46 a53d acea 31be abde c9bd 4a8c 9cbd
000000e0: 020f c1bd 1105 973d a9d9 083d 08e3 e4bb
000000f0: 36b5 41be 15ae 23bd 5503 763e 1d06 19bd
00000100: 5727 76be 5ca5 483e 9fe5 b53d dc15 debd
00000110: cf25 073b eaf4 033d 97bd 96be 4106 d5bd
00000120: fb9f 3ebe f8c8 58bc 964e b83d a1b4 c7bd
00000130: e052 78bd 2fea d6bc 6b9a be3e ede8 ffbe
00000140: 77aa 723b 1f1a a9bb abd1 91bc ac95 2c3e
00000150: 61dc 263e c840 893d c1b9 e7bd 9371 ee3d
00000160: 7cb6 12be 5595 9d3b cb77 c5bd 8277 323d
00000170: 0e56 813d d812 18be 7e16 87bd e6f1 8c3d
00000180: ed5d 8dbe 0d15 92bc 0bda 133e 8023 f8bd
00000190: 9e03 47bd f475 213d d423 7dbc 591c 38be
000001a0: ad00 073d 93e8 123b 7287 08be eed1 8cb9
000001b0: f504 42be f98d f6be 5bcd 1c3e 0c6d 283d
000001c0: 735e 153e 48e9 a03c 610f 1fbe e2d2 3c3d
000001d0: e654 e2bd 3ae2 47bd 1fa6 213d a952 bdbe
000001e0: e83e 1a3e 0cd5 5a3e abcc 9cbd 21de a5bd
000001f0: 0df1 0d3d 9695 10be e1d1 113f b12f 303d
00000200: e505 2c3e 8db2 35bd 6771 d63c ecf9 773c
00000210: cd5c 063e 2aaa be3c 996a 8a3c 9db3 d8bc
00000220: e1ae 983d 009b 10be 9088 f73d ebd2 dabb
00000230: 4ba6 2dbe 5d6c 05bd 899a 37bf c642 afbd
00000240: 04e0 a3bd 7b26 85be c152 80bd 178d a6bd
00000250: 06f6 90bc 1693 543e 54be 9bbd d5a1 2dbe
00000260: 5707 0bbe 20a9 103e f573 b63b f00f 8d3e
00000270: 082e cbbc f627 a3bc 4500 97bc 0d8d 533e
00000280: b173 28bf e186 7ebe c785 33be e993 4d3d
00000290: 5526 cabd ea00 f5bc 33f8 eb3d d404 e5bc
000002a0: a947 bb3c 765b 8bbe 67cc e7bb 9078 733d
000002b0: f706 bd3d 1f5a 663e 5a48 bdbd 12e9 f23d
000002c0: 0dd1 e43d 2239 eb3d ec28 283d a7c0 bcbd
000002d0: 1021 833d 3883 7bbe c503 d93d d5cc b3bd
000002e0: 81dc 1f3e dd23 123e 75e5 c33d ba4c 6cbc
000002f0: 6adf 473e 1c11 1c3d 8f52 9e3d 766f ffbd
00000300: 48e5 45be d866 b53d 7844 2a3e 2685 243e
00000310: 6305 23be 4272 b83d 0c67 c2bd 870e d4bd
00000320: 7d3a 383d c41c d2bd d171 0fbe 4c8d 87bd
00000330: 031c 773d 5f62 52bd d542 11bd 9476 ed3d
00000340: c843 43bd 1503 e23d a4d1 2dbe 4690 823e
00000350: 21f2 8e3c 5bea 223e e2df 4abc 9e81 193e
00000360: f2ee a5be a7cf 0fbe 2dc9 d7bc 8276 2dbe
00000370: 823d 29bd 42f2 8a3d c43f ecbd c9bf 0c3e
00000380: 79d0 b93e db1b 38be f519 213e 09b4 8d3d
00000390: dee9 9cbd 0ce2 70bd f3da 83be cc4b b63d
000003a0: f29a 15be 2339 d53d 9b88 6ebe 419f c23d
000003b0: 7b09 67bd 8507 8f3e d435 b43d 1307 043e
000003c0: f5e8 cd3d 2a32 f23d afb0 32be ef44 ac3d
000003d0: b9d8 c7bc da8c 503e d877 74be 2abd b6bd
000003e0: f175 d8bd 0eda a6bd 2543 05bd 6a85 2abe
000003f0: 6bc8 093f b487 6c3e 7196 2fbf 1d4c 183d
0.0035051024 0.045589644 -0.09585808 0.040445153 0.089782 -0.03720985 -0.13867803 0.0994935
0.19302237 -0.009465985 -0.056121636 -0.044336375 0.03135982 0.124337964 0.04320465 0.055091187
-0.09766547 0.05084948 0.15112162 -0.3898333 0.15593252 -0.0027197616 0.052244782 0.0570934
-0.16429667 -0.02456981 -0.005994496 0.09058063 -0.009227237 -0.21179111 -0.025239952 -0.015926752
-0.28119 0.19622639 -0.026730131 0.06783244 0.036556102 0.21763818 0.14206398 0.083155364
-0.08788048 0.18662858 0.15374754 0.08029064 -0.056908596 0.014590938 0.080110095 -0.011195294
0.27566245 0.054202616 0.07658749 0.059622634 0.0807012 -0.17374676 -0.09856924 -0.076439455
-0.09426691 0.07374013 0.033410702 -0.006985072 -0.18916783 -0.03996094 0.24024709 -0.037359346
-0.24038444 0.1959433 0.088816874 -0.10844013 0.00206219 0.03221599 -0.2944152 -0.104015835
-0.18615715 -0.013231508 0.08999364 -0.09751249 -0.06062591 -0.026234714 0.37227187 -0.49982396
0.0037027874 -0.0051605846 -0.017800173 0.1685397 0.16295005 0.06701809 -0.113147266 0.11642756
-0.14327425 0.0048090615 -0.09641989 0.043571003 0.06315242 -0.14850938 -0.06596087 0.06882076
-0.27610722 -0.017832303 0.14438646 -0.12116146 -0.048587434 0.03941913 -0.015450437 -0.17979564
0.03295963 0.0022416457 -0.13332918 -0.0002685929 -0.18947203 -0.48155192 0.15312712 0.04111962
0.14586811 0.019642487 -0.1553321 0.04609955 -0.11051349 -0.04879973 0.039465066 -0.36977127
0.1506306 0.21370333 -0.07656225 -0.08099008 0.034653712 -0.14119563 0.56960875 0.043014232
0.16799124 -0.044359732 0.026177121 0.01513527 0.13121338 0.0232745 0.016896533 -0.026452834
0.074552305 -0.14121628 0.12086594 -0.0066779754 -0.16957967 -0.032574046 -0.71720177 -0.08557658
-0.08001712 -0.2600592 -0.06265784 -0.081323795 -0.017695438 0.20759234 -0.076046616 -0.16956265
-0.13577019 0.14127016 0.0055680224 0.27551222 -0.024802223 -0.019916516 -0.018432746 0.20659275
-0.6580153 -0.2485614 -0.17531501 0.050189886 -0.098705925 -0.029907662 0.115219496 -0.027956404
0.022861319 -0.27218217 -0.007073927 0.05944115 0.09229844 0.22495316 -0.092423156 0.11860861
0.11172686 0.114855066 0.04105465 -0.09216433 0.064027905 -0.24561775 0.10596422 -0.08779303
0.1561146 0.14271493 0.0956525 -0.01442259 0.1951882 0.038102254 0.077305906 -0.12472431
-0.19325745 0.088575065 0.16627681 0.16066417 -0.15920024 0.09006168 -0.09492311 -0.10354333
0.044977654 -0.10259393 -0.14008261 -0.06618747 0.06032945 -0.051363345 -0.035464127 0.115948826
-0.047672063 0.11035744 -0.16974503 0.25500697 0.01744944 0.15909712 -0.012382479 0.14990851
-0.32408863 -0.14044057 -0.026341045 -0.16939738 -0.041318424 0.06784488 -0.115356 0.13745035
0.36291865 -0.17979376 0.15732558 0.069191046 -0.07661794 -0.058809325 -0.25752982 0.08901176
-0.14609888 0.104112886 -0.23294298 0.095030315 -0.056405526 0.27935424 0.087993294 0.12893324
0.10054199 0.11825974 -0.17450212 0.084115855 -0.024395334 0.2036623 -0.23873842 -0.08922799
-0.105693705 -0.081470594 -0.032534737 -0.16652456 0.5382144 0.23098642 -0.6858893 0.037181962

conv_layers.1.nn.bias f4 [64]
00000000: 16e9 9e3b 5d89 3e3d 3a39 44be 60d4 423e
00000010: c9bc fdbd 055f 8fbc 89d9 73bd 3a7d 883e
00000020: 3473 0500 a58b 353e 28be 9f3a a6dc f0bc
00000030: 34d1 5ebd 165e 84bc 5289 53bd 95df c5bc
00000040: 8523 543c 0e89 703b 3453 54bd fb2b 14be
00000050: cb90 83bd 308f 0200 da1a cebc c2d0 2dbe
00000060: 87ba 35bd 45a5 fc3d 2d02 073d d248 1a3e
00000070: 3805 21bb 1468 873c eaff acbd a937 c23d
00000080: 65c9 a0bd d7f0 c4bc d8e8 633e 62a2 b5bd
00000090: b7f3 c63d d373 013d 9dfd 813d f7e1 6c3d
000000a0: 9c8b 573b 308e a73d e4d4 79bd 661f 103b
000000b0: 38bf 10bc 962b 11ba fbfc 033e 6f52 0080
000000c0: dfa6 8eba ef65 733a cb42 4f3e 90ca eb3c
000000d0: 5bcf 11be 383f 8bbd 18d6 7eb7 6eb7 da3d
000000e0: 1d77 db3c 03fd b2bd d72f 14b9 9d92 563d
000000f0: 279e d13c 25a5 093e 03b7 873d fdf3 69bc
0.0048495634 0.04651772 -0.19162455 0.19026327 -0.123895235 -0.017501364 -0.05953363 0.2665804
5.00505e-40 0.17729051 0.0012187408 -0.029402088 -0.05439873 -0.016158145 -0.05164463 -0.024154464
0.012947922 0.0036702785 -0.05183716 -0.14469902 -0.064241014 2.35037e-40 -0.025159288 -0.16974166
-0.04436734 0.1233621 0.03296106 0.15066841 -0.002456976 0.01652912 -0.08447249 0.094832726
-0.07850913 -0.024040623 0.22256792 -0.08868863 0.09714454 0.0316046 0.06347201 0.057832684
0.003288961 0.08181417 -0.060994044 0.0021991371 -0.008834653 -0.0005537806 0.12889473 -2.9572e-41
-0.0010883472 0.00092849036 0.20240323 0.028783113 -0.14239256 -0.067991674 -1.5189427e-05 0.10679518
0.026790196 -0.087396644 -0.00014132202 0.052385915 0.025588108 0.13441904 0.066267036 -0.014279363

conv_layers.1.lin.weight f4 [64, 11]
00000000: 87fb fd3d 2fc4 953e ec69 143b 5652 8dbe
00000010: f0a9 9fbd 836c 06bf 78a6 6b3a 1d63 0700
00000020: 3e5d d7bd 14a8 58bd 4e56 1080 6279 3fbe
00000030: 3e77 1bb9 006c 86be 59b7 b8bd 5716 babd
00000040: 0ab3 c3bd 5306 493e 7034 0700 68cd b73d
00000050: d790 e13d d9e0 0980 4b58 67be 4239 103e
00000060: cd86 58be 4ca8 2f3e f615 9cbe 0c57 4b3c
00000070: 5c72 a93d 56b2 0700 f6e1 a83c d8da 1fbe
00000080: 5dce 0600 9e0b 733e 8b25 13be d953 ddbd
00000090: 91ba 333e 5736 833e 8c70 8ebe 99cb b7be
000000a0: a4bb 0580 816e 103e 6073 d2be 63ef 0a80
000000b0: ea7a 9b3d 92a5 babe 8a42 9ebe afb9 143c
000000c0: 3447 6cbe 8377 fd3d f5f6 833e 8f6d 0800
000000d0: e47c 20bd dbed 903c 939e 0400 795b 53bd
000000e0: 5e91 0f3e 2457 eabb d9e3 29be b331 f2be
000000f0: 7be6 cabd 8bc4 a23d cb5b 0280 c49f b63c
00000100: 8877 13be 5623 0580 26bc 42bd 3fdc 683e
00000110: a3f1 9fbd 710e 62bf c8d3 58be 16c9 9cbc
00000120: 2503 57be 415b 0b80 7e61 cc3c 850d b93e
00000130: 038e 0000 47a1 613e 3ba0 15be a3c1 fc3e
00000140: ec8f d3bd 7d88 503d 8ed5 813e fe5b 2e3e
00000150: 8a36 0100 bf25 56bf 377f 9bbe 291d 0480
00000160: 87c6 863e a6e5 82bd 0bbe d93e 0d46 edbe
00000170: 699e 37be e19c b13d c7fe 0e3e 136c 0280
00000180: bc02 24be 152f 4abe 7667 0980 3e06 703e
00000190: e3e0 66be 33be 373d 9505 32be c106 a43d
000001a0: c79b 24be 8968 5e3e 3248 0080 0890 54be
000001b0: 2a81 66bd 0c54 0380 0a9c 113e 9a89 95bc
000001c0: 39d3 623b c1d6 913d 384f 97bd 0b68 20be
000001d0: 6155 25be f106 0180 f4a2 e9be 81af d53e
000001e0: ff09 0100 8684 c0bd 6519 b73e 5490 e73e
000001f0: 21d0 81be 97fe 3e3e bd37 6d3d 8237 ce3d
00000200: e7cb 0000 45cf 6c3d 64c0 03be c365 0380
00000210: 10a5 a13d 3a4f d83d 2269 ec3c a454 883d
00000220: 2f16 bbbe 2da6 06be fc01 b03d 967f 0980
00000230: 26b2 74bd d88b bbbe 3e69 0d00 3fb1 2e3e
00000240: a2b5 8bbd 3fdc 243f afa4 09be 85fd cdbc
00000250: 6fd0 2dbe cb81 ccbd 1c11 0180 3d86 2f3e
00000260: 2458 03be 79ef 0b80 78d6 c0bd 55cf 9a3e
00000270: 831d f2bd 3636 89bd ec31 38be 1cea 553e
00000280: 7cf6 9a3d 07d4 0200 db33 323e 9e4a cb3d
00000290: c6c8 0700 3802 9d3d 1fcd 383e bb2c 973d
000002a0: a30e 49be 0bd3 36be 5d9d 64bd 0804 173e
000002b0: c976 0c80 ca7b d83e 40dc 0f3f 32a8 0300
000002c0: f79a f73d 83d9 993e 60a4 50be e859 453b
000002d0: 5bd1 f93d 601b 8f3e 1bca 2abe c587 0480
000002e0: 0e74 113f 4a74 9c3e d765 0480 c2fe 8dbd
000002f0: 6f5e 02bf 0eff 0100 0995 8a3d 792f 6c3e
00000300: 300a 0cbe bae9 26be f213 0180 ae7c 8a3e
00000310: 5f23 ad3e e700 1000 a07d 053e e42f fe3d
00000320: 6711 abbe f342 cabe 6096 00be 9818 cfbd
00000330: 6a47 00be 38d5 0000 3653 17be 30eb 963d
00000340: 5181 0700 6c69 54be b26d 62bd 61fb 0580
00000350: af55 b5bd e5f8 b9bd 930d 993d 0fea 5ebe
00000360: dcdc 0100 90b9 0abe 8c99 97bd 0e36 0900
00000370: 3906 4bbe 5d97 f73d 133e 403d b32f 34be
00000380: aa35 853e d78f 93bd 48bb 90bd 25ef 0200
00000390: bd84 8ebe 7ba5 6ebe 815f 0200 114b 673e
000003a0: fabd 7abf d956 83bb 5e8f 0fbe de0c 08be
000003b0: 0194 c8bd 66f2 84be 026b 0000 070d 60bb
000003c0: 199c 9e3d ad07 0180 0755 cf3d b8fb 9ebe
000003d0: 4103 83be 201f eb3d 8a0b efbd 7097 bdbe
000003e0: 65eb 493e d207 0080 3bb8 7f3e f545 63be
000003f0: bd62 0900 c84f 7abe 4e4d 443e a349 0b3f
0.12401491 0.2925124 0.0022646142 -0.2760188 -0.07796085 -0.52509326 0.00089893444 6.78404e-40
-0.105158314 -0.052894667 -1.500328e-39 -0.18698648 -0.00014826373 -0.26254272 -0.09019346 -0.09086292
-0.09555633 0.19631319 6.6166e-40 0.08974725 0.11013954 -9.0718e-40 -0.22592275 0.14084342
-0.21145172 0.17154044 -0.30485505 0.01241089 0.082737654 7.06823e-40 0.02061556 -0.15610826
6.25042e-40 0.237349 -0.1436979 -0.10807008 0.17551638 0.25627396 -0.2782024 -0.3589752
-5.2649e-40 0.14104654 -0.4110365 -1.004231e-39 0.07591803 -0.36454445 -0.3091014 0.009077474
-0.23074037 0.12376311 0.2577435 7.73986e-40 -0.039181605 0.017691543 4.24228e-40 -0.051600907
0.14020297 -0.0071515013 -0.16590823 -0.47303542 -0.09907242 0.07947644 -2.166e-40 0.022292979
-0.14401066 -4.71854e-40 -0.047542714 0.22740267 -0.078097604 -0.88303286 -0.21174538 -0.019138854
-0.20997293 -1.042926e-39 0.024948832 0.36143127 5.0944e-41 0.22034179 -0.14611904 0.49366483
-0.10330185 0.050911415 0.25358242 0.1702728 1.114e-40 -0.83651346 -0.30370495 -3.77803e-40
0.2632334 -0.06391458 0.42527804 -0.46342507 -0.17931522 0.086725004 0.13964377 -2.22441e-40
-0.16016668 -0.19744523 -8.63634e-40 0.23439881 -0.22546725 0.044859122 -0.17384942 0.08009101
-0.1607505 0.21719564 -2.5899e-41 -0.20758069 -0.056275524 -3.05657e-40 0.1421968 -0.01825409
0.0034610762 0.07121039 -0.07388157 -0.15664689 -0.1614585 -9.4326e-41 -0.45632136 0.4173546
9.5421e-41 -0.09400277 0.35761562 0.452273 -0.25354102 0.18651806 0.057914484 0.10069181
7.3146e-41 0.057814855 -0.1286636 -3.12012e-40 0.07892811 0.10561986 0.028858725 0.06656769
-0.36540362 -0.13149329 0.085941285 -8.72289e-40 -0.059740208 -0.3663013 1.231615e-39 0.17059802
-0.06821753 0.6439857 -0.13441728 -0.025145302 -0.16974042 -0.099856935 -9.7973e-41 0.17141052
-0.12826592 -1.096097e-39 -0.09415907 0.30236307 -0.11822035 -0.06699793 -0.17987794 0.20890087
0.075665444 2.59732e-40 0.17402594 0.099263415 7.14872e-40 0.07666439 0.18046997 0.073815785
-0.1963449 -0.17853944 -0.055814136 0.14747632 -1.144638e-39 0.42281944 0.5619545 3.35844e-40
0.12090104 0.3004876 -0.20375204 0.0030113403 0.121981345 0.27950573 -0.1667866 -4.16047e-40
0.5681771 0.30557472 -4.03875e-40 -0.06933357 -0.50925344 1.83332e-40 0.067667075 0.23064984
-0.13675761 -0.16300097 -9.899e-41 0.27048248 0.33816049 1.469692e-39 0.13036203 0.12411478
-0.33411714 -0.39504203 -0.12557364 -0.10112113 -0.12527242 7.6488e-41 -0.14777836 0.07369077
6.89238e-40 -0.2074334 -0.055280395 -5.49355e-40 -0.088542335 -0.09080676 0.07473292 -0.21768974
1.71065e-40 -0.13547349 -0.074023336 8.4591e-40 -0.19826593 0.12089417 0.0469342 -0.17596321
0.26017505 -0.0720517 -0.07066971 2.6946e-40 -0.27835646 -0.23305313 2.17931e-40 0.2258723
-0.9794613 -0.004008156 -0.14019534 -0.13286158 -0.097938545 -0.25966185 3.8387e-41 -0.0034187452
0.07744617 -9.4589e-41 0.101236396 -0.3105142 -0.2558842 0.11480546 -0.11672123 -0.370296
0.19718702 -2.805e-42 0.24972622 -0.22194655 8.6194e-40 -0.24444497 0.19170114 0.54409236

conv_layers.1.lin.bias f4 [64]
00000000: 0bb1 73be 51b7 8d3d 6fa6 dc3d b33a 12be
00000010: e742 223d f624 aabd e6fc 023d ed71 813b
00000020: f2c5 6dbe 82ff 97be a085 e3bd d7ed df3d
00000030: 2789 043d 8a2c 1d3e e3f5 51be 21a0 90bd
00000040: 32fe 273d 0c98 25bb bdfe bfbd 264b 89be
00000050: 8cc3 633e ddb6 5f3e 86c1 213e cfa1 10be
00000060: 03c0 4c3d 543c 66be dacd 923c 548e 583e
00000070: fad1 5fbe d6f0 43be 71a8 673e c01e 3fbe
00000080: 6610 823e 6a90 52be 4a41 32be 4bbf 193d
00000090: 49f6 8c3e 88d3 143e 16d7 3abe cefd 253e
000000a0: bad0 5cbe 625b 1e3e d7e6 843e a91b 313b
000000b0: 9091 9ebe 8a2b 383d d6dc 8cbc 4f85 4c3e
000000c0: 3456 813e 9427 003e b0c2 b1bd 7395 74be
000000d0: 1230 cb3c 78e3 b23d 9307 90be 53d3 f83d
000000e0: 3b71 e53d d570 833d afb4 483b 0e61 f0bc
000000f0: ca5a 573e af7f 51bd aa4a 51be 5dd5 2b3e
-0.23798005 0.069197305 0.10773932 -0.14280204 0.039614584 -0.08307831 0.031979464 0.0039503486
-0.23220041 -0.29687124 -0.11109471 0.10934036 0.03235736 0.15349022 -0.20503955 -0.07061792
0.041013904 -0.002526763 -0.09374759 -0.26815146 0.22242564 0.218471 0.1579648 -0.14124225
0.049987804 -0.22483951 0.017920423 0.21148044 -0.21857443 -0.1913484 0.22622849 -0.18664074
0.25403136 -0.20562902 -0.17407718 0.037535947 0.2753165 0.14533818 -0.18246111 0.162101
-0.21563998 0.15464547 0.25957367 0.0027024543 -0.3097043 0.044963397 -0.017195147 0.19972728
0.2526108 0.12515098 -0.08679712 -0.23885135 0.024803195 0.087347925 -0.2813078 0.12149682
0.112032376 0.064180054 0.0030625274 -0.029343154 0.21030727 -0.05114716 -0.20438638 0.1678061

linear1.weight f4 [32, 128]
00000000: 9168 e43d 650e 823e 63e3 2fbe 7eb9 55be
00000010: 44bf 3dbe 6388 073e a072 c53d 1a21 72bc
00000020: ac87 afbb 12bb 863d 659e 9abd b54a 35bd
00000030: 6a45 9b3c 6e7c 45be 2be2 f93c 7fa9 883c
00000040: 1656 673c 49d1 84be 7084 383c 6cdc 31be
00000050: 246a bebd 2294 0280 0fcd dbbd 712e 95bd
00000060: 4367 24be b62a ce3d 8360 81bd c531 5bbd
00000070: c663 fcbc 52c0 1f3c b8cb dfbd 7900 853d
00000080: 9084 a5bc f385 bd3c 047c 69bd 6e4b 0c3d
00000090: b095 df3d 44a8 0bbc d4f1 11be b817 7fbd
000000a0: 5b17 033b ab26 b53d ba50 f63d 72c0 25be
000000b0: ed13 e03d bea8 c5bd b173 233e c8e6 0580
000000c0: 164f 3ebe 4c84 32be f250 a4be 6cd1 103d
000000d0: a97f 52bd 1ff9 b63b 26fd b0b4 0cc8 0fbc
000000e0: cf8e 25be 7222 cdbd a625 c734 0cf4 1cbe
000000f0: 0937 4c3e d892 cc3d c116 53be 7ad1 cbbd
00000100: fc04 8b3d 0c5f 21bc 41f8 2e3d 9aac 19be
00000110: 70b4 343d 8543 17bd 7907 733c 33ff 023e
00000120: 622b 25bb 82dd 833d 78e7 dc3c 7c73 1ebb
00000130: 3fab 103b 4b0e 98bc 85ff 773c 2e19 4539
00000140: 229b 333a 9aee a9be bff1 85bd 6a51 11be
00000150: 137e 11be 9138 0280 8899 993d ffb5 3d3d
00000160: 90fc 0abe a925 5bbd 83c5 843d 40bd c73d
00000170: 158f eabc 1480 de3d 07b6 84bd 4536 a13d
00000180: 02ce c2bc d691 b839 6341 f03b 0dfb 173d
00000190: 7c64 9abc fa82 5937 0d0d fd3c 0494 88bd
000001a0: 5847 673c 1f1b 14ba 3079 323e 5e70 21bd
000001b0: 5ffd 043e 04db 823d 83ba 3a3d 6ffc 0100
000001c0: 87a5 a2bd a553 c2bc 633d 8bbe e9e9 50bd
000001d0: e629 18bd 5796 cb35 d93c 0700 e2cd 143e
000001e0: 57cb 7b3d 2043 1e3e 5fcd b3a5 71a3 333e
000001f0: ff10 bdbd 559d 0ebe dc42 493e 1c10 4ebd
00000200: 59d4 09be 12fa 2cbe 3eec e23d 7353 25bd
00000210: 28cc 5b3e 96c8 04be dbeb d2bd 7c19 083e
00000220: 79bf 9e3a 6433 cd39 6590 343d e719 d7bc
00000230: f497 bdbc ff5e 0a3e 6756 a53a 7da7 033c
00000240: fbad 543b 4939 3c3e ec20 3339 2a28 0f3e
00000250: b791 b73d bc55 0480 1cfa 193e 0f09 a33d
00000260: 7eb6 c73d 4e98 80bd ad38 733d ae31 e93d
00000270: f67d ba3d 3616 a33c 42f4 323d 6083 dabc
00000280: d73e ae3d 11ce d0bb 992f 0a3e 2a1d 8b3c
00000290: c611 b5bc b8ca 9dbc da17 2f3e 0fd6 863d
000002a0: 25a7 1abb a234 84bd 73d9 14be 8d29 f83d
000002b0: 1b84 debd 168c ea3d 0b60 71bd 35be 0000
000002c0: 9805 2c3e 913d b5bc 6a2e a4be d129 8d3d
000002d0: 5771 47bd c4e0 3b3d 50ab 0d3a 4fd9 c23d
000002e0: 8ac4 86bb 9065 a73d 439a c6b5 58aa 123e
000002f0: 6234 c9bd 22fb babd f685 1a3e 03b7 6a3d
00000300: 0184 d43d 6395 ef3d e3de eebd 0744 93be
00000310: f123 133d 4148 b63d b5f1 2bbd 3ddb f6bd
00000320: 46b5 8f39 0d5a 69bc 7a17 8e3b c96c 1ebd
00000330: 3c66 a9b9 1764 3b3d c0a9 683d 3223 7939
00000340: acbf 943a 1bca 24be 5113 b0bd 5865 483d
00000350: 7524 c63d f354 0700 4abc 8bbe ae73 9bbd
00000360: 1a10 083e f587 b03c 9e77 1b3d f7a8 6bbd
00000370: 1cf4 333d 96a0 13bd a7f6 b83d 531b e33a
00000380: 3e97 1e3d 3adc 1534 58cd 64bd 5ee3 f8bb
00000390: c2d2 05be f42e 1e39 955a eabd 2b1b aebd
000003a0: 69f9 25be f34c 593c fac8 3cbd 127b 88bd
000003b0: c937 a9bc 4d2e 98bd b2e0 beba 1b1b 1080
000003c0: 70d4 89bd fc41 27bc 6e1c 9dbd 2c58 a2bc
000003d0: d732 0cbe 87d3 e13b a20c e334 37c2 27bd
000003e0: 50b5 2abe 0488 b6bc dfd2 b4ab f460 adbd
000003f0: 0c35 7cbb 8c96 043c 663c 57be 307b 833c
0.11152757 0.25401607 -0.17176585 -0.20871541 -0.18529993 0.13235621 0.096410036 -0.0147784
-0.0053567495 0.065786496 -0.075497426 -0.0442607 0.018953998 -0.19285747 0.030503353 0.016682385
0.014119646 -0.25940922 0.011262044 -0.1736924 -0.092975885 -2.36811e-40 -0.10732471 -0.072842486
-0.16055016 0.1006674 -0.06317236 -0.05351426 -0.030809294 0.009750443 -0.10927528 0.06494231
-0.020204812 0.023135161 -0.057003036 0.034251623 0.109172225 -0.008524004 -0.14252406 -0.06227848
0.0020002935 0.08845266 0.12027116 -0.16186693 0.109413005 -0.09651326 0.15962102 -5.41966e-40
-0.18584856 -0.1743328 -0.32093006 0.03535597 -0.051391277 0.005583897 -3.2966744e-07 -0.008775722
-0.16167758 -0.100163355 3.709403e-07 -0.15327471 0.19942869 0.09988946 -0.20614149 -0.09952064
0.0678806 -0.009849321 0.042717222 -0.15007249 0.04411739 -0.036929626 0.014833325 0.12792663
-0.002520286 0.06438734 0.026965842 -0.002417772 0.0022074727 -0.018561503 0.015136604 0.00018796764
0.00068514247 -0.3318985 -0.0654025 -0.14191213 -0.1420825 -2.03963e-40 0.07499987 0.046316143
-0.13572907 -0.053502712 0.06482985 0.097528934 -0.02863268 0.10864273 -0.064800315 0.07871679
-0.023779873 0.0003520387 0.0073320135 0.037104655 -0.018846743 1.2964703e-05 0.030890012 -0.06668857
0.014116131 -0.00056497933 0.17429042 -0.039413802 0.12987278 0.0638943 0.045588028 1.82392e-40
-0.07941728 -0.023721525 -0.27195272 -0.051004324 -0.037149332 1.5168433e-06 6.64676e-40 0.14531663
0.061473217 0.15455294 -3.1190715e-16 0.17542817 -0.092317574 -0.13927205 0.19654411 -0.05030833
-0.1345991 -0.16892269 0.11080216 -0.040362787 0.21464598 -0.12967142 -0.10298892 0.13290972
0.0012111507 0.00039138936 0.044083018 -0.026257468 -0.023143746 0.135128 0.0012614251 0.008035538
0.0032452333 0.18381228 0.00017083035 0.13980165 0.0896334 -3.98098e-40 0.15036815 0.07960712
0.097516045 -0.0627905 0.059380222 0.11386429 0.091060564 0.019908052 0.043689974 -0.026673973
0.085080795 -0.0063722213 0.1349472 0.01698168 -0.022103202 -0.019261703 0.17098942 0.06583797
-0.002359816 -0.064553514 -0.14536075 0.121173 -0.10865041 0.114525005 -0.058929484 6.8233e-41
0.16799009 -0.022124084 -0.3206666 0.068927415 -0.048692074 0.04586865 0.00054042507 0.095141046
-0.0041127848 0.081736684 -1.4797046e-06 0.14322793 -0.09824444 -0.09129931 0.15090165 0.05730344
0.1037674 0.11698415 -0.11663606 -0.28762838 0.03592295 0.089005 -0.041978557 -0.12053535
0.00027410145 -0.014242661 0.0043362947 -0.038677964 -0.00032310362 0.04574975 0.05680251 0.00023759602
0.0011348627 -0.16092722 -0.08597434 0.048924774 0.096749224 6.73323e-40 -0.2729209 -0.075904235
0.13287392 0.021549204 0.037955873 -0.057534184 0.043933973 -0.03604182 0.0903142 0.0017326869
0.038718455 1.3956824e-07 -0.055859894 -0.0075954637 -0.13068679 0.00015085546 -0.114430584 -0.08501276
-0.16208424 0.013262975 -0.046090104 -0.06664099 -0.020656483 -0.07430706 -0.0014562814 -1.479092e-39
-0.06729972 -0.010208603 -0.07671438 -0.019817434 -0.13691269 0.006891671 4.2291236e-07 -0.040956702
-0.16670728 -0.022281654 -1.2848298e-12 -0.08465758 -0.0038483767 0.008092534 -0.21019134 0.016049951

linear1.bias f4 [32]
00000000: 4102 3bbd 3edd d33b f200 363c 1f8f 92bd
00000010: e22c 7c3d e332 0bbc 78ab efbd 2a9d 3fbd
00000020: d0b9 f53d 6c5e 97bb d965 193d 6356 34bc
00000030: 3f0f 72bb f9e0 953b d721 aebd c323 b4bc
00000040: 6120 dc3d b9af babc 7b7c 143d 8f3c e3bd
00000050: 8949 96ba 339c 52bd 69bf a63d 313b 03bd
00000060: 7c67 0d3e 4314 6abd 8b91 d63d b915 6b3d
00000070: c5e2 353d c7b9 03a2 d709 8a3c c0f6 d6b6
-0.045656446 0.006465583 0.011108624 -0.071562044 0.06156624 -0.008496019 -0.11702627 -0.046780743
0.119983315 -0.0046194103 0.037450645 -0.011006924 -0.0036935357 0.004573938 -0.08502548 -0.021989709
0.10748363 -0.02278887 0.036251526 -0.11095535 -0.0011466007 -0.051418494 0.08141977 -0.03203887
0.13809007 -0.05714823 0.10476979 0.057393763 0.044405717 -1.785216e-18 0.016850395 -6.4064225e-06

linear2.weight f4 [1, 32]
00000000: e679 49bf 2e1e 0e3f bdc9 bd3c 4c19 e5bd
00000010: e005 36bf 77dc ad3c 4180 0c3f d910 e33e
00000020: fe6a 3dbf 75cc 0d3c a0cd 8abd 65f2 4eb7
00000030: a31f ec3c ccac 4ebf 919d 083f ba3b f03e
00000040: 5a44 3bbf 2e7d 853b a56a 31bf 7f49 f33e
00000050: d2d7 fa3e 6772 093f e510 26bf 9cd3 143f
00000060: 3acc 33bf 3315 ec3e f873 40bf 441b 30bf
00000070: 482f 1dbf 595a 0300 c822 b13d 5b43 0100
-0.7870163 0.555148 0.023167485 -0.111864656 -0.71102715 0.02122329 0.548832 0.4434879
-0.7399138 0.008654703 -0.06777501 -1.2334994e-05 0.02882368 -0.8073242 0.5336543 0.46920568
-0.7315117 0.0040737605 -0.6930335 0.4751701 0.48992783 0.5369019 -0.6486953 0.5813539
-0.702335 0.46109924 -0.75176954 -0.68791604 -0.6140027 3.07917e-40 0.08649212 1.15998e-40
