graph_models/agonist/ros/AFP.pth (torch, 624930 bytes, 48 tensors)

lin1.weight f4 [64, 32]
0	0xbdcce5bc	-0.10004756
1	0x3eae6b12	0.34066063
2	0x3cb2d245	0.02182878
3	0x3e17fd54	0.14842731
4	0x3e83c942	0.25739485
5	0x3e4c09b4	0.19925576
6	0xbdf68a48	-0.12038094
7	0xbd7fef40	-0.062484026
8	0x3e8a9245	0.2706472
9	0xbdfcc84d	-0.12342892
10	0x3ea68063	0.32519826
11	0x3dca0872	0.09864892
12	0xbe8431b1	-0.25819162
13	0x3e6bb77c	0.23019212
14	0x3ee74c97	0.4517562
15	0x3e1d05c6	0.15334234
16	0xbd5fb38e	-0.054614596
17	0x00096461	8.62529e-40
18	0xbdc73b96	-0.09728162
19	0x3b48a28d	0.0030614466
20	0x3eb4256a	0.35184795
21	0xbc22c230	-0.009933993
22	0x000a97b6	9.72779e-40
23	0x8006555f	-5.81638e-40
24	0x3d421bfb	0.047389966
25	0x3e5730c9	0.21014704
26	0xbd389b6f	-0.045070108
27	0xbdcefad0	-0.101064324
28	0x0001b6e7	1.57448e-40
29	0x800e55c5	-1.316465e-39
30	0xbe8921d3	-0.26783618
31	0x3ec3f332	0.3827148
32	0xbca4a6bd	-0.020099038
33	0xbbac4542	-0.0052572796
34	0xbce34b05	-0.027745733
35	0xbdb18ca5	-0.08669404
36	0x3e371498	0.1787895
37	0x3e5e9a87	0.21738635
38	0x3e190cf8	0.14946353
39	0xbde3bcd4	-0.111200005
40	0xbcb91d41	-0.022596957
41	0xbd404f17	-0.046950426
42	0x3f0a7967	0.54091495
43	0xbc070efa	-0.008243317
44	0x3db21e64	0.08697203
45	0x3e3c15b2	0.18367651
46	0x3e1391ee	0.14411137
47	0xbd9c24f0	-0.07624233
48	0x3d70afd6	0.05876144
49	0x8006ab8f	-6.12557e-40
50	0x3e938a8f	0.2881665
51	0xbe3784cd	-0.17921753
52	0xbe665bf5	-0.22496016
53	0x3db31d74	0.08745852
54	0x000a37d3	9.38381e-40
55	0x8001bea3	-1.60223e-40
56	0x3b1c0f47	0.0023812817
57	0x3da82247	0.08209663
58	0x3e9649b4	0.29353106
59	0xbe52bb5f	-0.20579289
60	0x0008f6e5	8.23253e-40
61	0x000ab871	9.8452e-40
62	0xbda27b07	-0.07933622
63	0x3c27a334	0.010231782
64	0x3da37633	0.07981529
65	0xbd873a67	-0.06602936
66	0xbe127d17	-0.1430553
67	0x3c841dab	0.016127428
68	0x3ed4e8e8	0.41583943
69	0x3e8997e5	0.268737
70	0xbcb6fdaa	-0.022337753
71	0xbca95b95	-0.020673553
72	0x39dc1b0c	0.0004198182
73	0xbc281a18	-0.0102601275
74	0x3e11c9db	0.14237158
75	0xbe4b510f	-0.1985514
76	0x3da4edc5	0.080531634
77	0x3e013c9d	0.12620778
78	0x3d541946	0.051781915
79	0xbe24cef0	-0.16094565
80	0xbee99e44	-0.4562856
81	0x800bd780	-1.087497e-39
82	0x3d609863	0.054832827
83	0xbc63fdff	-0.013915538
84	0x3e1f232f	0.15540765
85	0xbe9ccafa	-0.3062361
86	0x80059d63	-5.15637e-40
87	0x0005255b	4.72578e-40
88	0xbe8e734e	-0.27822345
89	0x3e44e3ba	0.19227496
90	0x3e30c6e8	0.17263377
91	0xbd84072a	-0.06446679
92	0x800439f2	-3.88129e-40
93	0x8005e97b	-5.42934e-40
94	0xbdb997ea	-0.090621784
95	0xbd5c8c69	-0.053844843
96	0x3da3a783	0.07990935
97	0xbe05a1a5	-0.13049944
98	0xbe3620a5	-0.1778589
99	0xbe068293	-0.13135748
100	0x3ea72a3a	0.32649404
101	0x3dc19a92	0.0945331
102	0xbd18ee9d	-0.037336934
103	0xbe70aabf	-0.23502634
104	0x3eb710ea	0.35755092
105	0xbd39db4a	-0.045375146
106	0xbd06be43	-0.03289629
107	0x3be2a043	0.0069160773
108	0xbd85fbec	-0.06542191
109	0x3e93004c	0.28711164
110	0xbe6b0279	-0.22950162
111	0xbe2640a3	-0.16235594
112	0xbee26843	-0.4422017
113	0x800303bc	-2.76846e-40
114	0x3e3557ba	0.17709246
115	0xbea0f0f7	-0.31433842
116	0x3e498c9b	0.19682543
117	0xbb479147	-0.0030451582
118	0x000d9d1c	1.250222e-39
119	0x000b3bb3	1.031607e-39
120	0x3e5f50ec	0.21808213
121	0xbe7f3289	-0.24921621
122	0xbeccbb97	-0.3998687
123	0x3e3c9131	0.18414761
124	0x8008fc7c	-8.25258e-40
125	0x000a3611	9.3775e-40
126	0xbdf0e23c	-0.11761901
127	0xbde7ce98	-0.113187015
128	0x3d62993e	0.055321924
129	0x3e6c33c0	0.23066616
130	0x3d613d80	0.05499029
131	0xbdb1f601	-0.086895
132	0x3f0cf33f	0.55058664
133	0xbe18983d	-0.14901824
134	0x3c7dca0e	0.015490068
135	0xbe699916	-0.22812304
136	0x3e21ea8c	0.15812129
137	0xbe48389d	-0.19552846
138	0x3ea4c430	0.3218093
139	0xbd08dba0	-0.033412576
140	0xbe3e9813	-0.18612699
141	0x3e70df10	0.23522592
142	0x3dc4572f	0.095869415
143	0x3d24f723	0.04027475
144	0x3c1db7cb	0.009626339
145	0x80061914	-5.6001e-40
146	0xbc4fba99	-0.012678766
147	0x3dedfa40	0.11619997
148	0x3d719180	0.05897665
149	0xbd09b965	-0.03362407
150	0x0003bfb3	3.44275e-40
151	0x8002f7c6	-2.72555e-40
152	0xbe0a1195	-0.1348327
153	0xbe7bc0f5	-0.24585326
154	0xbdb0827a	-0.086186364
155	0x3ea327f8	0.3186643
156	0x8001b512	-1.56791e-40
157	0x80012cd5	-1.07918e-40
158	0x3e28fc74	0.16502553
159	0xbe0668dd	-0.1312594
160	0xbc509bce	-0.012732459
161	0x3d4f029a	0.05053959
162	0xbe26bf11	-0.16283824
163	0x3c2d02fd	0.0105597945
164	0xba020cc3	-0.0004961008
165	0x3e9c0d6e	0.30478996
166	0xbc8a20cf	-0.016861347
167	0xbc061b95	-0.008185287
168	0x39a5c51d	0.00031618113
169	0xbc1bc1e6	-0.009506678
170	0x3eade0dc	0.33960617
171	0x3dc2ce00	0.09511948
172	0xbec1c1ce	-0.37843174
173	0x3e064780	0.13113213
174	0x3e277f66	0.16357192
175	0xbe0c1a3d	-0.13681884
176	0x3cccb9c8	0.024990931
177	0x000203e4	1.85067e-40
178	0xbd37716f	-0.044785913
179	0xbb8bb7e0	-0.004263863
180	0x3d67bbed	0.056575704
181	0xbd8af4cf	-0.06784975
182	0x8006baf0	-6.18074e-40
183	0x00061d35	5.6149e-40
184	0xbe7022c9	-0.2345077
185	0x3e6b4ada	0.22977772
186	0x3d8461db	0.06463977
187	0xbdabbe0e	-0.083858594
188	0x000866b7	7.71531e-40
189	0x800a1eb8	-9.29375e-40
190	0x3e0e46a3	0.13894133
191	0x3e44a962	0.1920524
192	0x3df3429a	0.118779376
193	0x3d83df14	0.06439033
194	0xbeb76e83	-0.358265
195	0xbcb0c23e	-0.021576997
196	0xbdb98c95	-0.09060017
197	0x3f42a536	0.7603334
198	0xbc0dd366	-0.008656358
199	0xbbb49159	-0.005510491
200	0x38e44103	0.000108839966
201	0x3d608932	0.05481834
202	0x3e849a36	0.25898904
203	0xbf48a228	-0.7837243
204	0x3e58a33f	0.21156023
205	0x3e2d5062	0.16925195
206	0xbd0ffe0c	-0.035154387
207	0xbede5ad0	-0.4342866
208	0xbc25ef5a	-0.010127867
209	0x000078dc	4.3356e-41
210	0xbe9d3d92	-0.30711037
211	0x3ec067ad	0.37579098
212	0xbda19e3b	-0.07891508
213	0x3e02b44a	0.12764087
214	0x8007f2cb	-7.29946e-40
215	0x0005d4bb	5.35491e-40
216	0xbe3cee41	-0.18450262
217	0x3e9a5216	0.30140752
218	0xbed7f39d	-0.4217805
219	0x3d1e08c0	0.038582563
220	0x0003ff26	3.67037e-40
221	0x00066a7d	5.89214e-40
222	0x3e1855cb	0.14876477
223	0xbc6367ae	-0.0138797
224	0x3e231976	0.15927681
225	0xbdf1a702	-0.11799432
226	0xbca25d46	-0.019819867
227	0xbea6780d	-0.32513466
228	0x3eb506df	0.35356805
229	0x3e088105	0.13330467
230	0x3ec6892f	0.38776538
231	0xbed27aff	-0.41109464
232	0x3e432a54	0.19059116
233	0x3dc8e705	0.098096885
234	0x3eb29689	0.34880474
235	0x3d695f47	0.05697563
236	0xbd524c36	-0.05134221
237	0x3d89cd0a	0.06728561
238	0xbe88eb29	-0.26741913
239	0xbe3a36b1	-0.18184926
240	0xbf0d13f7	-0.5510859
241	0x8002fe54	-2.74907e-40
242	0x3e5f63c5	0.21815403
243	0x3c63deb2	0.013908075
244	0x3e83cbe1	0.25741485
245	0x3e22fc61	0.15916587
246	0x8004eead	-4.52963e-40
247	0x80060273	-5.51892e-40
248	0x3e24c1d4	0.16089565
249	0xbe67fb31	-0.22654416
250	0x3c95a335	0.0182663
251	0xbe505bc8	-0.20347512
252	0x80017f3f	-1.37483e-40
253	0x0003b13f	3.3909e-40
254	0x3d16d776	0.036826573
255	0xbd52ec5d	-0.051494945

lin1.bias f4 [64]
0	0xbd8b47ce	-0.06800805
1	0x3d9d79d3	0.07689252
2	0xbd805d60	-0.0626781
3	0x3be9b80d	0.0071325363
4	0x3dea2b68	0.1143406
5	0xbe0b2a14	-0.1359027
6	0xbbc01a25	-0.0058624917
7	0x3cf82903	0.030292993
8	0x3e119e13	0.14220457
9	0x3d585d1b	0.052823167
10	0x3dbec14b	0.093142115
11	0x3d13b28a	0.03605894
12	0x3e1e0054	0.15429813
13	0x3c5e8e5f	0.013583749
14	0x3cddabaf	0.027059404
15	0x3dc3cae8	0.09560186
16	0xbd81d1ef	-0.0633887
17	0x3cd5d1bb	0.026100984
18	0x3e4c5bb9	0.19956864
19	0x3cd08cdd	0.025457794
20	0xbbcb4459	-0.006203216
21	0xbd788b2b	-0.060679596
22	0x3cff91ac	0.031197391
23	0x3d8a16c5	0.06742624
24	0x3dca7bc4	0.09886888
25	0x3dcc0ce0	0.09963393
26	0xbcb7c518	-0.022432849
27	0xbd6a6e6e	-0.05723422
28	0x3d376ea7	0.04478326
29	0xbdb11d4f	-0.08648168
30	0x3e665a33	0.22495346
31	0x3e0834d1	0.13301398
32	0xbc6b2920	-0.014353067
33	0x3c8794ad	0.016550386
34	0xbcfb3053	-0.030662691
35	0x3de120ce	0.10992585
36	0x3e014d70	0.12627196
37	0x3e325a5b	0.1741728
38	0xbe084a9a	-0.13309708
39	0x3e0f4c16	0.13993868
40	0xbd84b5a4	-0.06479958
41	0x3d6794c4	0.05653836
42	0x3e5090e1	0.20367767
43	0x3d1d16b3	0.038351726
44	0xbc8771c7	-0.016533745
45	0x3e1bb08a	0.15204063
46	0x3e0987c2	0.13430694
47	0x3cb6f8a8	0.022335365
48	0xbcc38ead	-0.023871744
49	0x3d568cac	0.05238025
50	0xbdc4a1cd	-0.096011735
51	0xbda1ea4c	-0.07906017
52	0x3cfc60f7	0.030807955
53	0x3e0b747b	0.13618653
54	0x3e3a37d6	0.18185362
55	0x3e58063c	0.21096128
56	0xbd984376	-0.07434742
57	0x3d98416c	0.07434353
58	0x3d032fbc	0.032027945
59	0x3e40f830	0.18844676
60	0x3e396bec	0.18107575
61	0x3e1deb59	0.1542181
62	0x3cab0486	0.02087618
63	0xbc63f7ae	-0.013914032

gate_conv.att_l f4 [1, 64]
0	0xbe6fb7fa	-0.23410025
1	0xbf48e659	-0.7847648
2	0xbee07c85	-0.43845
3	0xbe1d52e3	-0.1536365
4	0x3f5c0f4a	0.8596083
5	0x3f0efe75	0.5585702
6	0x3ebd43fa	0.36965925
7	0x3ee91d47	0.4553015
8	0xbc9a5cbc	-0.018843047
9	0xbe226f12	-0.15862682
10	0x3d805748	0.062666476
11	0x3ec88e64	0.39171135
12	0x3daa0952	0.08302559
13	0xbeea4ba1	-0.45760825
14	0xbe078b99	-0.13236846
15	0xbe2bcce0	-0.16777372
16	0x3ee0ec4e	0.43930286
17	0x3ef5a723	0.47979078
18	0x3e6a00e7	0.22851907
19	0x3e5ffdc0	0.21874142
20	0xbdaba2c0	-0.083806515
21	0x3e84a188	0.2590449
22	0x3e967f58	0.2939403
23	0x3e886373	0.26638374
24	0x3edfaaa9	0.4368489
25	0x3ef2f20a	0.47450286
26	0xbee23fb1	-0.44189218
27	0x3efb0f24	0.4903499
28	0x3ebe28f9	0.37140635
29	0x3e9c7a0f	0.30561873
30	0xbd646061	-0.055755977
31	0xbd6944ef	-0.056950506
32	0xbe0afb15	-0.13572343
33	0xbf0c575a	-0.5482079
34	0x3dd9860f	0.10621273
35	0xbef6c88d	-0.48199883
36	0xbde02d8f	-0.109461896
37	0xbf01a3fc	-0.50640845
38	0x3ed26e92	0.41099983
39	0xbeb68dd3	-0.35655078
40	0x3f1efecf	0.6210756
41	0xbd507dc5	-0.050901193
42	0xbef62ee2	-0.48082644
43	0xbe8901d3	-0.26759204
44	0x3ecaa466	0.3957855
45	0xbdb971cb	-0.090549074
46	0xbea87ca6	-0.329076
47	0x3e97ab26	0.29622763
48	0x3f3ddb78	0.7416301
49	0x3e8e515d	0.2779645
50	0x3ef42440	0.47683907
51	0xbe3787cd	-0.17922898
52	0x3ee37ce8	0.44431233
53	0x3f00f529	0.50374085
54	0x3c955089	0.018226879
55	0xbe309499	-0.17244186
56	0xbe78498e	-0.24246809
57	0xbe1f023d	-0.15528198
58	0x3efae6ae	0.4900412
59	0xbef04060	-0.46924114
60	0x3e9b42eb	0.30324492
61	0x3f1644cf	0.58698744
62	0x3e8671c0	0.2625866
63	0xbf2858c0	-0.6576042

gate_conv.att_r f4 [1, 64]
0	0x3e326d68	0.17424548
1	0xbef4bf46	-0.4780218
2	0xbe4b72dd	-0.19868036
3	0x3e58d315	0.21174271
4	0xbe67762f	-0.22603677
5	0xbe9d8871	-0.3076816
6	0xbdade84a	-0.08491571
7	0xbecf511f	-0.40491578
8	0xbe576d6b	-0.21037833
9	0x3d36ea8f	0.044657286
10	0xbeba53c6	-0.3639204
11	0xbe885e07	-0.26634237
12	0x3e952f3e	0.29137605
13	0xbd2e2e8b	-0.042524856
14	0x3e3126aa	0.17299905
15	0x3ea82fba	0.32848912
16	0xbe882de3	-0.2659751
17	0xbe956dd1	-0.29185346
18	0xbf23133d	-0.6370123
19	0xbeb170fc	-0.34656513
20	0xbe485c74	-0.19566518
21	0xbc107349	-0.008816549
22	0x3e158754	0.14602405
23	0xbde34adf	-0.11098265
24	0x3e59357b	0.21211807
25	0x3eed6daa	0.4637273
26	0xbc14e10d	-0.009086859
27	0xbea570d4	-0.32312644
28	0x3e807592	0.250897
29	0xbe114311	-0.1418574
30	0xbc14fda6	-0.009093678
31	0xbd011ce9	-0.03152171
32	0x3e2d065c	0.16896957
33	0x3e711111	0.23541667
34	0xbe7e7928	-0.24850905
35	0xbed10612	-0.40824944
36	0x3eddf02c	0.433473
37	0xbd97947c	-0.07401368
38	0x3c975bc3	0.018476373
39	0x3eeccd88	0.46250558
40	0xbec68676	-0.3877446
41	0xbe5e7f4e	-0.2172825
42	0xbe602918	-0.21890676
43	0xbe2fa05e	-0.17151019
44	0x3e894c1e	0.26815885
45	0xbc834a7c	-0.016026728
46	0xbe268eb7	-0.16265379
47	0xbe47e613	-0.1952136
48	0xbe0e0b51	-0.13871504
49	0x3dfb155a	0.12259932
50	0xbd928e63	-0.07156064
51	0x3f13f22c	0.577914
52	0xbea07a5b	-0.3134335
53	0x3eb5c39e	0.35500807
54	0xbe762d76	-0.2404078
55	0x3eab60ec	0.33472383
56	0xbea1a3f5	-0.31570402
57	0xbd2097b8	-0.03920719
58	0x3ed1386e	0.40863365
59	0xbd987877	-0.07444852
60	0xbeaa2bed	-0.33236638
61	0x3cf397e5	0.029735515
62	0xbee90ee5	-0.45519176
63	0x3e2cd917	0.16879688

gate_conv.bias f4 [64]
0	0x3c75fa1d	0.015013245
1	0xbbb81f6b	-0.0056189797
2	0xbd0655f4	-0.032796815
3	0xbc52348a	-0.012829909
4	0x3c1689f2	0.009188162
5	0x3c69dd90	0.014274016
6	0x3d68fd50	0.056882203
7	0x3c03210d	0.008003485
8	0x3d7039db	0.058648925
9	0x3c05668c	0.008142125
10	0x3d729547	0.059224393
11	0x3b56e7fa	0.0032792077
12	0xbd2f4702	-0.042792328
13	0xbcf12906	-0.029438507
14	0x3c97518c	0.018471502
15	0xbadb9df4	-0.0016755448
16	0xbd096033	-0.03353901
17	0x3ca7ccf5	0.020483473
18	0x3bc6058c	0.0060431417
19	0xbd3b3c52	-0.045711823
20	0xbd706c47	-0.05869701
21	0x3d3465b6	0.04404231
22	0x3d055f3e	0.032561533
23	0x3c9a5b83	0.018842464
24	0xbcfede8a	-0.031111974
25	0xbc31f324	-0.010861192
26	0x3b7043c2	0.003666148
27	0x3cf3722a	0.029717524
28	0x3d568173	0.052369546
29	0xbd063272	-0.032762952
30	0xbca3b3a5	-0.019983122
31	0x3d3a50ed	0.045487333
32	0xbd847d83	-0.06469252
33	0xbca328bd	-0.019916886
34	0x3d19abef	0.037517484
35	0xbd96bc6d	-0.07360158
36	0x3da7aa7b	0.081868134
37	0xbd338861	-0.043831233
38	0xbcbfa7b5	-0.023395399
39	0x3d289770	0.041160047
40	0x3cebcc8a	0.028784055
41	0x3c98338c	0.018579267
42	0xbc43f85c	-0.011961069
43	0x3dd8cb3e	0.1058564
44	0xbcd978a3	-0.026546782
45	0xbb52be19	-0.0032156764
46	0xbd660078	-0.05615279
47	0xbd235fd8	-0.039886326
48	0xbd757b1a	-0.059931852
49	0xbd1f8537	-0.038945403
50	0xba51da67	-0.0008005262
51	0x3c333a87	0.010939247
52	0x3cf550ff	0.029945849
53	0xbcc19eec	-0.02363535
54	0xbd811d5b	-0.06304427
55	0x3d03d220	0.032182813
56	0xbd4fa68e	-0.05069595
57	0xbc8e35ac	-0.017359577
58	0xbd663bfa	-0.05620954
59	0x3d4825a6	0.04886403
60	0xbc0367e7	-0.008020378
61	0x3d5e7167	0.054307368
62	0x3cbcbb4d	0.02303853
63	0xbcea90e5	-0.028633544

gate_conv.lin1.weight f4 [64, 75]
0	0xbe1509f1	-0.14554574
1	0x3dd37e72	0.10326852
2	0xbe1f496c	-0.15555352
3	0xbd4e1ead	-0.050322223
4	0x3e214f2a	0.15752855
5	0xbddb76d3	-0.10716023
6	0xb92ed9c4	-0.00016675057
7	0xbc4ee0ff	-0.012626885
8	0xbdeb0aa1	-0.11476637
9	0x3e0c21af	0.13684724
10	0xbdf1ec12	-0.11812605
11	0x3d154240	0.036440134
12	0x3c9799eb	0.018506011
13	0xbe3e7739	-0.18600167
14	0xbde836da	-0.11338587
15	0xbe183a4e	-0.14865991
16	0x3e17fc86	0.14842424
17	0xbe2412b1	-0.16022755
18	0xbe052ecc	-0.13006133
19	0xbc67b8d9	-0.014143192
20	0xbdc016d6	-0.093793556
21	0x3e84974f	0.2589669
22	0x3e5746cc	0.210231
23	0x3e48824e	0.19580957
24	0xbe9392f6	-0.2882306
25	0xbc6f7d2a	-0.014617244
26	0x3c1f4c6b	0.009722809
27	0x3cfe86e1	0.031070175
28	0xbe03033e	-0.12794206
29	0xbd9ab93f	-0.07554864
30	0x3e488508	0.19581997
31	0xbcd106d4	-0.025515951
32	0xbdc68d2d	-0.09694896
33	0x3d09e25c	0.03366314
34	0xbe8966cd	-0.26836243
35	0xbd87241e	-0.06598686
36	0x3e3375b9	0.17525376
37	0x3e5f75d1	0.21822287
38	0x3ea410df	0.32044122
39	0x3e2a16bb	0.16610233
40	0x3d1447be	0.03620123
41	0x3bc00cc0	0.005860895
42	0xbe0f0280	-0.13965797
43	0xbe19fede	-0.1503863
44	0x3dc7217c	0.097231835
45	0x3d27f4c7	0.041004922
46	0x3e23e701	0.1600609
47	0x3e37f426	0.17964229
48	0x3e3ff6ba	0.18746462
49	0xbd8ed793	-0.06974711
50	0xbe3928cf	-0.18081973
51	0x3dfc806d	0.12329183
52	0xbd1bed26	-0.03806796
53	0xbc30a492	-0.010781424
54	0xbe88d8d0	-0.26727915
55	0x3d8696f2	0.06571759
56	0x3e10a112	0.14123943
57	0x3e29debf	0.16588877
58	0xbe507ba6	-0.20359668
59	0xbc1a8ce3	-0.009433004
60	0x3e30257d	0.172018
61	0x3dedb542	0.11606838
62	0x3e33aeed	0.17547198
63	0x3d53ae81	0.05168009
64	0x3e324204	0.17407995
65	0xbee330d1	-0.4437318
66	0x3ea97d79	0.3310354
67	0xbdef21d4	-0.11676374
68	0xbc730c76	-0.014834514
69	0xbcfb9499	-0.030710505
70	0xbdc304b9	-0.09522385
71	0x000c01e4	1.102704e-39
72	0x3c9e4622	0.019320551
73	0x3dfee2fd	0.12445638
74	0x00010f8d	9.7414e-41
75	0x3df92af6	0.12166397
76	0x3d4a40df	0.049378272
77	0xbe617762	-0.22018197
78	0xbe13007a	-0.1435565
79	0xbd5c469a	-0.05377827
80	0xbde6427d	-0.112431504
81	0x3e566e9c	0.20940632
82	0x3dccf01c	0.10006735
83	0x3e8aa77c	0.27080905
84	0x3d97edaf	0.074183814
85	0xbdbdf564	-0.0927532
86	0xbe89d896	-0.26923054
87	0xbe919661	-0.28435043
88	0xbb00e113	-0.0019665405
89	0x3e8bb7e0	0.27288723
90	0x3e6b0c71	0.22953965
91	0x3d976e10	0.0739404
92	0xbdb72f41	-0.0894456
93	0xbe1a8a34	-0.15091783
94	0xbe8f68b5	-0.28009573
95	0xbddf2b88	-0.10896975
96	0xbef949a7	-0.48689005
97	0xbf165092	-0.5871669
98	0xbdf7e5ae	-0.12104355
99	0xbe0d44cf	-0.1379578
100	0x3dc4cdc5	0.0960956
101	0x3d589c67	0.052883532
102	0xbe1600d3	-0.14648752
103	0x3dafe091	0.085877545
104	0xbd721afb	-0.05910776
105	0x3e2cc333	0.16871338
106	0x3e16a726	0.147122
107	0xbe979efe	-0.2961349
108	0x3e93d2fa	0.288719
109	0x3c9bdf72	0.019027445
110	0x3e005129	0.1253096
111	0x3d578223	0.052614342
112	0xbdb69501	-0.08915139
113	0x3e996960	0.29963207
114	0xbf08193f	-0.5316352
115	0xbdcfd037	-0.10147136
116	0x3bff371d	0.0077885524
117	0xbe953337	-0.29140636
118	0xbde7096a	-0.112810925
119	0xbe1c9f41	-0.15295126
120	0x3e5df02c	0.2167365
121	0xbc8d6996	-0.017262261
122	0x3e9278cb	0.28607783
123	0xbd353a87	-0.04424527
124	0x3e8435ab	0.25822195
125	0xbdc24ca2	-0.09487273
126	0xbcc16cee	-0.023611512
127	0x3e01246e	0.12611553
128	0x3e994a48	0.29939485
129	0xbe001bcd	-0.12510605
130	0xbe06fd21	-0.13182499
131	0xbe1e3e25	-0.15453394
132	0x3ce5cee7	0.02805276
133	0xbea5862c	-0.32328928
134	0xbe60facd	-0.21970673
135	0x3d941c84	0.072320014
136	0x3cf61823	0.030040806
137	0xbbbb847e	-0.0057225814
138	0xbe5b725c	-0.21430343
139	0xbe20d0a6	-0.15704593
140	0xbee6204e	-0.44946522
141	0x3d39b2a5	0.045336384
142	0x3cd0ea84	0.02550245
143	0x3e8a5866	0.27020568
144	0xbc65120e	-0.013981355
145	0xbe1ac91c	-0.1511578
146	0x8002ea68	-2.6776e-40
147	0xbdf93c40	-0.12169695
148	0xbdabe65d	-0.08393548
149	0x800d3498	-1.212729e-39
150	0xbbdfe461	-0.006832645
151	0xbe23446f	-0.15944074
152	0x3cf5a0ef	0.029983966
153	0xbe5a5e8d	-0.21325131
154	0xbe909772	-0.28240544
155	0xbdb6e95f	-0.08931231
156	0xbe3a17e6	-0.18173179
157	0xbd0ed0d5	-0.034867126
158	0x3d684552	0.056706734
159	0x3e05a665	0.13051756
160	0xbe028298	-0.1274513
161	0x3d9505cb	0.072764955
162	0xbe3dd975	-0.18539985
163	0x3df1e8cf	0.11811983
164	0x3c47c818	0.012193702
165	0xbdb05f35	-0.08611909
166	0x3a8f9d19	0.0010956853
167	0x3d04a839	0.032386992
168	0xbcca68d4	-0.02470819
169	0xbe75a77f	-0.23989676
170	0xbda83df0	-0.08214939
171	0xbea12094	-0.31470168
172	0xbe7f7fbe	-0.24951074
173	0x3e536dbe	0.20647332
174	0x3e3df0f4	0.18548948
175	0x3e1a5ea0	0.15075159
176	0xbe42cb39	-0.19022836
177	0xbd492875	-0.04911085
178	0xbe6cc1f1	-0.23120858
179	0xbca6eb9a	-0.020376015
180	0xbeba25e3	-0.3635703
181	0xbe0ae66d	-0.13564463
182	0x3e9e83c2	0.30959898
183	0x3e640342	0.22266868
184	0x3c8989be	0.016789313
185	0xbd47e5f3	-0.04880328
186	0xbde63dd3	-0.11242261
187	0x3e76ae41	0.2408991
188	0x3c0bcd5a	0.008532846
189	0xbe6a8e89	-0.22905935
190	0xbd4110f6	-0.047135316
191	0xbd8d4f19	-0.06899852
192	0xbe2877be	-0.16451928
193	0x3e03e17f	0.12878989
194	0x3ea012b5	0.31264272
195	0xbc84bc51	-0.016203078
196	0xbd307d69	-0.04308835
197	0x3ce6ffe8	0.028198197
198	0xbc581705	-0.013189082
199	0x3da40c19	0.0801012
200	0x3decb3f9	0.115577646
201	0x3ce16ae9	0.027516799
202	0xbdcb2d98	-0.09920806
203	0xbddfbbb7	-0.10924476
204	0xbd37e724	-0.044898167
205	0x3de8b8b0	0.11363351
206	0x3d23814c	0.03991823
207	0xbe441e8b	-0.19152276
208	0xbea49d72	-0.3215137
209	0x3cafe3e6	0.021470975
210	0x3e6bd0d5	0.23028882
211	0x3e78b575	0.2428797
212	0x3dd88ddd	0.10573933
213	0xbe13929d	-0.14411397
214	0xbe1ad314	-0.15119582
215	0x3e80a8da	0.25128824
216	0x3c6f27e9	0.014596918
217	0x3e02c0ce	0.12768862
218	0x3e357283	0.17719464
219	0xbda65f41	-0.08123637
220	0x3da2acbe	0.07943104
221	0x00007649	4.2433e-41
222	0xbe8137d2	-0.252379
223	0xbf18efb3	-0.5974075
224	0x000365cf	3.12029e-40
225	0xbdcc665e	-0.099804625
226	0x3d4c40bc	0.049866423
227	0x3df3cb35	0.11903993
228	0xbe1a130e	-0.15046331
229	0x3d1e445e	0.03863942
230	0xbd1622cf	-0.03665429
231	0x3e21490b	0.1575052
232	0x3dd2f759	0.10301084
233	0xbd67c66b	-0.05658571
234	0x3e19872a	0.14992967
235	0xbd77257b	-0.06033848
236	0x3e0e7848	0.13913071
237	0xbea45d1a	-0.3210228
238	0x3d0a26fe	0.033728592
239	0x3d0c0a3c	0.034189448
240	0x3dfe5934	0.12419358
241	0x3d56e2ca	0.052462377
242	0xbdeed239	-0.116611905
243	0x3e729743	0.23690514
244	0x3dfd8110	0.12378132
245	0xbd2de2b7	-0.04245254
246	0x3dd12b33	0.10213318
247	0xbcc0bcef	-0.02352759
248	0xbd6255c2	-0.055257566
249	0x3daff06a	0.08590777
250	0xbda6d9ec	-0.08147034
251	0x3b543cd2	0.0032384885
252	0xbd7b1ecb	-0.061308663
253	0xbe32484f	-0.17410396
254	0xbd8d2a75	-0.06892864
255	0xbdb35047	-0.08755546

gate_conv.lin2.weight f4 [64, 64]
0	0xbe15e48e	-0.14637968
1	0x3dfe276a	0.124098614
2	0xbd166e53	-0.036726307
3	0x3e098e61	0.1343322
4	0x3dad3fa3	0.08459403
5	0x3dd04164	0.10168722
6	0x3d0a538f	0.033771094
7	0xbe0fdd80	-0.1404934
8	0x3e6dd3f2	0.23225382
9	0xbeb32628	-0.34990048
10	0xbcb0616e	-0.021530833
11	0x3d6d2c9a	0.057903863
12	0xbcce9996	-0.02521972
13	0xbe340111	-0.17578532
14	0x3e5aa3d4	0.21351558
15	0x3bb1fe5e	0.0054319343
16	0xbc1ddba8	-0.00963489
17	0xbcfafdbe	-0.030638572
18	0x3dc1bdfd	0.094600655
19	0xbe61035f	-0.21973942
20	0x3d07260b	0.032995265
21	0xbe5bde7e	-0.21471593
22	0x3e628a9c	0.22123188
23	0xbd0c267a	-0.03421638
24	0x3d4ed726	0.05049815
25	0xbdb0537c	-0.086096734
26	0xbe4ef2b4	-0.20209771
27	0xbdfd715c	-0.12375137
28	0xbee26a3a	-0.4422167
29	0x3dd3b4c3	0.10337212
30	0xbe727d64	-0.23680645
31	0x3e1efea6	0.15526828
32	0xbc2be654	-0.010491926
33	0x3d1cffa1	0.038329724
34	0xbd850174	-0.06494418
35	0x3de58254	0.11206499
36	0xbe53f7a5	-0.20699938
37	0xbe21b313	-0.15790968
38	0x3e1b8f43	0.15191369
39	0x3d1ef0e5	0.038803954
40	0xbd92dd2a	-0.0717109
41	0x3e4aec85	0.19816788
42	0x3e3a6b4b	0.18204992
43	0xbe152320	-0.1456418
44	0x3e032ee7	0.1281086
45	0x3d3184d0	0.04333955
46	0x3ea8154b	0.32828745
47	0xbe0b327f	-0.13593481
48	0xbe46d9d9	-0.1941904
49	0xbd4ca596	-0.049962603
50	0x3d8305e6	0.063976094
51	0xbe153f6e	-0.14574978
52	0x3e57a8bd	0.21060462
53	0xbe224df5	-0.15850051
54	0x3e09fdff	0.13475798
55	0xbd947987	-0.07249742
56	0x3de06f66	0.109587476
57	0xbe1812fe	-0.14850995
58	0x3d75ec51	0.060039822
59	0xbd7216dc	-0.05910383
60	0xbeb21728	-0.34783292
61	0xbe54aaa2	-0.20768216
62	0xbe3b1ca2	-0.18272641
63	0x3ec677ee	0.38763374
64	0x3da65cb6	0.08123152
65	0x3e4d2157	0.2003225
66	0xbd96e21f	-0.07367348
67	0xbceff68f	-0.029292373
68	0xbe5c98a9	-0.2154261
69	0x3de944fc	0.11390111
70	0xbe60e38f	-0.21961807
71	0xbe57b971	-0.21066834
72	0x3e82980f	0.25506637
73	0xbc12979a	-0.008947277
74	0x3c48255a	0.012215937
75	0x3e240ff9	0.16021718
76	0x3deacdc1	0.11465026
77	0x3d90fbdc	0.07079288
78	0x3e006e80	0.12542152
79	0x3e83f51c	0.2577294
80	0xbc3eda73	-0.011648762
81	0x3e4a6c8d	0.19767971
82	0x3d8f3bb0	0.06993806
83	0x3de5da3f	0.11223268
84	0xbd4bc0da	-0.049744464
85	0xbe3a1ad3	-0.18174295
86	0x3e452a41	0.192544
87	0xbe8e3fde	-0.27783102
88	0x3e1e7b5c	0.15476745
89	0x3e7c61e1	0.24646713
90	0xbc251d7c	-0.01007783
91	0xbe370d38	-0.17876136
92	0xbea20597	-0.3164489
93	0x3e285e25	0.16442163
94	0xbde8faf8	-0.113759935
95	0x3d2741a8	0.0408341
96	0xbe17d9af	-0.14829133
97	0x3e7ed0a5	0.24884279
98	0xbe1aab17	-0.15104328
99	0xbd7b415b	-0.061341625
100	0xbe238e62	-0.15972283
101	0xbe6c5eb6	-0.23083004
102	0xbe3d8b60	-0.18510199
103	0xbe7e3beb	-0.24827544
104	0xbd52fb70	-0.05150932
105	0x3ddedcb1	0.10881937
106	0x3e191fa1	0.14953472
107	0xbe64698a	-0.22305885
108	0xbd2e9a2c	-0.0426275
109	0xbdab467f	-0.083630554
110	0x3e58b223	0.21161704
111	0xbe6aed97	-0.22942196
112	0xbe462825	-0.19351251
113	0xbda56925	-0.08076695
114	0x3dba70f0	0.09103572
115	0x3ddf3f9c	0.109008044
116	0xbde77671	-0.11301888
117	0xbdbf3c98	-0.09337729
118	0x3d8f8a0b	0.070087515
119	0x3e162c35	0.14665301
120	0xbe0585d5	-0.13039334
121	0xbc09952b	-0.008397381
122	0x3d4995fa	0.049215294
123	0x3e1bc542	0.15211967
124	0xbe345ae7	-0.17612801
125	0x3e621872	0.22079638
126	0x3c010704	0.007875208
127	0x3e99f62d	0.3007063
128	0xbe0152bd	-0.12629218
129	0xbd7ddb6d	-0.06197684
130	0x3e17010d	0.14746495
131	0x3dfb513c	0.122713536
132	0xbd866ae5	-0.06563357
133	0xbdd393f7	-0.103309564
134	0x3d8740b6	0.066041395
135	0x3ed09757	0.40740463
136	0x3dad84f3	0.08472624
137	0x3ec94dba	0.39317113
138	0xbd81a216	-0.063297436
139	0x3dfbb620	0.12290597
140	0x3e828497	0.25491783
141	0x3e1fee0d	0.15618153
142	0xbe6003dd	-0.21876474
143	0xbd474307	-0.048647907
144	0xbe129e87	-0.14318286
145	0x3d819ee7	0.06329136
146	0xbe14839c	-0.1450333
147	0xbcbdc23f	-0.023163913
148	0xbd870804	-0.06593326
149	0x3e3eb669	0.18624271
150	0xbdc56e51	-0.09640182
151	0x3e69c8ec	0.22830552
152	0x3e1b50bb	0.15167515
153	0x3da25979	0.07927222
154	0xbdfd9f14	-0.12383857
155	0x3e001f8c	0.12512034
156	0x3daf9214	0.08572784
157	0xbd94b893	-0.07261767
158	0x3e22fa52	0.15915802
159	0xbdf329cb	-0.11873206
160	0xbe07f2d2	-0.13276222
161	0xbe2b59bb	-0.16733448
162	0x3d99aadf	0.07503294
163	0xbe3a22c2	-0.18177322
164	0x3d911df8	0.07085794
165	0x3da3389e	0.07969783
166	0x3e26171c	0.16219753
167	0x3e23a575	0.15981086
168	0xbdd80a9a	-0.10548897
169	0xbdccafef	-0.09994494
170	0x3d8832ad	0.06650291
171	0x3e74cddd	0.23906656
172	0xbc5673b2	-0.013089107
173	0xbd77d891	-0.06050927
174	0xbe90f606	-0.283127
175	0x3dcd1b82	0.10015012
176	0x3e692e9a	0.22771683
177	0xbd79ca7f	-0.06098413
178	0x3ccbffbc	0.024902217
179	0xbdd1ba32	-0.10240592
180	0xbdefd6b9	-0.11710877
181	0x3ecb515e	0.39710516
182	0xbe09ec8b	-0.1346914
183	0xbdbd51b6	-0.09244101
184	0xbc4f2503	-0.012643102
185	0x3d589b05	0.052882213
186	0xbdd8df8d	-0.10589514
187	0x3d955809	0.07292182
188	0x3c14bbc1	0.009077967
189	0xbd65b8c2	-0.056084402
190	0x3da34492	0.07972063
191	0xbeb67865	-0.3563873
192	0xbe6fd745	-0.23421963
193	0xbe95c823	-0.29254255
194	0x3d8d49d9	0.06898851
195	0xbe277117	-0.16351734
196	0xb97f2d1a	-0.00024335497
197	0xbd3f4eb2	-0.04670591
198	0x3daca128	0.084291756
199	0x3c15d0bc	0.009144004
200	0x3e217cd2	0.15770271
201	0x3e0161d0	0.12634969
202	0xbd12244c	-0.035679147
203	0x3da5c64b	0.08094462
204	0xbe605567	-0.21907578
205	0x3e32ce80	0.17461586
206	0x3e000adf	0.12504147
207	0xbe4f07a1	-0.20217754
208	0x3d8ba672	0.06818856
209	0xbe17aaac	-0.148112
210	0xba815cd6	-0.0009869586
211	0x3c0019dc	0.007818665
212	0xbd91eea8	-0.07125598
213	0xbd96ce3f	-0.07363557
214	0x3e1caa6d	0.15299387
215	0xbc504051	-0.012710647
216	0xbdb4061e	-0.08790229
217	0x3d44e1f2	0.04806704
218	0x3da7e084	0.0819712
219	0x3e01fee2	0.12694886
220	0xbe771382	-0.24128535
221	0xbe464ad8	-0.19364488
222	0x3ce378f5	0.027767638
223	0x3e2e8c69	0.1704575
224	0x3e855ec9	0.26048878
225	0xbe0eab82	-0.13932613
226	0x3dcfd7a8	0.10148555
227	0x3d92078a	0.07130344
228	0xb8a9e384	-8.100926e-05
229	0x3d26b0ab	0.040695827
230	0x3e0f7246	0.14008436
231	0xbe736b46	-0.2377139
232	0xbe0a7111	-0.13519694
233	0x3dab15e8	0.08353788
234	0xbe734999	-0.23758544
235	0x3e16663e	0.1468744
236	0xbe51b678	-0.20479763
237	0x3b6d4a16	0.0036207489
238	0x3dcad166	0.09903221
239	0x3d6e6d3e	0.05820965
240	0xbd021a70	-0.031763494
241	0xbd219b87	-0.039454963
242	0x3e48a584	0.19594389
243	0x3e25a194	0.16174918
244	0x3e30aa79	0.1725253
245	0xbe2029fa	-0.15641013
246	0x3e076ab4	0.13224298
247	0xbdaab7d7	-0.08335846
248	0xbd91f665	-0.07127074
249	0x3d38046a	0.044926085
250	0xbe1ed6b6	-0.15511593
251	0x3b84c350	0.0040516034
252	0xbe220bcf	-0.15824817
253	0xbebcaaef	-0.36849162
254	0x3e6e7c15	0.23289521
255	0xbe7f49e2	-0.24930528

gru.weight_ih f4 [192, 64]
0	0x3d8b8b2d	0.06813655
1	0x3dca1bb6	0.09868567
2	0xbdf2b349	-0.11850602
3	0x3e2bf8d4	0.16794139
4	0x3bd76948	0.00657383
5	0x3d6c1f0e	0.057646804
6	0xbdbc51eb	-0.09195312
7	0xbd9f9147	-0.07791381
8	0xbe2f541b	-0.17121927
9	0x3dec048d	0.115243055
10	0xbe48da25	-0.19614466
11	0x3de6bde2	0.11266686
12	0x3c519600	0.01279211
13	0xbd594e2f	-0.053053077
14	0x3d5dd41b	0.054157358
15	0x3d8d3773	0.06895342
16	0xbd020d94	-0.03175123
17	0xbe67c4c7	-0.22633658
18	0xbe23ad3d	-0.15984054
19	0xbd888c90	-0.06667435
20	0xbc1d8308	-0.00961376
21	0xbe16137e	-0.14655873
22	0xbdc58b66	-0.09645729
23	0x3db5ddf2	0.08880223
24	0xbc998f9a	-0.018745232
25	0xbe52c34b	-0.20582311
26	0x3db24d91	0.08706201
27	0xbd87f880	-0.066391945
28	0xbcb28017	-0.021789594
29	0x3ddddc40	0.10833025
30	0x3dc5b73a	0.09654088
31	0xbc80bfc9	-0.01571645
32	0x3c3a5e7f	0.011375069
33	0xbcb5adf3	-0.022177672
34	0x3a97a7cc	0.0011570393
35	0x3d2b422b	0.04181115
36	0x3de57a22	0.112049356
37	0xbd79e48c	-0.061008975
38	0x398f258a	0.00027303054
39	0xbc63dd2e	-0.013907714
40	0xbe1ceac0	-0.15323925
41	0xbd5e78d4	-0.05431445
42	0x3d3d4cf1	0.046215955
43	0xbd1ece96	-0.038771234
44	0x3e47f1a9	0.1952578
45	0xbc10706d	-0.008815867
46	0x3dfa5177	0.122225694
47	0xbe32cb32	-0.17460325
48	0x3e3ec30a	0.18629089
49	0x3debcaa0	0.11513257
50	0x3cbe0a0f	0.023198156
51	0x3cfc8607	0.030825628
52	0xbb9431cc	-0.004522538
53	0xbdf0f906	-0.117662475
54	0xbd4678ef	-0.048455175
55	0xbe1403c7	-0.14454566
56	0x3c6f555e	0.0146077555
57	0x3d570f6f	0.052504953
58	0x3daed798	0.08537215
59	0xbd5c1f70	-0.05374092
60	0x3e594410	0.2121737
61	0xbdfbdd9d	-0.12298129
62	0x3d3d937d	0.046283234
63	0xbe22be7c	-0.15892977
64	0x3dc6c157	0.097048454
65	0x3d3f055a	0.046635963
66	0xbdae6513	-0.08515372
67	0x3c52c334	0.012863923
68	0x3e0b97d6	0.1363214
69	0xbd6e2767	-0.058143046
70	0x3d3ba77f	0.045814034
71	0x3da1ae1d	0.078945376
72	0x3d06b2a1	0.032885198
73	0x3e4cb2a4	0.19990021
74	0x3dfc2207	0.12311178
75	0xbc0f9db5	-0.008765628
76	0xbe641698	-0.22274244
77	0x3d74a810	0.05973059
78	0x3e6dd14d	0.23224373
79	0x3e0a3948	0.13498414
80	0xbd51f7c2	-0.05126167
81	0xbc6016f9	-0.013677352
82	0x3e390182	0.18066981
83	0x3da586eb	0.08082374
84	0x3d9c0e57	0.076199226
85	0x3ddc4cfa	0.107568696
86	0xbd6102f6	-0.054934464
87	0x3e1e8897	0.15481792
88	0xbdf03c1b	-0.11730214
89	0x3b2b6bc6	0.0026156767
90	0xbcd4249a	-0.02589636
91	0x3e54cc5b	0.2078108
92	0x3def68c2	0.11689903
93	0xbe70eadd	-0.23527093
94	0x3d3a89f8	0.045541734
95	0x3e0a5a1d	0.13510938
96	0xbe25ceeb	-0.16192214
97	0xbdb8dbcb	-0.09026297
98	0xbcbf8b68	-0.023381904
99	0xbe13ed16	-0.1444591
100	0x3d453660	0.04814756
101	0xbe373023	-0.17889456
102	0xbda74157	-0.081667595
103	0x3c24ee50	0.010066584
104	0x3de6241e	0.112373576
105	0xbdbb1581	-0.09134961
106	0x3dfa1e67	0.1221283
107	0xbdc32c53	-0.095299385
108	0x3dbf391a	0.09337063
109	0x3d16f3ec	0.036853716
110	0x3d06ce13	0.03291137
111	0x3e097fd0	0.13427663
112	0xbea6039b	-0.32424626
113	0xbddb65eb	-0.10712799
114	0xbcf3d190	-0.029763013
115	0x3e63e728	0.22256148
116	0x3d9ce749	0.07661302
117	0xbdeb31d3	-0.114841126
118	0xbdac3afe	-0.08409689
119	0x3d55681f	0.05210125
120	0xbe127973	-0.14304142
121	0xbe477d61	-0.19481422
122	0xbe238ae0	-0.15970945
123	0x3e456a44	0.19278818
124	0x3e6fbca2	0.23411801
125	0x3debf512	0.11521353
126	0x3e7ae480	0.24501228
127	0xbd630072	-0.055420347
128	0xbcbf0d80	-0.023321867
129	0xbe50e2f1	-0.20399071
130	0x3d9f085a	0.07765265
131	0xbd3abaea	-0.04558841
132	0xbcbb0b53	-0.022832548
133	0xbd8569da	-0.0651433
134	0xbd1a7490	-0.03770882
135	0xbcfc4b00	-0.030797482
136	0x3c9ac9cf	0.018895058
137	0x3cb4e5bb	0.0220822
138	0xbc20463f	-0.009782373
139	0xbcee6dac	-0.02910503
140	0x3ca1ad27	0.019735886
141	0x3c63c108	0.013901003
142	0x3d21cac5	0.039500017
143	0x3d9e3478	0.07724851
144	0x3d8df5ec	0.069316715
145	0x3cb0dba9	0.021589117
146	0x3d209d69	0.039212618
147	0x3dd6c312	0.104864255
148	0xbc1ed3bc	-0.009694036
149	0x3d40dd32	0.04708595
150	0x3dbfcb5e	0.09364961
151	0xbc4a0bf4	-0.012331951
152	0xbd29c98a	-0.04145197
153	0x3dbefbd2	0.09325375
154	0xbd1c7b8f	-0.038203772
155	0xbd9db5e9	-0.07700712
156	0xbcd593b9	-0.026071416
157	0x3bfdda13	0.0077469437
158	0x3d20e2f2	0.039278932
159	0xbdcec88a	-0.100968435
160	0xbdaa5351	-0.083166726
161	0xbd3de8d8	-0.046364635
162	0xbd3ba241	-0.045809034
163	0xbd3e7515	-0.046498377
164	0xbd0b6373	-0.03403039
165	0xbc3aa1fe	-0.011391161
166	0x3df3d4f9	0.11905856
167	0xbc9928a4	-0.018696137
168	0x3c7f8e40	0.01559788
169	0xbd76c63f	-0.060247656
170	0xbd9dfc37	-0.07714122
171	0x3b90e31f	0.004421606
172	0xbce5bd3e	-0.02804434
173	0x3cf88eb0	0.030341476
174	0x3de972b2	0.113988295
175	0x3d91dcc1	0.071221836
176	0xbdc99561	-0.09842945
177	0xbdedc679	-0.11610121
178	0x3d656cca	0.056011952
179	0xbcfe9082	-0.031074766
180	0xbc1cd439	-0.009572082
181	0x3ca7c170	0.02047798
182	0x3d42772a	0.047476925
183	0x3ca962a4	0.020676918
184	0x3bcec177	0.006309684
185	0x3d264fc4	0.040603414
186	0x3ca04671	0.01956484
187	0x3d6f74d0	0.05846101
188	0xbe05abf5	-0.13053878
189	0x3da53cc9	0.080682345
190	0xbda4fea9	-0.08056385
191	0x3d6b70d3	0.057480644
192	0xbd2c0eb0	-0.042006195
193	0xbdab2883	-0.08357336
194	0xbd3a1c30	-0.045437038
195	0xbdcacb5b	-0.09902068
196	0xbcca251b	-0.024675896
197	0x3dc4282a	0.09577973
198	0xbe0c5662	-0.13704827
199	0xbd844650	-0.064587235
200	0x3d8525cd	0.065013506
201	0xbbc74074	-0.0060806815
202	0x3d243a0c	0.04009442
203	0x3d3d3188	0.046189815
204	0xbd60fb43	-0.05492712
205	0x3d81dcdf	0.06340956
206	0x3d08ef63	0.033431422
207	0x3d4dd0dd	0.050248016
208	0xbd7c0b5b	-0.061534267
209	0x3d34fc8a	0.044186153
210	0x3de3e665	0.11127929
211	0x3d804360	0.06262851
212	0x3cffd8d4	0.031231321
213	0x3db31fcc	0.08746299
214	0x3c8f1e65	0.017470548
215	0x3d7c794e	0.061639123
216	0xbe0ad8a1	-0.135592
217	0x3d174c0e	0.036937766
218	0x3c478e02	0.012179853
219	0x3dab2c89	0.08358104
220	0x3db58534	0.08863297
221	0x3bab50f1	0.005228155
222	0xbdc9d613	-0.098552845
223	0xbdc87427	-0.09787779
224	0xbc3492c6	-0.011021322
225	0xbd999eee	-0.075010166
226	0x3e1796dc	0.14803642
227	0x3d770fc9	0.06031779
228	0x3d9746cd	0.07386551
229	0xbd23fd78	-0.04003665
230	0xbba92c63	-0.005162762
231	0x3e2c5642	0.1682978
232	0xbcaae4ae	-0.020860996
233	0x3d9820ac	0.07428107
234	0x3dd328e6	0.10310535
235	0xbc7e0d2b	-0.015506069
236	0xbc81edb8	-0.015860423
237	0x3ddf3f9f	0.10900807
238	0xbd04e8a4	-0.032448426
239	0x3d15d107	0.036576297
240	0x3cbaf579	0.022822129
241	0xbdc15dee	-0.09441744
242	0x3bb64213	0.005562076
243	0xbd64b3f2	-0.05583567
244	0xbc91d99e	-0.017803963
245	0x3cc248be	0.023716327
246	0xbca987b8	-0.020694599
247	0x3e2e084b	0.16995351
248	0xbdc083f6	-0.094001696
249	0x3d049c44	0.03237559
250	0xbda488f6	-0.08033936
251	0x3cf47420	0.029840529
252	0xbdda01e9	-0.106448956
253	0x3d861a64	0.06548002
254	0xbcb192d2	-0.021676455
255	0x3d9942c1	0.074834354

gru.weight_hh f4 [192, 64]
0	0x3e16961c	0.147057
1	0x3dbf5474	0.0934228
2	0x3dc94c8f	0.098290555
3	0xbd0c628c	-0.03427367
4	0x3e09eb7d	0.13468738
5	0x3d3043a9	0.043033276
6	0x3d809708	0.06278807
7	0x3da570f0	0.08078182
8	0x3e04e74c	0.12978858
9	0x3e4aff02	0.1982384
10	0x3e68542f	0.22688363
11	0x3d3a8f37	0.045546737
12	0x3e31aa69	0.17350163
13	0x3dda6873	0.10664453
14	0x3e4cf291	0.20014407
15	0x3ddab8bc	0.106797665
16	0xbc7f7166	-0.015591001
17	0x3cb92d9d	0.022604758
18	0x3e0e0a94	0.13871223
19	0x3de60f5a	0.11233397
20	0x3e4716ae	0.19442245
21	0x3c75d555	0.015004476
22	0x3c982c4e	0.018575814
23	0x3c752cc9	0.014964291
24	0x3d872f58	0.06600827
25	0x3e379ff7	0.17932115
26	0x3dba72e7	0.09103947
27	0x3cac43ea	0.021028478
28	0xbddb70d2	-0.10714878
29	0x3dccfd91	0.100093015
30	0x3d4bf9fd	0.049798954
31	0x3e05934b	0.13044469
32	0x3d4a21cd	0.04934864
33	0x3dc8627b	0.09784409
34	0x3ce49b6b	0.02790614
35	0x3dde90cd	0.10867462
36	0x3e652bc3	0.22379975
37	0x3db3b8bc	0.0877547
38	0x3dfddfa6	0.12396173
39	0x3dd2f142	0.102999225
40	0xbcda3e50	-0.026641041
41	0xbc22053b	-0.009888942
42	0x3d6a119a	0.057145692
43	0x3dac77c3	0.0842128
44	0x3c59b31b	0.013287331
45	0x3ddfcad3	0.109273575
46	0x3dd96828	0.10615569
47	0x3e2ffed8	0.17187059
48	0x3bf2ce1e	0.007409825
49	0x3de7cab6	0.11317961
50	0xbc841e44	-0.016127713
51	0x3dd44de4	0.10366419
52	0x3c9fd6dd	0.019511634
53	0x3dcfe5c4	0.10151246
54	0x3df9221a	0.121647075
55	0x3d2cab5e	0.042155616
56	0x3d7fb9f1	0.062433187
57	0x3e1c465d	0.15261216
58	0x3d719427	0.05897918
59	0x3d9b8360	0.07593417
60	0x3e175d2d	0.14781637
61	0x3e15e3bf	0.1463766
62	0xbd63321f	-0.05546772
63	0x3e1cb63a	0.15303889
64	0xbda3eb99	-0.08003921
65	0xbb7c18b3	-0.003846687
66	0xbe54ad92	-0.20769337
67	0x3ed48361	0.41506484
68	0x3e11dc59	0.14244212
69	0xbd529d9e	-0.051419847
70	0xbdbd5303	-0.09244349
71	0x3e86f0b2	0.2635551
72	0xbe21cbde	-0.15800425
73	0xbc26826e	-0.010162933
74	0xbe3ae6a9	-0.18252052
75	0xbe39af4d	-0.18133278
76	0x3d7b4a7b	0.061350327
77	0xbce0247a	-0.027361143
78	0xbe956ae8	-0.29183125
79	0xbcbe43c8	-0.02322568
80	0x3e1e60ca	0.1546661
81	0x3e0025d4	0.1251443
82	0xbe2cdcca	-0.168811
83	0xbdd18313	-0.102300785
84	0xbec7debc	-0.3903712
85	0x3d82dc6a	0.06389697
86	0x3e3a63c1	0.18202116
87	0x3e1de5e5	0.15419729
88	0xbe00dadc	-0.12583488
89	0x3bbd07ce	0.0057687527
90	0xbdae7d94	-0.08520046
91	0x3c552919	0.013010287
92	0x3e9df749	0.30852726
93	0x3dc2b261	0.09506679
94	0x3d85cc24	0.06533077
95	0x3dc6efa3	0.09713676
96	0xbe263399	-0.1623062
97	0xbe12c700	-0.14333725
98	0x3d9e0c43	0.077171825
99	0xbd1917ff	-0.0373764
100	0xbcd8c1dc	-0.026459627
101	0x3cc68f7e	0.024238344
102	0xbdd0fe0f	-0.10204708
103	0x3d905fea	0.07049544
104	0xbd11e7a9	-0.03562132
105	0x3e88f353	0.26748142
106	0x3e78d543	0.24300103
107	0xbcfeda14	-0.031109847
108	0xbe378713	-0.1792262
109	0x3c5ebb78	0.013594501
110	0xbe1bf845	-0.15231426
111	0xbd928f60	-0.07156253
112	0xbd9b8d04	-0.07595256
113	0x3dde2d3c	0.108484715
114	0x3e51d341	0.20490743
115	0x3e36da89	0.17856802
116	0x3e043f5f	0.12914799
117	0xbce54236	-0.027985673
118	0xbda737cb	-0.081649385
119	0xbd8ec5c9	-0.06971318
120	0x3c9139e3	0.017727798
121	0xbea31898	-0.318547
122	0x3e99b71f	0.30022523
123	0x3e12a549	0.14320864
124	0xbe227c81	-0.15867807
125	0xbd6d972d	-0.0580055
126	0x3e5668d4	0.20938426
127	0x3e3ffefa	0.1874961
128	0x3e4f94d5	0.20271619
129	0x3d5c8d04	0.05384542
130	0x3e3730d3	0.17889719
131	0xbc8070b0	-0.015678734
132	0x3dd28780	0.10279751
133	0x3c9ac879	0.018894421
134	0x3e0b665b	0.13613264
135	0x3d45eac6	0.0483196
136	0x3e2d8ae5	0.16947515
137	0x3dd9feb2	0.106442824
138	0x3e4a3935	0.19748385
139	0x3e4025df	0.18764447
140	0x3ce7c3dc	0.028291635
141	0x3cecb65a	0.028895546
142	0x3e251f19	0.16125144
143	0x3da3dfbc	0.08001658
144	0x3aad025b	0.0013199555
145	0xbca4a978	-0.02010034
146	0x3e3776e0	0.17916441
147	0x3d3a1641	0.04543138
148	0x3e638b9d	0.22221227
149	0x3dbe370b	0.09287842
150	0x3d17aebf	0.037031885
151	0xbafa934e	-0.0019117387
152	0x3cd423a3	0.0258959
153	0x3c1bd79a	0.009511853
154	0x3d82ebc0	0.06392622
155	0x3df8eb57	0.121542625
156	0x3c5ebf08	0.01359535
157	0xbcbd12f5	-0.023080328
158	0xbd58c27f	-0.05291986
159	0x3d8888a9	0.06666691
160	0x3d828edd	0.06374905
161	0x3e4ff90a	0.20309845
162	0x3be27f6a	0.0069121616
163	0x3d24e240	0.04025483
164	0x3e04fbb3	0.1298664
165	0x3d19c7ad	0.03754394
166	0x3dfb3631	0.122661956
167	0xbd22b8af	-0.03972691
168	0x3e09217b	0.13391678
169	0xbd08df96	-0.033416353
170	0x3d9167ca	0.07099874
171	0x3e311702	0.17293933
172	0x3e1ed9be	0.1551275
173	0x3d910b05	0.0708218
174	0x3df587dc	0.11988804
175	0x3dd80a26	0.10548811
176	0xbaf8fec6	-0.0018996827
177	0x3d8a894e	0.0676447
178	0x3dc3d81e	0.095627055
179	0x3de0f4f0	0.10984218
180	0x3be6fd45	0.007049235
181	0x3d3b231d	0.045687784
182	0x3e5799b8	0.21054733
183	0x3e243596	0.16036066
184	0x3d689289	0.05678037
185	0x3e2f2e58	0.17107522
186	0xbc0b5856	-0.008504948
187	0x3cf1ec18	0.029531524
188	0x3d8647ad	0.0655664
189	0x3c59ada3	0.013286027
190	0x3e5f9b40	0.21836567
191	0xbceaea53	-0.028676188
192	0x3e615540	0.22005177
193	0x3e21b3ac	0.15791196
194	0xbdba3a47	-0.09093147
195	0x3d4495c7	0.0479944
196	0x3d23bf48	0.039977342
197	0x3c9703ac	0.018434368
198	0x3e8c5d5e	0.27414984
199	0xbbbfddd5	-0.005855302
200	0x3ee73baa	0.45162708
201	0x3e599987	0.21249972
202	0xbd388eb9	-0.045057986
203	0xbdd1d1a7	-0.10245066
204	0x3bfac8c8	0.0076533295
205	0x3e72942c	0.23689336
206	0x3ec4cad0	0.38435984
207	0x3e3ffefb	0.18749611
208	0x3da38150	0.07983649
209	0x3c291d98	0.010321997
210	0xbe00a0a7	-0.12561284
211	0xbc520927	-0.012819565
212	0xbd2508f9	-0.04029176
213	0x38d4f3c5	0.000101543534
214	0x3d955061	0.07290722
215	0x3e1eb368	0.15498126
216	0x3d2e7043	0.04258753
217	0x3e0181ee	0.1264722
218	0x3a7dbdf3	0.0009679489
219	0x3c788d48	0.015170403
220	0x3e3bb139	0.18329324
221	0xbe52c44f	-0.20582698
222	0x3c2ca6d1	0.010537819
223	0x3e1a052b	0.15041034
224	0x3e126930	0.14297938
225	0x3ec5818f	0.38575408
226	0x3c093075	0.008373369
227	0x3e710143	0.23535638
228	0x3ddce87f	0.107865326
229	0x3dfa9329	0.122351
230	0x3ebe2e9a	0.3714493
231	0xbdc3ab6d	-0.09554181
232	0x3dac8e73	0.084256075
233	0x3c0c5501	0.008565188
234	0x3d589a2f	0.052881416
235	0xbdde9ef1	-0.108701594
236	0x3e91e73d	0.28496733
237	0x3e126765	0.14297254
238	0x3ddc06f5	0.107435144
239	0x3ead487a	0.33844358
240	0x3c2aa6a7	0.01041571
241	0x3e8e104b	0.27746806
242	0x3e4ca8a9	0.19986214
243	0x3d6abd88	0.057309657
244	0x3e8bcbd9	0.2730396
245	0x3e912970	0.28351927
246	0x3d453252	0.048143692
247	0x3e66971c	0.22518581
248	0x3e66715f	0.22504185
249	0x3e07b079	0.13250913
250	0xbcf235b2	-0.02956662
251	0x3dd96cf8	0.10616487
252	0x3e9f8d8b	0.31162676
253	0x3e912273	0.28346595
254	0x3e5e814f	0.21729015
255	0x3e34abdd	0.17643686

gru.bias_ih f4 [192]
0	0x3e50506b	0.20343177
1	0x3e01677b	0.12637131
2	0x3dbde9f3	0.09273138
3	0x3e51ec16	0.20500216
4	0xbab88062	-0.0014076347
5	0x3e4e184d	0.20126458
6	0x3bfb103d	0.007661848
7	0x3dc9185f	0.098191015
8	0x3dad6d20	0.084680796
9	0x3e755c8d	0.23961087
10	0x3e361a0d	0.17783375
11	0x3d6e99be	0.05825209
12	0x3e56d50a	0.20979705
13	0x3ba09c9a	0.004901481
14	0x3e3b1f35	0.18273623
15	0x3e536ace	0.20646212
16	0x3cefbcce	0.029264834
17	0x3dfc9403	0.123329185
18	0x3dfe068b	0.12403592
19	0x3e7b8e67	0.24566041
20	0x3e46debd	0.19420905
21	0x3e0f8af7	0.14017855
22	0x3e8ebbd8	0.27877688
23	0x3e12cb94	0.14335471
24	0x3d589a7e	0.05288171
25	0x3e683648	0.22676957
26	0x3de09d36	0.109674856
27	0x3e3763ed	0.17909212
28	0xbd12516b	-0.035722177
29	0x3e2a1ad3	0.16611795
30	0x3da7fa07	0.08201986
31	0x3d84f694	0.064923435
32	0x3e96fdb3	0.29490432
33	0x3dff7406	0.124733016
34	0x3e1f1a9b	0.15537493
35	0x3dc2dfa8	0.09515315
36	0x3dfaa4d0	0.12238467
37	0x3e95c975	0.29255262
38	0x3e374ff1	0.17901589
39	0x3d752563	0.059850108
40	0x3e341043	0.17584328
41	0x3e1d9579	0.1538905
42	0x3e7c3ba6	0.24632129
43	0xbc7d7917	-0.015470765
44	0x3d718607	0.05896571
45	0x3dfb8ed2	0.122831
46	0x3d1295fc	0.035787567
47	0x3d024874	0.031807378
48	0x3d6259a9	0.055261288
49	0x3e08dc4d	0.13365288
50	0x3deb65de	0.11494039
51	0x3d14c03e	0.03631615
52	0x3e08bd60	0.13353491
53	0x3e08845f	0.13331746
54	0x3e33cd85	0.17558868
55	0x3de3ee41	0.11129428
56	0x3e06c2cb	0.13160245
57	0x3dea0281	0.11426259
58	0xbcc69ee1	-0.024245681
59	0x3e31b303	0.17353444
60	0xbcddd09d	-0.027077014
61	0x3d529c31	0.051418487
62	0x3dd4cd77	0.10390752
63	0x3db5e3ef	0.088813655
64	0x3d58bb39	0.052912924
65	0xbd578952	-0.052621193
66	0xbd0ad050	-0.03389007
67	0xbe50d644	-0.20394236
68	0x3cef7588	0.029230848
69	0xbd89b2e6	-0.06723575
70	0x3e2a9d76	0.16661629
71	0x3d1afa8f	0.037836608
72	0x3e8c7069	0.27429512
73	0x3e1bf25a	0.15229169
74	0xbc95f720	-0.018306315
75	0x3c2b552f	0.010457321
76	0x3cac3a8b	0.02102401
77	0xbca68125	-0.020325253
78	0x3e8d7b47	0.27633116
79	0x3d8bc220	0.06824136
80	0x3e94f07b	0.29089722
81	0x3d47b881	0.04875994
82	0xbd676837	-0.05649587
83	0xbd4e2c32	-0.050335117
84	0x3e0a6ecd	0.1351883
85	0x3dd2ccae	0.10292946
86	0x3df2afec	0.11849961
87	0xbdc12954	-0.09431711
88	0xbe01d4c0	-0.12678814
89	0xbd2cdca6	-0.042202614
90	0xbd46c13d	-0.04852413
91	0x3cb1ccd5	0.021704117
92	0x3da8d704	0.08244136
93	0x3dc30aa6	0.095235154
94	0x3e8e3ba6	0.27779883
95	0x3b8f1d87	0.0043675336
96	0xbe659ea0	-0.22423792
97	0x3dd823f2	0.10553731
98	0x3db49f42	0.088194385
99	0x3d639426	0.055561207
100	0x3e180b17	0.1484798
101	0x3ce92d08	0.028463855
102	0x3c1fcead	0.009753865
103	0x3a42220d	0.00074055867
104	0xbd8d8877	-0.06910794
105	0x3d24e5d0	0.04025823
106	0xbb3e4792	-0.0029034358
107	0xbd2321ca	-0.039827146
108	0x3d68bacc	0.05681877
109	0x3c35b108	0.011089571
110	0x3e538c44	0.20658976
111	0xbb482fdf	-0.0030546112
112	0xbd37b3c1	-0.04484916
113	0xbe4c5334	-0.19953614
114	0xbdba1738	-0.0908646
115	0xbd8114ca	-0.06302793
116	0xbdadc39e	-0.08484577
117	0x3cf1610a	0.029465217
118	0xbce4f943	-0.027950888
119	0x3deae2ac	0.114690155
120	0x3bf65644	0.007517608
121	0x3b00221d	0.0019551583
122	0xbd8518e0	-0.06498885
123	0xbd834271	-0.06409157
124	0xbe09f0ba	-0.13470736
125	0x3dfc046c	0.12305531
126	0x3dd084f2	0.10181607
127	0x3d3b7bdc	0.04577242
128	0xbd989482	-0.074502006
129	0xbbe705a9	-0.0070502353
130	0x3d0a3794	0.03374441
131	0xbe0118bf	-0.12607096
132	0x3dc5a859	0.096512504
133	0xbd26f85d	-0.0407642
134	0x3dcae721	0.099073656
135	0x3dc986de	0.09840177
136	0x3da40dd5	0.08010451
137	0x3c0086e2	0.007844659
138	0xbd86402e	-0.0655521
139	0x3d6efe94	0.058348253
140	0xbbc4cb5b	-0.006005687
141	0xbddecc3c	-0.10878798
142	0x3dc39a57	0.09550922
143	0x3d8f9790	0.0701133
144	0x3bafe39b	0.005367709
145	0xbd9efa11	-0.0776254
146	0xbd99c85a	-0.07508917
147	0xbddd3fae	-0.108031616
148	0xbd49a198	-0.049226373
149	0x3da90301	0.08252526
150	0xbc6ae854	-0.014337618
151	0x3c558148	0.013031311
152	0xbc26ce29	-0.010180988
153	0xbdd0aa6d	-0.10188756
154	0xbdaeb75a	-0.08531065
155	0xbd7c2d30	-0.06156653
156	0x3d8d0797	0.06886213
157	0xbd9456c5	-0.072431125
158	0xbd6768a5	-0.05649628
159	0x3c5beb1e	0.0134227555
160	0x3c20cf04	0.009814981
161	0x3d269643	0.040670644
162	0xbc91f978	-0.017819151
163	0x3be240dc	0.0069047045
164	0x3d9b8894	0.075944096
165	0xbd832562	-0.064036146
166	0xbe288e60	-0.16460562
167	0xbba40aaf	-0.0050061564
168	0x3de7bbcf	0.113151185
169	0xbc937384	-0.017999418
170	0x3d839f33	0.06426849
171	0x3d5f73f6	0.05455395
172	0xbda70ff8	-0.08157343
173	0x3d45f3ce	0.048328213
174	0x3d8a16bd	0.06742618
175	0xbd8dd3a8	-0.06925136
176	0x3cc3e908	0.023914829
177	0xbd5b5510	-0.05354792
178	0xbd09cb7a	-0.033641316
179	0xbd0dd3a2	-0.034625657
180	0x3dac863b	0.0842404
181	0x3d956118	0.0729391
182	0x3c62c823	0.013841662
183	0x3d7a3532	0.061085887
184	0xbd06e875	-0.032936532
185	0xbbaff9e8	-0.0053703673
186	0xbe0456fd	-0.12923808
187	0x3de1eac2	0.110311046
188	0xbc01aac6	-0.007914251
189	0xbd06f17b	-0.032945137
190	0xbdd015c8	-0.101604044
191	0x3dac2ff9	0.084075876
