graph_models/agonist/ros/GCN.pth (torch, 357741 bytes, 15 tensors)

conv_layers.0.bias f4 [128]
0.020172475 -0.0041856384 0.03749517 -0.034654476 -0.021897107 0.03791191 -0.002218266 -0.010429178
0.015107018 0.015485343 0.0013945481 -0.005175488 0.008946996 0.042923715 -0.023255445 -0.028995331
0.011480922 -0.012569385 0.02509513 -0.0083378805 -0.017912187 -0.0149065815 0.015099599 -0.012639061
-0.009046554 0.009607517 0.039705068 -0.012031654 -0.036294587 0.0024245945 0.012429558 0.013644045
-0.026925918 -0.015635375 0.029530898 0.02340307 -0.013120853 0.011756667 0.006702753 0.0037691875
-0.020817388 0.013880883 -0.0021279228 0.034858458 -0.031292588 -0.009118523 0.002027258 -0.01588653
-0.046927366 -0.0384021 -0.046879515 -0.016190127 -0.037385397 0.007914661 -0.020881556 -0.021657242
-0.011386649 -0.04255816 -0.027203916 0.033832304 -0.0010227656 -0.021719342 -0.034916826 0.02502391
0.0042165895 0.0044918405 0.0057317573 -0.034607142 -0.017757365 -0.0064983526 0.001702618 0.006426058
-0.028813215 -0.012121938 0.008427097 -0.008624536 0.04581997 0.02390423 -0.024644447 -0.025748992
0.015676694 0.028661363 0.034334116 -0.021294737 0.0027867805 -0.009828118 -0.040771868 0.03852859
-0.028579107 -0.023014426 0.024648333 -0.013091202 0.025844524 -0.0444722 -0.018305788 -0.0007519629
-0.020516302 0.029412286 -0.023523467 -0.02226693 -0.01724731 -0.020580126 -0.0311314 -0.026753146
0.010723394 -0.013257415 0.017997472 -0.008100777 0.023996444 -0.027396075 0.013605147 -0.046880595
-0.020664861 -0.00016220355 0.0017474289 -0.046675283 -0.007840733 -0.034033787 -0.034512926 0.002768315
0.0036800161 0.0033257082 -0.019404639 0.002248902 0.026823552 0.023547854 0.022357177 -0.011130592
00000000: bf40 a53c ae27 89bb 8994 193d daf1 0dbd
00000010: 9061 b3bc 8549 1b3d 5460 11bb 25df 2abc
00000020: 6d83 773c 3cb6 7d3c 45c9 b63a 2497 a9bb
00000030: 6c96 123c c7d0 2f3d 3482 bebc 9e87 edbc
00000040: 7a1a 3c3c d2ef 4dbc 4d94 cd3c 9b9b 08bc
00000050: 94bc 92bc bc3a 74bc 4f64 773c 1014 4fbc
00000060: ff37 14bc d968 1d3c c8a1 223d 6a20 45bc
00000070: a2a9 14bd f2e5 1e3b 58a5 4b3c 468b 5f3c
00000080: be93 dcbc c215 80bc c8ea f13c ccb7 bf3c
00000090: d9f8 56bc 099f 403c c4a2 db3b 7904 773b
000000a0: 3a89 aabc a56c 633c 9f74 0bbb bec7 0e3d
000000b0: a82c 00bd dc65 15bc bfdb 043b 7824 82bc
000000c0: e936 40bd 854b 1dbd bc04 40bd 28a1 84bc
000000d0: 6e21 19bd 7fac 013c cc0f abbc 876a b1bc
000000e0: 118f 3abc 7751 2ebd bfda debc be93 0a3d
000000f0: 520e 86ba c3ec b1bc f204 0fbd f1fe cc3c
00000100: 512b 8a3b 4a30 933b 77d1 bb3b 38c0 0dbd
00000110: e577 91bc 22f0 d4bb 612a df3a ae91 d23b
00000120: b109 ecbc 189b 46bc cf11 0a3c ed4d 0dbc
00000130: b9ad 3b3d ced2 c33c 27e3 c9bc 8def d2bc
00000140: 696c 803c 3ccb ea3c eea1 0c3d 4d72 aebc
00000150: 6ba2 363b 1d06 21bc 6700 27bd 28d0 1d3d
00000160: bb1e eabc c088 bcbc 4deb c93c 7b7c 56bc
00000170: e5b7 d33c 7b28 36bd 05f6 95bc 601f 45ba
00000180: ce11 a8bc 09f2 f03c 49b4 c0bc 2369 b6bc
00000190: 3b4a 8dbc a797 a8bc 4707 ffbc 6a29 dbbc
000001a0: 2db1 2f3c a135 59bc 6f6f 933c 1fb9 04bc
000001b0: 3194 c43c bc6d e0bc 1fe8 5e3c de05 40bd
000001c0: 5b49 a9bc 2f15 2ab9 fc09 e53a 952e 3fbd
000001d0: 6b76 00bc 0367 0bbd 6d5d 0dbd 9e6c 353b
000001e0: 6d2c 713b 20f4 593b 7af6 9ebc 5162 133b
000001f0: 11bd db3c 6ee7 c03c 6626 b73c 165d 36bc

conv_layers.0.lin.weight f4 [128, 32]
-0.00088055537 -0.11586119 0.011276777 0.030733952 0.059318535 0.34524095 0.17546587 0.25018436
0.13955873 -0.035130627 0.44074443 0.07654434 -0.1048835 -0.00061079796 0.0917146 -0.03464872
0.13184944 -1.42733e-40 0.15529433 -0.044931754 -0.0005725292 -0.08100255 8.92266e-40 -5.54128e-40
-0.006319715 -0.13247283 -0.038467254 0.3293644 -1.00954e-40 -7.16234e-40 -0.063611366 0.10958227
0.16769776 -0.109417014 -0.014997325 0.1117499 0.12794608 -0.13185388 0.29328355 0.32611796
0.0932435 0.09509347 0.17975067 -0.078513294 -0.12611304 -0.006155929 0.1300458 0.1016084
0.12978621 1.208017e-39 0.1608721 -0.23068193 -0.0810049 0.15051092 -6.7591e-40 9.67483e-40
0.0413681 -0.02895937 -0.18742576 0.009575614 -7.3284e-40 7.2622e-40 0.14182131 -0.035328113
0.00022293937 -0.2500351 -0.14769445 -0.12628488 0.16504024 0.34333867 -0.2616819 0.36102998
-0.003361215 0.0035604949 0.21645194 0.17118615 0.072469905 0.101470724 -0.129231 0.01027903
-0.2726182 3.93134e-40 -0.17255142 0.15685472 -0.047827315 0.120726846 -6.64528e-40 9.22608e-40
-0.072407916 0.06299348 -0.011561117 -0.1727954 -2.10636e-40 -2.41186e-40 0.17700408 0.10747887
0.009000621 0.109170444 -0.15302286 -0.091334514 -0.14236566 -0.07582454 0.2661385 0.030508237
-0.0040816576 -0.026092758 -0.20051527 0.13176772 0.15431565 -0.08499709 0.10821473 0.044589818
0.08870257 -7.72818e-40 0.12766741 0.04787951 0.11280852 -0.34718987 -1.489272e-39 5.32519e-40
-0.16071291 0.10750496 -0.050879825 -0.24052921 -4.1655e-40 -1.68964e-40 0.065074414 -0.07898729
-0.11701055 0.20700929 -0.18038467 0.01962658 0.08612225 0.30493277 -0.17246279 0.16557647
0.2105084 -0.0954854 0.28386322 -0.038736857 0.065078266 0.13054958 -0.1320348 0.12289397
0.0049252724 3.15727e-40 0.12622906 -0.13281272 0.13633625 -0.052597284 9.18889e-40 -3.39575e-40
-0.084431805 -0.053286117 0.06322946 0.17119837 -6.8683e-41 -1.014585e-39 -0.040125225 -0.22527456
0.06033833 0.21540259 0.0035033454 -3.13555e-40 -0.08461052 0.087129645 -4.3117e-40 2.0157e-40
1.22816e-39 -0.054688297 -0.2810465 0.12712646 -0.141625 -0.14618185 0.13534094 -0.002089179
0.11737647 -4.14549e-40 -0.24692671 0.28568617 -0.04782744 -0.3748597 4.2475e-41 -6.85685e-40
-0.32831758 0.283839 0.042496383 0.06497382 6.06511e-40 3.27472e-40 -0.036285307 -0.2220878
-0.10120564 -0.06738145 0.007758745 -0.09089942 0.10153169 0.13344039 0.37784216 -0.26027745
0.23378608 -0.03016178 0.10433006 0.09700248 -0.12045216 0.10067942 -0.006287719 0.12619449
0.008877477 2.45768e-40 -0.020311488 0.10030079 0.12492222 0.09282424 1.520824e-39 -8.6445e-41
-0.006757191 0.19540875 0.2333418 -0.083672345 -1.366651e-39 9.0328e-40 -0.48530638 -0.109697245
0.01720918 -0.14434025 0.12593803 0.11290943 -0.043787297 -0.07859439 0.1971044 -0.13070114
0.041460577 -0.48804206 0.61276734 0.26119813 0.06628696 -0.036949795 -0.08183003 0.014354504
-0.023459386 -1.216836e-39 0.121096365 0.011873057 -0.1541175 -0.17127028 6.97161e-40 -8.5126e-40
0.15801844 -0.0598837 -0.1429093 0.15907489 -2.1473e-40 1.04518e-39 0.8225198 -0.24375758
00000000: 12d5 66ba a248 edbd 3bc2 383c c5c5 fb3c
00000010: fef7 723d 6cc3 b03e 53ad 333e 2a18 803e
00000020: 7ce8 0e3e 22e5 0fbd 41a9 e13e 47c3 9c3d
00000030: 29cd d6bd f51d 20ba ddd4 bb3d d1eb 0dbd
00000040: 8a03 073e e28d 0180 7a05 1f3e 5c0a 38bd
00000050: c915 16ba aae4 a5bd 46b7 0900 af08 0680
00000060: 9d15 cfbb f5a6 07be d78f 1dbd 73a2 a83e
00000070: 6b19 0180 92cc 0780 ad46 82bd ab6c e03d
00000080: f6b8 2b3e 0716 e0bd 57b7 75bc 22dd e43d
00000090: 4c04 033e b404 07be 4329 963e eff8 a63e
000000a0: 73f6 be3d 5dc0 c23d 8f10 383e 94cb a0bd
000000b0: c723 01be adb7 c9bb ba2a 053e 1118 d03d
000000c0: ade6 043e 7627 0d00 a8bb 243e e237 6cbe
000000d0: e6e5 a5bd 891f 1a3e 295c 0780 f388 0a00
000000e0: 9971 293d 333c edbc 8aec 3fbe 09e3 1c3c
000000f0: dcfa 0780 68e8 0700 9b39 113e 36b4 10bd
00000100: d5c4 6939 9a04 80be 373d 17be d350 01be
00000110: 4f00 293e 16ca af3e 2cfb 85be ecd8 b83e
00000120: d447 5cbb 3157 693b 94a5 5d3e 6c4b 2f3e
00000130: 1a6b 943d e2cf cf3d 2255 04be 6069 283c
00000140: 9d94 8bbe e647 0400 52b1 30be 869e 203e
00000150: 93e6 43bd a33f f73d 6f3c 0780 db0b 0a00
00000160: 9a4a 94bd ba02 813d d76a 3dbc 47f1 30be
00000170: 2b4b 0280 54a0 0280 8f40 353e e21d dc3d
00000180: 5777 133c c194 df3d 06b2 1cbe 970d bbbd
00000190: 4ec8 11be e549 9bbd 4e43 883e 69ec f93c
000001a0: 6dbf 85bb 7bc0 d5bc e053 4dbe 1eee 063e
000001b0: ec04 1e3e f412 aebd af9f dd3d d0a3 363d
000001c0: b1a9 b53d 4d6a 0880 3fbb 023e 4e1d 443d
000001d0: 2708 e73d dfc2 b1be 7c37 1080 72cc 0500
000001e0: ed91 24be 8f2b dc3d 5d67 50bd 4a4d 76be
000001f0: 2c89 0480 01d7 0180 bc45 853d 17c4 a1bd
00000200: 3aa3 efbd 3efa 533e c2b6 38be ecc7 a03c
00000210: dd60 b03d 2620 9c3e 169a 30be e18c 293e
00000220: 848f 573e d98d c3bd 8556 913e 8aaa 1ebd
00000230: c147 853d caae 053e 2134 07be d5af fb3d
00000240: 2e64 a13b 1e70 0300 3142 013e 0f00 08be
00000250: bb9b 0b3e 4070 57bd 7d01 0a00 99b2 0380
00000260: 95ea acbd 8b42 5abd 727e 813d a04e 2f3e
00000270: 76bf 0080 400c 0b80 595a 24bd 60ae 66be
00000280: 5325 773d 7f92 5c3e 6298 653b 106a 0380
00000290: 4848 adbd 0771 b23d edb1 0480 e531 0200
000002a0: 9c5f 0d00 d600 60bd 54e5 8fbe 702d 023e
000002b0: 2506 11be b2b0 15be d196 0a3e 9bea 08bb
000002c0: 1363 f03d 9883 0480 5bda 7cbe 7545 923e
000002d0: b5e6 43bd 9ced bfbe 6776 0000 6977 0780
000002e0: 3e19 a8be 5853 913e b010 2e3d fe10 853d
000002f0: b59a 0600 dc90 0300 e79f 14bd fc6a 63be
00000300: e744 cfbd 49ff 89bd 123d fe3b 7a29 babd
00000310: d9ef cf3d 99a4 083e 8774 c13e 1643 85be
00000320: 9e65 6f3e d615 f7bc 00ab d53d 3ca9 c63d
00000330: 9faf f6bd 0331 ce3d 3609 cebb 2139 013e
00000340: d672 113c 1aad 0200 4764 a6bc 806a cd3d
00000350: 39d7 ff3d a31a be3d 708f 1000 f9f0 0080
00000360: 6d6b ddbb 3b19 483e 27f1 6e3e 685c abbd
00000370: abe1 0e80 fad5 0900 147a f8be f3a8 e0bd
00000380: 44fa 8c3c eecd 13be e6f5 003e 0f3d e73d
00000390: 4f5a 33bd 18f6 a0bd bcd5 493e 85d6 05be
000003a0: 91d2 293d a6e0 f9be 52de 1c3f c3bb 853e
000003b0: 75c1 873d ab58 17bd 8196 a7bd 272f 6b3c
000003c0: e62d c0bc 0b40 0d80 5f01 f83d 3687 423c
000003d0: fad0 1dbe 7a61 2fbe 6797 0700 f744 0980
000003e0: 96cf 213e 9c48 75bd d156 12be 87e4 223e
000003f0: 9456 0280 8961 0b00 a890 523f 969b 79be

conv_layers.1.bias f4 [128]
0.013910447 0.009616572 0.0035704486 -0.0018887413 0.0025877273 -0.02982072 0.018640906 -3.3715706e-12
-0.010260004 -0.014420792 -0.020006293 -0.0036565491 -1.2513259e-07 0.01635366 0.048162814 0.0010588532
0.0026842102 -0.002251892 0.007323015 -0.03042544 -0.012786794 -0.0046173898 -0.012449579 0.018744176
0.03809504 0.030040653 -0.010521847 -0.00787568 0.006005885 0.005872104 0.015924616 -0.00033085723
-0.016442696 -0.005805671 -0.0003766366 0.0017673089 0.020862699 0.006233189 0.01397124 0.030541077
-0.015375999 0.021284563 0.013688567 0.021380518 0.014098934 -3.8604563e-19 -0.0497586 0.021339867
-0.012766294 0.014800565 0.007985723 0.02860139 -0.03799821 -0.011927753 -0.0009529179 -0.015611531
-0.018741583 -0.0028429974 0.00025105244 0.014336591 0.017584352 0.015123223 0.0068203155 -0.01579441
0.042411253 -0.01051233 -0.01509445 0.0038915384 -0.0018623429 0.0041138255 -2.6380033e-06 -0.010861092
0.005662965 0.0045377207 0.010016446 -0.006866781 -0.010383618 -0.054142367 0.007663711 -0.0066203563
0.0029676603 0.0024924774 0.015871078 0.010247037 0.0045952764 0.016792487 -0.012871815 0.00082172547
-0.0088697765 0.00106464 -0.000749855 -0.004645735 0.007964785 -0.00056203635 -0.008987527 -0.040119566
0.026394416 0.028418265 -0.01851061 0.017293327 0.012269466 0.02652848 -0.005158169 0.0044062454
0.010219954 0.03111221 0.0146804955 -3.435819e-05 0.002133936 -0.0010234729 -7.124198e-05 -8.32474e-05
-0.0025854285 -0.01983614 -0.014848652 -0.013504441 -1.2668364e-22 0.027138043 0.009486823 -2.6085488e-12
-0.004075485 0.02154789 -0.005814394 -0.010937632 0.0009141186 0.013931981 -0.0017911979 0.010261278
00000000: a5e8 633c d48e 1d3c 30fe 693b a48f f7ba
00000010: dc96 293b 954a f4bc d0b4 983c d140 6dac
00000020: 9319 28bc 3045 6cbc 3de4 a3bc b7a2 6fbb
00000030: 2f5c 06b4 1cf8 853c 5f46 453d 38c9 8a3a
00000040: 93e9 2f3b 7a94 13bb e7f5 ef3b c63e f9bc
00000050: b47f 51bc 794d 97bb 52f9 4bbc 638d 993c
00000060: 8b09 1c3d d117 f63c d363 2cbc ff08 01bc
00000070: 04cd c43b c76a c03b 5774 823c e876 adb9
00000080: d5b2 86bc 803d bebb 4f77 c5b9 0ca5 e73a
00000090: 40e8 aa3c c73f cc3b a1e7 643c 4831 fa3c
000000a0: 9deb 7bbc f75c ae3c 0346 603c 3226 af3c
000000b0: 37ff 663c 91e1 e3a0 accf 4bbd f2d0 ae3c
000000c0: b829 51bc 127e 723c 8dd6 023c 764d ea3c
000000d0: 03a4 1bbd 9f6c 43bc 3dcd 79ba 82c7 7fbc
000000e0: f387 99bc 9551 3abb b09f 8339 05e4 6a3c
000000f0: 0f0d 903c 65c7 773c f47c df3b 4763 81bc
00000100: 6cb7 2d3d e83b 2cbc b64e 77bc 2e09 7f3b
00000110: dc19 f4ba 45cd 863b 8d08 31b6 b9f2 31bc
00000120: 6590 b93b 29b1 943b 051c 243c bc02 e1bb
00000130: 0d20 2abc 63c4 5dbd de1f fb3b 93ef d8bb
00000140: 147d 423b d558 233b 1004 823c 30e3 273c
00000150: f993 963b 6690 893c 4ee4 52bc 1069 573a
00000160: 8a52 11bc 648b 8b3a eb91 44ba 403b 98bb
00000170: bb7e 023c 9f55 13ba 6c40 13bc 6a54 24bd
00000180: 1a39 d83c 6ccd e83c 90a3 97bc bcaa 8d3c
00000190: df05 493c 4152 d93c dc05 a9bb 4462 903b
000001a0: 9871 273c 09df fe3c 7686 703c d31b 10b8
000001b0: 81d9 0b3b 0d26 86ba bf67 95b8 1c95 aeb8
000001c0: 4b70 29bb 677f a2bc c347 73bc bb41 5dbc
000001d0: b026 199b 9a50 de3c 9f6e 1b3c 708f 37ac
000001e0: a58b 85bb 3385 b03c ac86 bebb c133 33bc
000001f0: 76a1 6f3a f742 643c a1c6 eaba eb1e 283c

conv_layers.1.lin.weight f4 [128, 128]
0.27855855 -0.06968134 -0.024286004 -0.044293154 0.14919607 0.036551286 0.015252043 -0.1654884
-0.13936195 0.105399385 -0.09705639 0.065120935 0.084001206 0.05625676 -0.13158965 -0.10337242
0.020027796 0.14977288 0.059801098 -0.030523648 -0.51413435 -0.0131244585 0.21302909 -0.053929742
-0.023432255 -0.049407486 -0.012061731 -0.33362126 -0.2709596 0.09250429 0.15604869 0.10494787
0.11870747 0.082415074 0.061987165 0.023703203 0.11026214 0.17368399 0.19093257 0.14495404
0.084899865 -0.021179236 -0.066953264 0.072900176 0.04298586 -0.14736447 0.08651941 0.006580231
-0.05522895 -0.12589236 0.19328324 -0.20843855 0.1723289 -0.26370946 0.037499666 -0.16416161
-0.030012207 -0.1695272 -0.065701544 0.31396767 0.069314905 -0.07164862 -0.00399897 0.066515125
0.011388867 -0.1882298 0.021428695 -0.18861382 -0.11346139 0.027490458 -0.13748631 0.04933639
0.11720068 -0.16616994 0.132611 -0.0038848876 -0.082865536 -0.050844863 -0.011720526 0.0017994306
-0.2604587 -0.06663762 -0.05223524 -0.15471996 -0.22854878 -0.24395037 0.121489346 0.06619891
-0.12787494 -0.04702793 -0.07902217 -0.11129761 -0.31685096 -0.25681007 -0.004883499 -0.07832226
0.043108508 -0.022446172 0.070380524 0.034971584 0.053851865 0.22225672 -0.044813517 0.023010138
-0.038143527 0.22166118 -0.06409975 0.042542215 -0.050321624 0.017477015 -0.19488566 0.072835706
0.13707742 0.03799842 -0.020655569 -0.18371993 0.09577169 -0.06795127 0.2185916 -0.13363151
0.082714714 -0.046044152 -0.1287862 -0.29788467 -0.19321564 -0.04762157 -0.09870785 0.06921789
0.11337748 0.07344919 -0.06589182 -0.06612497 0.11000818 -0.049630564 0.18240371 -0.014083651
-0.037071418 -0.034980252 0.1383392 -0.12793465 0.04277332 -0.04509481 -0.23399529 -0.017913606
-0.028745955 0.0014143663 0.21053492 0.1364379 0.045189526 -0.106074624 -0.09185779 -0.14203194
-0.046426836 -0.15078264 -0.28401104 -0.050711825 0.11955246 0.03983193 -0.01817304 0.11916297
-0.07892945 0.09168586 0.020747136 -0.068569876 -0.03660376 0.056418844 0.1623057 -0.1350975
-0.019099496 -0.07281323 0.08361774 0.10714423 -0.13412581 -0.02725841 0.18466751 -0.15461189
-0.114248015 -0.09172361 0.1745329 0.04688563 0.044129364 0.1614815 0.018943818 -0.11292184
0.095865294 -0.11517846 0.0051927236 0.037405744 0.063888416 -0.11871373 0.15483591 -0.04166902
-0.017505823 0.11549216 0.2372932 0.14976603 -0.049098656 -0.15388483 0.029242566 -0.084765986
0.1526952 0.052732017 0.018283898 0.06280762 0.04226239 0.16646945 -0.005423134 -0.053966265
-0.026237426 0.18592969 -0.09036451 -0.028732348 0.07590809 -0.044914372 0.07811367 0.011834513
0.11239427 0.02391738 0.10465278 0.07969238 0.05929662 -0.08832934 -0.0074995128 -0.102306664
0.02067045 -0.004117902 0.020044813 0.04135219 -0.1883292 0.0049081803 0.04784236 0.14775273
-0.12086585 -0.045986004 -0.21531136 0.03508465 -0.077903 0.03992377 0.124393925 -0.1212726
-0.07423103 -0.15886189 -0.06298375 -0.008351607 0.10420947 0.0029206495 -0.15941763 0.102835774
-0.065291986 0.10429266 0.031180348 -0.22013374 0.19861399 -0.083260335 -0.10892633 -0.02071127
00000000: 3a9f 8e3e 17b5 8ebd 71f3 c6bc bd6c 35bd
00000010: dbc6 183e cdb6 153d b4e3 793c cb75 29be
00000020: e6b4 0ebe a2db d73d 80c5 c6bd 205e 853d
00000030: d308 ac3d 7d6d 663d 70bf 06be ebb4 d3bd
00000040: 5511 a43c 105e 193e fff1 743d bb0c fabc
00000050: 4f9e 03bf f807 57bc 4c24 5a3e 6fe5 5cbd
00000060: 00f5 bfbc 815f 4abd 919e 45bc 68d0 aabe
00000070: 37bb 8abe e472 bd3d 3acb 1f3e e9ee d63d
00000080: e71c f33d 3cc9 a83d 41e6 7d3d 382d c23c
00000090: 1ed1 e13d 37da 313e d483 433e d56e 143e
000000a0: fbdf ad3d 1480 adbc cb1e 89bd b04c 953d
000000b0: f111 303d b6e6 16be 1731 b13d fa9e d73b
000000c0: c037 62bd ede9 00be 0bec 453e ea70 55be
000000d0: fd76 303e ed04 87be 4099 193d fb19 28be
000000e0: 29dc f5bc 8a98 2dbe 888e 86bd 5fc0 a03e
000000f0: f9f4 8d3d 83bc 92bd cb09 83bb 1539 883d
00000100: 5f98 3a3c 50bf 40be 3b8b af3c fb23 41be
00000110: 725e e8bd ab33 e13c 36c9 0cbe f414 4a3d
00000120: e906 f03d 7428 2abe 2ecb 073e 9999 7ebb
00000130: 68b5 a9bd b442 50bd 7307 40bc dfda eb3a
00000140: d85a 85be 4e79 88bd 9ef4 55bd e96e 1ebe
00000150: b108 6abe 20ce 79be 68cf f83d 4b93 873d
00000160: a6f1 02be 5ca0 40bd 60d6 a1bd 00f0 e3bd
00000170: 4a3a a2be 9c7c 83be c205 a0bb 6c67 a0bd
00000180: 8c92 303d 09e1 b7bc aa23 903d 5d3e 0f3d
00000190: c693 5c3d 4497 633e 618e 37bd c27f bc3c
000001a0: 633c 1cbd 26fb 623e bb46 83bd bf40 2e3d
000001b0: 0c1e 4ebd f52b 8f3c 1b90 47be e32a 953d
000001c0: 065e 0c3e 3ba4 1b3d de35 a9bc 1421 3cbe
000001d0: f323 c43d 092a 8bbd 7ad6 5f3e b3d6 08be
000001e0: 5566 a93d cb98 3cbd 88e0 03be 5784 98be
000001f0: 52da 45be d60e 43bd 5727 cabd 1cc2 8d3d
00000200: 7432 e83d 876c 963d 4af2 86bd 876c 87bd
00000210: f84b e13d 6b49 4bbd 0ac8 3a3e 1dbf 66bc
00000220: 33d8 17bd 7447 0fbd cba8 0d3e 4d01 03be
00000230: 1433 2f3d 56b5 38bd 769c 6fbe 8ebf 92bc
00000240: a37c ebbc 4262 b93a 7796 573e 60b6 0b3e
00000250: a718 393d a73d d9bd f01f bcbd d270 11be
00000260: 112a 3ebd c466 1abe e569 91be 34b7 4fbd
00000270: ecd7 f43d ce26 233d a1df 94bc b70b f43d
00000280: c3a5 a1bd ccc5 bb3d e6f5 a93c 5d6e 8cbd
00000290: d3ed 15bd 7217 673d 7733 263e 0057 0abe
000002a0: 8c76 9cbc 1a1f 95bd c73f ab3d 6f6e db3d
000002b0: 4758 09be 074d dfbc 7b19 3d3e 9452 1ebe
000002c0: ddfa e9bd 97d9 bbbd c1b8 323e 250b 403d
000002d0: fec0 343d 685b 253e 1130 9b3c 9143 e7bd
000002e0: 0655 c43d afe2 ebbd b927 aa3b c436 193d
000002f0: eed7 823d 2f20 f3bd 4e8d 1e3e 22ad 2abd
00000300: 5f68 8fbc 2787 ec3d fdfc 723e 445c 193e
00000310: ac1b 49bd fc93 1dbe 1b8e ef3c ca99 adbd
00000320: 215c 1c3e 87fd 573d 1dc8 953c 48a1 803d
00000330: 541b 2d3d f876 2a3e 8cb4 b1bb bb0b 5dbd
00000340: dfef d6bc 5a64 3e3e 0711 b9bd 1a60 ebbc
00000350: b375 9b3d 22f8 37bd 0ffa 9f3d 8ce5 413c
00000360: f82e e63d 62ee c33c 3254 d63d c235 a33d
00000370: 03e1 723d 03e6 b4bd 79be f5bb 2886 d1bd
00000380: 1355 a93c 77ef 86bb 0535 a43c ea60 293d
00000390: 5fd9 40be cdd4 a03b 5af6 433d 7e4c 173e
000003a0: 8488 f7bd d25b 3cbd 957a 5cbe ecb4 0f3d
000003b0: 9c8b 9fbd 1b87 233d 3ec2 fe3d c55d f8bd
000003c0: 7006 98bd b1ac 22be a0fd 80bd 2ed5 08bc
000003d0: c66b d53d 5e68 3f3b 603e 23be 909b d23d
000003e0: ceb7 85bd 6497 d53d ee6d ff3c bd6a 61be
000003f0: 7761 4b3e 6584 aabd c514 dfbd aeaa a9bc

conv_layers.2.bias f4 [128]
-0.033418745 0.012726153 0.023951788 -0.0013901857 0.04567955 -0.0077494183 0.023219274 -2.0752783e-07
0.054331057 -0.012330615 0.01625884 -0.016478091 0.048268717 0.013596946 0.025466021 0.0009262138
-0.012300233 0.012067307 0.015630497 -0.017347762 0.0004832645 0.0026161603 0.009814811 0.0152911795
-0.0084159 0.008812104 0.001666114 -0.024947762 0.029538035 -0.012892262 0.035731714 0.062376145
-0.0030391836 0.01749115 0.014998149 0.03334154 -0.006348438 -0.033283465 0.012957268 0.010304751
0.014219694 -0.011000256 0.017707031 -0.00050549896 -0.004002171 -0.0032044272 0.026635082 -8.642841e-05
-0.0045797327 0.022229424 0.020486215 0.024422674 0.0066295667 0.06476268 0.005565058 -0.020275861
0.0051883035 -0.013432791 0.011178413 -0.008797425 0.0004151766 -0.031369142 0.01232494 0.056727648
0.017901216 -0.0020879954 0.031310573 -0.0044905166 -0.01690978 0.049759634 -0.016766217 0.0013019097
0.005723131 0.009110362 0.061700806 -0.011014116 -0.018975213 0.0045198333 0.013884932 0.09487714
0.02036608 -0.015559602 -0.047033854 0.036802813 -0.007621566 -0.016420413 0.04550078 -0.017104838
-0.01561583 0.01936685 0.011464197 0.0036824795 0.030786801 0.029728986 -0.008080061 -0.010239189
0.034709353 0.0031641072 -0.003887486 0.03557055 -0.020816518 -0.017246077 -0.011267825 0.009851432
0.041154947 0.026006231 0.031012671 0.0058996393 -0.01932194 -0.015066855 -0.015995013 0.02886432
0.006356978 -0.00022896117 -0.022564063 -0.032095637 -0.00053574063 0.034261033 0.015965696 -0.005282541
0.005659371 0.02301021 0.003979993 0.03532966 0.014437078 0.009327092 0.040981106 0.036369037
00000000: 18e2 08bd 5b81 503c 8a36 c43c e436 b6ba
00000010: 7b1a 3b3d d5ee fdbb 5936 be3c d1d4 5eb4
00000020: 3e8a 5e3d 5906 4abc 4231 853c 10fd 86bc
00000030: 6bb5 453d bac5 5e3c 1e9e d03c 28cd 723a
00000040: eb86 49bc f4b5 453c 870b 803c e51c 8ebc
00000050: aa5e fd39 e373 2b3b 4dce 203c db87 7a3c
00000060: d8e2 09bc a560 103c 8261 da3a 405f ccbc
00000070: c0f9 f13c 113a 53bc 6b5b 123d 217e 7f3d
00000080: 0a2d 47bb 9a49 8f3c ccba 753c 2391 083d
00000090: 8f06 d0bb 3e54 08bd b94a 543c 42d5 283c
000000a0: b8f9 683c 6b3a 34bc 560e 913c 7683 04ba
000000b0: a524 83bb 5e01 52bb d131 da3c e640 b5b8
000000c0: 9511 96bb 7b1a b63c b5d2 a73c 0f12 c83c
000000d0: d63c d93b 4ca2 843d 175b b63b 9019 a6bc
000000e0: a502 aa3b 3615 5cbc aa25 373c 1323 10bc
000000f0: 0fac d939 ee7c 00bd 8cee 493c 405b 683d
00000100: 92a5 923c c0d6 08bb 843f 003d 2f25 93bb
00000110: 6186 8abc c2d0 4b3d 4e59 89bc d7a4 aa3a
00000120: 1a89 bb3b a143 153c fcb9 7c3d 8d74 34bc
00000130: e871 9bbc 1c1b 943b a07d 633c f24e c23d
00000140: c4d6 a63c b3ed 7ebc 92a6 40bd 8cbe 163d
00000150: 54be f9bb 1a84 86bc 075f 3a3d 721f 8cbc
00000160: 8ad9 7fbc 3aa7 9e3c 54d4 3b3c c155 713b
00000170: 9a34 fc3c 348a f33c 3b62 04bc 45c2 27bc
00000180: 652b 0e3d e95c 4f3b 31c5 7ebb 6db2 113d
00000190: 6787 aabc a547 8dbc af9c 38bc e767 213c
000001a0: 1792 283d 050b d53c 490e fe3c c351 c13b
000001b0: 0c49 9ebc f8da 76bc f907 83bc de74 ec3c
000001c0: 324e d03b 4c15 70b9 45d8 b8bc b776 03bd
000001d0: f270 0cba 4c55 0c3d 7eca 823c 2a19 adbb
000001e0: 3f72 b93b e87f bc3c 9a6a 823b d5b5 103d
000001f0: 7e89 6c3c a9d0 183c cedb 273d b3f7 143d

conv_layers.2.lin.weight f4 [128, 128]
-0.011703664 -0.0034660227 -0.0004723674 6.7520996e-05 -0.010345694 -9.103948e-11 -0.00019473046 9.64222e-40
-0.00029698425 -5.39923e-40 -1.32255e-40 0.00056328723 -7.4131e-41 -1.5025999e-05 -0.005841447 -0.005911498
-5.1025516e-08 -1.4098847e-21 -0.00023983019 -3.0808e-41 0.002064164 -7.92716e-40 1.09158e-40 -0.00057710154
-0.0013073504 2.63499e-05 -0.012503262 -0.00016756362 -1.1197458e-28 -0.0010463322 -0.00032557547 -0.0013979999
7.86018e-40 -2.7789088e-07 -1.521072e-39 3.5450967e-07 -1.560424e-08 0.0025919797 -0.0043214676 0.0071177664
-0.0063013644 -2.6187894e-05 -0.007828729 1.1371679e-05 -0.0058911 -1.376229e-39 1.1210763e-07 -0.0007286286
-8.84144e-40 -0.0001797435 0.00053885893 0.0023355866 2.70564e-40 -0.02080866 -0.0010854314 -0.0012852439
2.3211348e-32 2.210589e-07 -0.00019690415 -0.00057114323 -0.009725387 -0.013205755 -0.00025251365 -1.3217474e-06
-1.1432963e-07 -0.00013187113 1.8213e-41 -0.003663289 -6.563774e-09 -5.1954544e-07 9.38246e-40 2.2386835e-06
-0.004942142 -0.006060741 -2.0851934e-05 -0.00036508925 1.295468e-39 9.4410797e-07 -0.0008780025 4.0262694e-05
-0.005032569 -0.010938106 -0.0044131554 -0.0047447295 -0.0014365902 -0.008411887 -0.00036402934 -0.001087336
-1.347263e-10 -0.0033133598 0.0015855768 -0.012319328 4.25832e-40 -2.6703601e-05 -0.0009446451 -1.8006084e-13
-0.0020937268 -3.328909e-13 -0.0025338097 -0.007939801 -0.0114698885 -5.135074e-05 -0.00010670307 -0.0126876375
-1.80671e-40 9.1412494e-10 -0.00013761557 4.71442e-40 5.919685e-07 -2.2032948e-36 4.8272e-40 -0.013983364
-1.029764e-39 -4.97356e-40 -0.009939275 -0.0057718433 -1.23247e-39 -0.0039588297 -1.9144367e-05 8.01499e-40
-3.1979707e-05 -6.626873e-05 -0.00016156583 1.18527e-40 -0.0062584127 -0.0057060197 6.4678985e-05 -2.467963e-05
0.09681399 0.17147909 0.060287174 0.10288136 0.034561023 0.3077391 0.014085522 7.34397e-40
0.16288239 -0.0011526683 0.00026425326 -0.056868132 -2.0829e-40 -0.09163063 -0.19124964 -0.088843726
-0.35350785 -0.058652107 0.09000081 -0.016930504 -0.03423705 4.3191e-40 3.118313e-08 0.0007097523
-0.027136456 -0.23998976 -0.040366624 -0.17093399 0.060330663 -0.020642063 0.17126521 -0.0101822885
-0.025622793 0.13051604 6.39953e-40 -0.17057021 -0.10972914 0.061349712 0.1794105 -0.10157929
-0.020978669 -0.03707965 -0.005789596 -0.0045579653 0.26235715 -6.11595e-40 -0.35588014 0.0013905215
8.013436e-09 -0.11791637 0.008175476 0.02047512 0.002435771 -0.05447322 -0.1696347 0.09659691
-0.041554157 -0.10815025 -0.032455716 0.020336797 0.058204915 0.084445655 -0.051464517 -0.005757161
-0.015018367 0.0741078 -7.922083e-30 0.23228925 0.06561469 0.110668816 9.92489e-40 0.07664001
0.06574098 0.12006648 -0.19386095 -0.116480544 -1.3762084e-07 -0.2682775 0.027342254 0.019631518
0.21863216 0.18658288 -0.033010848 0.14493546 0.18279584 0.16446482 0.019281529 0.060027275
-0.0034777052 0.20946613 0.108075984 -0.067996666 -0.2861623 0.1482846 0.056472406 0.37784478
-0.16215119 -0.06710286 0.10925031 -0.15809572 0.10846101 -0.09438098 -0.15101308 -0.017992655
-0.020814192 0.025358398 0.16262105 -3.28876e-40 -0.1095034 -0.08030363 -3.03022e-40 -0.01855515
7.6759356e-21 1.01577384e-22 0.058114324 0.06587778 5.28657e-40 -0.19809814 -0.08976611 6.43772e-40
0.028514046 -0.06781986 -0.16251959 6.38034e-40 0.18914993 -0.17424442 0.06399188 -0.0017271234
00000000: bac0 3fbc 3626 63bb 14a8 f7b9 0f9a 8d38
00000010: fc80 29bc ac32 c8ae 8f30 4cb9 dc7f 0a00
00000020: 8db4 9bb9 16e1 0580 ac70 0180 91a9 133a
00000030: a6ce 0080 2d18 7cb7 9c69 bfbb 3db5 c1bb
00000040: 2627 5bb3 460e d59c ed7a 7bb9 e155 0080
00000050: ed46 073b c5a1 0880 4a30 0100 a148 17ba
00000060: 665b abba fb09 dd37 7bda 4cbc 04b4 2fb9
00000070: d4f1 0d91 1525 89ba 00b2 aab9 183d b7ba
00000080: 198f 0800 0831 95b4 2190 1080 7053 be34
00000090: 160a 86b2 34de 293b 199b 8dbb 273c e93b
000000a0: ad7b cebb 13ae dbb7 1244 00bc fdc8 3e37
000000b0: 210a c1bb 5efc 0e80 d2bf f033 7001 3fba
000000c0: a2a0 0980 8779 3cb9 3642 0d3a a410 193b
000000d0: 39f2 0200 ec76 aabc 0945 8eba a175 a8ba
000000e0: 590a f10a 355c 6d34 0e78 4eb9 c6b8 15ba
000000f0: 3b57 1fbc f35c 58bc cf63 84b9 e566 b1b5
00000100: 6185 f5b3 e346 0ab9 c532 0000 ca13 70bb
00000110: 9187 e1b1 e476 0bb5 7337 0a00 4a3c 1636
00000120: b1f1 a1bb 2e99 c6bb 30eb aeb7 7369 bfb9
00000130: 3d1b 0e00 9b6e 7d35 c029 66ba bddf 2838
00000140: 40e8 a4bb be35 33bc 3b9c 90bb ad79 9bbb
00000150: f84b bcba 03d2 09bc 31db beb9 f184 8eba
00000160: 1522 14af f424 59bb 21d3 cf3a 02d7 49bc
00000170: 0ca3 0400 8c01 e0b7 0fa2 77ba 01bb 4aaa
00000180: e836 09bb a266 bbaa 460e 26bb f015 02bc
00000190: 33ec 3bbc 7061 57b8 c6c5 dfb8 cfdf 4fbc
000001a0: a3f7 0180 d345 7b30 e64c 10b9 3022 0500
000001b0: c4e7 1e35 836f 3b84 a141 0500 7b1a 65bc
000001c0: 9036 0b80 6d6a 0580 57d8 22bc bb21 bdbb
000001d0: a06b 0d80 12b9 81bb 3798 a0b7 41ba 0800
000001e0: f321 06b8 c1f9 8ab8 ff69 29b9 684a 0100
000001f0: 5f13 cdbb 90f9 babb 44a4 8738 1a07 cfb7
00000200: 6a46 c63d 3798 2f3e afef 763d 76b3 d23d
00000210: dc8f 0d3d fb8f 9d3e f6c6 663c 33ff 0700
00000220: a4ca 263e 2115 97ba 798b 8a39 8fee 68bd
00000230: a144 0280 d7a8 bbbd f2d6 43be b3f3 b5bd
00000240: fbfe b4be 313d 70bd 5852 b83d d7b1 8abc
00000250: 263c 0cbd fdb3 0400 37ee 0533 ac0e 3a3a
00000260: 464d debc e0bf 75be 7957 25bd 5209 2fbe
00000270: 491d 773d 8b19 a9bc 2660 2f3e 9dd3 26bc
00000280: e4e6 d1bc ffa5 053e eef7 0600 f5a9 2ebe
00000290: acb9 e0bd d649 7b3d 63b7 373e ce08 d0bd
000002a0: 75db abbc d5e0 17bd a7b6 bdbb fc5a 95bb
000002b0: ad53 863e e1a8 0680 ec35 b6be 2942 b63a
000002c0: 77ab 0932 237e f1bd 6ff2 053c 70bb a73c
000002d0: 75a1 1f3b 501f 5fbd b8b4 2dbe 9ad4 c53d
000002e0: b134 2abd e17d ddbd 49f0 04bd 5b99 a63c
000002f0: 4768 6e3d d8f1 ac3d 75cc 52bd 91a6 bcbb
00000300: 990f 76bc d5c5 973d cfad 208f 3cdd 6d3e
00000310: ff60 863d 55a6 e23d a8ce 0a00 70f5 9c3d
00000320: 35a3 863d 6ae5 f53d 7c83 46be 5a8d eebd
00000330: eec4 13b4 ab5b 89be ddfc df3c 47d2 a03c
00000340: 1ce1 5f3e 950f 3f3e 6236 07bd f669 143e
00000350: d52e 3b3e 7769 283e 4cf4 9d3c 29df 753d
00000360: 36ea 63bb 4a7e 563e f156 dd3d d641 8bbd
00000370: dd83 92be ebd7 173e 9c4f 673d df74 c13e
00000380: f60a 26be 396d 89bd a0be df3d d8e3 21be
00000390: ce20 de3d d14a c1bd 2ca3 1abe 5565 93bc
000003a0: 8682 aabc 6abc cf3c 2286 263e c694 0380
000003b0: 5243 e0bd 3b76 a4bd b44c 0380 f800 98bc
000003c0: 8cfe 101e 5b99 f51a 4909 6e3d eeea 863d
000003d0: aec1 0500 3dda 4abe 4bd7 b7bd 9302 0700
000003e0: 4a96 e93c 24e5 8abd 896b 26be 94f2 0600
000003f0: 85b0 413e 216d 32be 2d0e 833d a560 e2ba

conv_layers.3.bias f4 [128]
0.03854592 0.022800293 0.0072693783 -0.00412288 0.0113400975 0.016382106 0.031045115 0.0003913763
-0.0007125107 0.011498085 0.031865582 -0.016418457 0.009695485 0.08505607 -0.001199482 0.0648648
-0.01518416 0.020160228 -0.018864522 0.015483392 -0.006733504 0.011024621 -0.0030896107 0.025639933
-0.006909687 0.01592381 0.006679819 -0.014276471 0.011654577 0.011558056 -0.00031608046 0.006070117
-0.01794415 0.0027502582 -0.0056151077 0.022487363 0.03950878 0.008226181 -9.514369e-22 -0.0049715745
0.008506469 0.069536075 0.02840678 0.05391644 -0.00041281074 -0.0021841666 -0.0078013083 -0.0014209978
-0.0142988525 0.0486484 -0.06609533 0.021704461 0.06933043 0.02572506 -0.0039497204 0.021334546
0.020785324 -0.0031917922 0.029781677 -1.05713175e-23 0.041909672 -5.0562075e-09 -0.021238906 -0.007957972
0.027908366 0.020012088 -0.0022470152 -0.04460379 -0.01972884 -0.00746302 -0.018878102 0.018417804
0.00650056 -0.0071542426 -0.028693056 -0.0077470522 0.03342405 0.009458569 -0.0001829575 0.04210734
0.013802325 0.0072572567 0.018225422 -0.002876422 0.04791561 0.031145312 -0.005588784 -0.013502741
-0.00015659389 0.00069070124 -0.00022331682 0.038150888 -0.027726691 -0.0027607242 0.012088474 0.0077991677
0.00937282 -0.026471604 0.01271595 0.08211289 -0.011520348 0.016451014 0.01298356 0.012392704
-0.011965385 0.035948627 0.019170944 0.005951744 0.031139156 -0.0009686421 0.005925615 -0.011720599
0.016373448 0.030141542 0.018631615 0.024018425 -0.029574143 0.032180928 -9.570971e-05 -0.018159335
-0.021529397 0.039496817 0.023301324 0.027833 0.010554493 -0.003178112 0.054852314 0.029741006
00000000: 54e2 1d3d aec7 ba3c f733 ee3b 3919 87bb
00000010: d1cb 393c c433 863c 5352 fe3c a331 cd39
00000020: c9c7 3aba 7762 3c3c 7c85 023d 0080 86bc
00000030: d0d9 1e3c e031 ae3d f037 9dba d6d7 843d
00000040: fcc6 78bc 1027 a53c c589 9abc 0eae 7d3c
00000050: baa4 dcbb 9da0 343c 117b 4abb d60a d23c
00000060: a86a e2bb a672 823c 62e2 da3b dce7 69bc
00000070: d7f2 3e3c 005e 3d3c 9ab7 a5b9 d5e7 c63b
00000080: 9cff 92bc ad3d 343b f0fe b7bb 6b37 b83c
00000090: f5d3 213d 1bc7 063c efc6 8f9c 97e8 a2bb
000000a0: b85e 0b3c ee68 8e3d 56b5 e83c 7cd7 5c3d
000000b0: 856e d8b9 3c24 0fbb 1ea2 ffbb c640 baba
000000c0: bc45 6abc 8b43 473d fd5c 87bd 8ecd b13c
000000d0: 1dfd 8d3d 5cbd d23c a86c 81bb c9c5 ae3c
000000e0: fc45 aa3c 632d 51bb b4f8 f33c a17a 4c99
000000f0: 7aa9 2b3d dfba adb1 37fd adbc 2762 02bc
00000100: 16a0 e43c 64f0 a33c a942 13bb 77b2 36bd
00000110: 609e a1bc 598c f4bb 40a6 9abc efe0 963c
00000120: a602 d53b 236e eabb b30d ebbc fcda fdbb
00000130: a8e7 083d 1df8 1a3c 48d8 3fb9 bf78 2c3d
00000140: 2623 623c 48ce ed3b 7b4d 953c 5a82 3cbb
00000150: 2943 443d 7424 ff3c 1e22 b7bb 9a3a 5dbc
00000160: 5a33 24b9 2d10 353a 272a 6ab9 1b44 1c3d
00000170: 1623 e3bc 44ed 34bb bc0e 463c 2990 ff3b
00000180: 7590 193c fada d8bc 8f56 503c ce2a a83d
00000190: d7bf 3cbc 47c4 863c ffb8 543c c50a 4b3c
000001a0: 760a 44bc de3e 133d 620c 9d3c d906 c33b
000001b0: 8b17 ff3c 79ec 7dba a92b c23b c107 40bc
000001c0: 9c21 863c 65eb f63c 54a1 983c 4ac2 c43c
000001d0: 7945 f2bc 26d0 033d c2b7 c8b8 e3c2 94bc
000001e0: 6b5e b0bc 6ac7 213d 6be2 be3c 0802 e43c
000001f0: c1ec 2c3c df47 50bb d2ac 603d 69a3 f33c

conv_layers.3.lin.weight f4 [128, 128]
1.2676137e-13 -0.11303219 -0.0359053 -0.06452672 0.021872822 -2.63346e-40 0.09258228 8.13473e-40
0.10455741 0.00017235492 0.07876928 7.95202e-13 0.05297941 0.07670379 0.056802273 0.047962416
-3.8465696e-30 0.04768317 -0.055042993 -0.4153151 -0.17087252 -0.03845137 -0.019318935 0.17645156
0.07201511 -0.028218722 -0.063316904 -0.0013294257 0.034369975 4.254853e-05 0.020442398 0.08205248
-1.2459031e-25 0.04329552 0.025939327 0.09837921 0.0938511 -2.7861546e-09 0.0006740004 0.08803578
-0.06152209 0.0011959869 0.06937499 -0.20289662 0.03938068 -0.06386162 -0.0017431617 -2.68877e-40
0.07680315 0.0038757697 0.13558495 0.018010134 -0.08497963 0.015797867 -0.09647495 -4.8910688e-11
0.1631619 -0.15076211 -0.026710829 -0.17323561 -0.02146117 -0.07570659 0.10388498 -0.038970962
-0.066724375 0.18922153 0.16838801 0.094716795 3.0653496e-06 0.0021826655 8.360757e-15 0.07422434
-0.04562636 0.14765994 -0.019310255 2.8488102e-18 -0.30328107 0.003290013 -0.031834476 -0.02259557
-0.1180774 -0.31288913 -0.21288723 -0.05982176 -0.16495545 -0.40316495 0.14144678 0.006043548
0.05216107 -0.06275326 0.15713565 -0.25527635 0.063437805 0.13265681 0.034830216 0.0818224
0.044212714 -0.053373557 1.56745e-40 -0.10865925 0.0012647056 0.12211812 -6.836942e-30 0.0017017919
0.09354949 0.090283476 0.10743296 -0.058150794 0.20191708 -6.60379e-40 1.8203257e-15 0.1567534
0.24106893 -3.09946e-40 -0.010619752 -0.15891509 -0.21403167 0.2354217 -0.044184424 0.11047904
-0.3483317 0.010213465 0.06995727 0.17168899 0.08115581 -0.034855027 0.14978 0.165332
4.6123487e-09 0.078874156 0.07743047 0.0116093485 -0.020873955 -2.6009017e-32 0.07034348 9.02254e-40
0.027940119 0.0018977157 0.19635229 0.0006946139 -0.02926444 -0.15144129 0.14028089 -0.19664533
2.9022608e-14 0.07738956 0.14048688 -0.1618231 -0.15985838 -0.0784456 -0.060294736 -0.1198672
-0.06893887 -0.11557272 -0.15208796 -0.004850568 -0.033558186 0.0006609722 0.16736116 -0.0046736873
-6.211536e-18 -0.1010679 -0.060851287 -0.03942981 0.16363913 1.110438e-07 0.12124078 0.080172524
-0.03299493 -5.4155804e-05 -0.06363013 -0.14849882 0.012055333 0.062063966 0.16066222 -2.26992e-40
-0.06434241 -0.0053231725 -0.0678959 0.066587076 0.16885446 0.023141371 0.08510948 -0.00050488074
0.13327993 -0.19957969 -0.22852966 -0.14440729 0.034360945 -0.01773194 0.14156292 0.12799492
0.15354083 0.10141094 0.11834724 0.047969565 0.00016970551 -0.0042265607 1.0437424e-09 -0.04210021
0.01752618 -0.08370763 -0.07398057 7.763315e-21 -0.3075226 0.05502096 -0.097856544 0.08904184
-0.18545403 -0.14186402 -0.12007229 0.07210806 -0.11331579 -0.25922936 0.07656894 0.0054931855
0.12784135 -0.017696975 0.18138458 -0.10653136 -0.024835015 0.25037053 0.13691232 0.2319627
-0.032830376 0.020969452 -3.99189e-40 0.0018762706 0.005608465 -0.023119284 1.8956682e-11 0.13280183
-0.08010391 0.087536916 0.0008520181 0.13065007 0.14219637 -5.88212e-40 1.22277315e-05 -0.012934294
-0.09448415 2.10053e-40 0.08352542 -0.13306932 -0.16488996 0.23343231 0.03705355 0.18600203
-0.20120822 -0.11421954 -0.05945425 -0.04781428 0.11641182 0.056375068 0.104456976 0.10782448
00000000: 7ab8 0e2a 6c7d e7bd 7011 13bd 9626 84bd
00000010: a22e b33c 1ade 0280 c79b bd3d a2db 0800
00000020: 3222 d63d 2cba 3439 ca51 a13d 58d4 5f2b
00000030: f000 593d e016 9d3d 80a9 683d 3d74 443d
00000040: 1009 9c8e 6d4f 433d c374 61bd 2ea4 d4be
00000050: 35f9 2ebe 2f7f 1dbd be42 9ebc b8af 343e
00000060: a87c 933d f32a e7bc 4bac 81bd 2040 aeba
00000070: 88c7 0c3d 2376 3238 d176 a73c 210b a83d
00000080: 3f3c 1a96 a556 313d b67e d43c 0a7b c93d
00000090: 0135 c03d 8d76 3fb1 67af 303a 1a4c b43d
000000a0: 96fe 7bbd a9c2 9c3a 7a14 8e3d 22c4 4fbe
000000b0: a34d 213d e2c9 82bd cd7a e4ba 85ed 0280
000000c0: f84a 9d3d a000 7e3b c8d6 0a3e fd89 933c
000000d0: cd09 aebd 876a 813c a994 c5bd 8a1c 57ae
000000e0: ea13 273e 6261 1abe abd0 dabc ad64 31be
000000f0: 56cf afbc 0f0c 9bbd a6c1 d43d 04a0 1fbd
00000100: caa6 88bd 4ac3 413e e86d 2c3e e1fa c13d
00000110: 4eb6 4d36 0d0b 0f3b 309d 1628 ee02 983d
00000120: b5e2 3abd 2b34 173e 8a30 9ebc 8134 5222
00000130: a847 9bbe 429d 573b de64 02bd 581a b9bc
00000140: 90d2 f1bd 0133 a0be 1cff 59be a907 75bd
00000150: 15ea 28be a36b cebe 6dd7 103e f508 c63b
00000160: d9a6 553d c884 80bd 2be8 203e 95b3 82be
00000170: aeeb 813d 30d7 073e 21aa 0e3d 8192 a73d
00000180: 6418 353d 3b9e 5abd f1b4 0100 be88 debd
00000190: 7ac4 a53a 1119 fa3d 6fab 0a8f a90e df3a
000001a0: e096 bf3d 8be6 b83d d005 dc3d 872f 6ebd
000001b0: 5ac3 4e3e de30 0780 152b 0327 f783 203e
000001c0: c6da 763e 0160 0380 78fe 2dbc a3ba 22be
000001d0: 1e2b 5bbe 6312 713e bafa 34bd d642 e23d
000001e0: 8858 b2be 6156 273c c245 8f3d 3dcf 2f3e
000001f0: 0435 a63d 25c4 0ebd ee5f 193e cb4c 293e
00000200: a67a 9e31 c688 a13d de93 9e3d 2335 3e3c
00000210: dbff aabc ea0b 078b 3e10 903d 1ed3 0900
00000220: ade2 e43c c6bc f83a 9310 493e c016 363a
00000230: fbbb efbc 6d13 1bbe cba5 0f3e 655d 49be
00000240: cab4 0229 6b7e 9e3d cbdb 0f3e f4b4 25be
00000250: eab1 23be 16a8 a0bd 9df7 76bd ef7c f5bd
00000260: d32f 8dbd 64b1 ecbd f2bc 1bbe 83f1 9ebb
00000270: 4f74 09bd 1845 2d3a b960 2b3e bb25 99bb
00000280: 4c2a e5a2 b0fc cebd 333f 79bd 2781 21bd
00000290: 0491 273e fa76 ee33 164d f83d 7e31 a43d
000002a0: b125 07bd 5a25 63b8 8350 82bd 1310 18be
000002b0: bb83 453c c936 7e3d a384 243e c378 0280
000002c0: f4c5 83bd 026e aebb 010d 8bbd ce5e 883d
000002d0: 2fe8 2c3e f992 bd3c e14d ae3d f959 04ba
000002e0: 897a 083e 9e5e 4cbe ae03 6abe 81df 13be
000002f0: 10be 0c3d 9342 91bc dff5 103e 1a11 033e
00000300: cf39 1d3e 8ab0 cf3d 0a60 f23d bc7b 443d
00000310: faf2 3139 f67e 8abb 6c73 8f30 4571 2cbd
00000320: 1093 8f3c e86e abbd 2083 97bd 16a5 121e
00000330: 9a73 9dbe a85d 613d 0369 c8bd 915b b63d
00000340: a9e7 3dbe cd44 11be 76e8 f5bd 64ad 933d
00000350: 1c12 e8bd b6b9 84be 2dd0 9c3d 2e00 b43b
00000360: d8e8 023e 3ff9 90bc e1bc 393e 1d2d dabd
00000370: cd72 cbbc 9130 803e be32 0c3e a187 6d3e
00000380: 2579 06bd 21c8 ab3c c758 0480 32ed f53a
00000390: 37c7 b73b a764 bdbc a7be a62d 34fd 073e
000003a0: 850d a4bd 8e46 b33d f859 5f3a 22c9 053e
000003b0: ed9b 113e b267 0680 b525 4d37 5cea 53bc
000003c0: e880 c1bd 8b49 0200 600f ab3d 5343 08be
000003d0: ead8 28be e108 6f3e 77c5 173d 5177 3e3e
000003e0: 8709 4ebe efeb e9bd 4d86 73bd e8d8 43bd
000003f0: 5269 ee3d 8be9 663d 8aed d53d 15d3 dc3d

conv_layers.4.bias f4 [128]
0.011569836 -0.01171061 0.028552517 0.025729042 -2.2259184e-05 0.049439825 -0.00269783 -0.0010917599
-0.003250357 -0.00096939906 -0.020591067 -0.008155935 -0.01715654 -0.013484977 0.015134183 -0.015270684
-0.024758011 0.0018704223 -0.009167474 -0.012736143 -0.009257968 0.025873436 0.02272606 -0.0061552445
-0.044196792 0.011285765 0.016151372 0.029965192 0.01752801 0.1528499 -0.013257672 0.007048894
-0.029704345 0.015440398 0.03671919 0.033770066 0.0007215863 0.1013138 -2.0060677e-17 -0.015983572
0.07144229 0.033693086 0.033256907 -0.025437146 0.02904742 -0.023363711 -0.003143952 -3.516233e-23
-0.0012242799 0.04229975 0.049620494 -0.001391534 -0.019981949 -0.0046248105 0.022162776 0.031621028
-0.017178575 -0.0079588145 -0.007690833 0.04636413 0.0283872 -0.0065392633 -0.0052323677 -0.019500673
0.006168607 -0.0074727503 -0.019390605 -1.22452506e-26 0.006759894 -0.029837629 -0.003502335 -0.008908155
0.008690822 0.07777737 0.038834535 0.040360052 0.024384985 -0.0078336345 -0.04440845 -0.015035345
0.0432196 -0.017475925 -0.008755325 -0.025585787 -0.008427112 0.04658794 0.026472626 0.03838315
0.0017621284 -0.0012087085 -0.012124755 0.040402714 0.0012352298 -1.0137924e-13 0.009396301 -0.0379548
-0.0649705 -0.047549978 -0.0027804135 -0.016865686 0.0037088247 -1.656171e-20 0.03457048 0.030835552
0.005294387 -0.031503312 -1.0425653e-09 -0.02129217 0.02921862 0.005665108 0.03707096 -0.0073764524
0.07171756 -0.03651884 0.051786203 0.035389375 0.003244805 0.01109134 0.013502693 0.025131073
0.01831486 -0.02815676 -0.0037747163 -0.010620377 -0.0011593162 0.08351601 0.038347665 0.029559195
00000000: 698f 3d3c dcdd 3fbc f8e6 e93c b6c5 d23c
00000010: 3cb9 bab7 6a81 4a3d 14ce 30bb 6219 8fba
00000020: f103 55bb 451f 7eba 99ae a8bc 79a0 05bc
00000030: df8b 8cbc 18f0 5cbc 5df5 773c e431 7abc
00000040: 50d1 cabc f528 f53a 2c33 16bc 41ab 50bc
00000050: bbae 17bc 87f4 d33c 012c ba3c efb1 c9bb
00000060: b207 35bd eee7 383c e24f 843c 9079 f53c
00000070: e796 8f3c af84 1c3e b536 59bc 69fa e63b
00000080: 8756 f3bc b9f9 7c3c dd66 163d 7b52 0a3d
00000090: d628 3d3a 9c7d cf3d ef06 b9a3 fbef 82bc
000000a0: 5650 923d c301 0a3d 6538 083d 9061 d0bc
000000b0: dbf4 ed3c 4165 bfbc c30a 4ebb db08 2a9a
000000c0: 0478 a0ba 8142 2d3d dc3e 4b3d 2264 b6ba
000000d0: 2fb1 a3bc b98b 97bb b68e b53c 0d85 013d
000000e0: 15ba 8cbc b065 02bc 6203 fcbb 50e8 3d3d
000000f0: 468c e83c 5147 d6bb 4874 abbb e0bf 9fbc
00000100: 0722 ca3b f9dd f4bb 0cd9 9ebc cc8a 7294
00000110: 1a82 dd3b 0b6e f4bc 6e87 65bb 83f3 11bc
00000120: f363 0e3c be49 9f3d f610 1f3d 9550 253d
00000130: 05c3 c73c a558 00bc a3e5 35bd cf56 76bc
00000140: 0907 313d ac29 8fbc 7f72 0fbc 4999 d1bc
00000150: df11 0abc ffd2 3e3d 1fdd d83c a637 1d3d
00000160: 38f7 e63a 876d 9eba e9a6 46bc 517d 253d
00000170: 6fe7 a13a 2749 e4a9 f1f2 193c 7e76 1bbd
00000180: 410f 85bd c4c3 42bd 9937 36bb e829 8abc
00000190: c10f 733b c26b 9c9e c799 0d3d d79a fc3c
000001a0: 8a7c ad3b 9e09 01bd 014a 8fb0 eb6c aebc
000001b0: e35b ef3c 5fa2 b93b b8d7 173d 2bb6 f1bb
000001c0: a8e0 923d c794 15bd c51d 543d 73f4 103d
000001d0: cba6 543b 74b8 353c 663a 5d3c aedf cd3c
000001e0: 0c09 963c 01a9 e6bc 3b61 77bb 1701 2ebc
000001f0: 32f4 97ba 710a ab3d 7112 1d3d 2026 f23c

conv_layers.4.lin.weight f4 [128, 128]
0.08466531 -0.19410922 0.17420842 -1.2967104e-05 0.19085471 -0.0035328297 0.030437836 -0.026482016
-4.3217865e-21 0.07751541 -0.18501022 0.0369594 0.0897003 -0.3232471 -7.2681e-41 -0.016005367
0.007768071 0.12854047 0.18590301 -0.2264262 -1.2125865e-06 -0.16306289 4.1265853e-06 -0.0122910235
3.454574e-16 -0.24863818 0.09625189 1.8725574e-17 -0.14817773 -0.08675563 5.649988e-11 0.11211308
0.0034697254 0.17382456 0.025286183 0.17934088 -0.08556762 0.06923673 -6.952e-41 3.0743108e-16
-0.18909074 -0.1968357 0.039357975 -0.27636287 -3.81854e-40 0.18341674 0.00012333735 -0.08834804
0.0025204972 0.0014076787 0.08705627 -0.22959416 -0.116321184 0.03583183 0.08593421 -0.068229854
0.04120909 4.49326e-40 0.005166791 -7.29858e-40 0.12751515 -3.813e-40 0.00022349709 0.0012185838
-0.079883814 0.13333182 -0.22205651 0.1168245 0.016669475 -2.0715968e-10 7.126063e-08 0.05083927
-0.054979216 -0.0009002989 0.0034449925 -0.14791355 0.131707 -0.07728352 -1.88545e-40 -0.07772662
0.17263557 0.023685401 0.09859267 -0.00014376284 0.15549082 -0.1348871 -4.986777e-14 0.10241476
2.09882e-40 0.0487628 -7.923875e-34 0.008473993 -0.36858457 -0.038921017 0.10232067 0.17033407
-0.17189257 0.00015615171 0.014860531 -0.034105733 8.5427244e-05 0.04956941 0.015448718 -0.09681852
0.00032494517 -0.054114815 0.13919926 0.023305641 -0.006701993 -8.405249e-28 -0.011447868 0.000183015
0.20036729 -0.18357074 -0.06653295 0.006851774 0.00031133648 -0.1840476 0.14229356 -0.16850476
-0.09128912 -0.085264295 -0.124381624 0.06687387 0.059468165 9.749342e-07 0.13473444 -0.06418563
-0.0115141915 0.03884935 -0.06931212 2.11641e-40 -0.2156542 -0.060666457 0.094494715 0.010339238
-1.27175e-39 -0.22136696 0.0032206052 0.092784554 -0.19755556 -0.7898778 -3.51799e-40 -0.047968123
0.0156619 -0.07825961 0.0021050554 0.0014108008 -1.33433e-39 0.055333253 1.021633e-39 -0.06508268
-5.2549e-41 -0.024763448 0.082348034 -4.032e-41 0.13450217 0.080337815 -4.67288e-40 -0.019350044
8.07595e-40 0.112933494 0.07758497 -0.17791717 0.13776198 0.020887151 1.34801e-40 -5.533836e-37
0.03085734 0.0729394 -0.0634329 -0.6540062 -3.08433e-40 0.055599086 1.61138e-40 0.05451824
5.73253e-40 0.11580016 0.104346946 0.03799973 0.09274496 -0.03267922 -0.13744935 0.10838559
-0.052538812 -7.79514e-40 -0.008919184 1.370205e-39 0.15238187 6.76009e-40 8.8270184e-13 3.72325e-40
0.031252366 0.09145082 0.19897904 -0.20400031 -5.97875e-40 -7.61915e-40 2.5349508e-29 -0.08453249
-0.016556635 -1.88333e-40 0.08082368 0.026195874 0.057683174 -0.27114964 -8.71414e-40 0.1401419
-0.17912805 -0.23354132 -0.11626333 -5.73835e-40 -0.07238675 0.057069834 1.446251e-39 -0.00071184285
9.32568e-40 0.08571344 -6.67549e-40 -0.02946831 0.15215176 0.09047404 -0.21452542 -0.09351273
0.070211455 8.48591e-40 -0.091245875 0.12581363 0.017365905 -0.08513568 0.023317939 -0.050501145
-9.02223e-40 -0.020287985 -0.02378756 -0.094028816 0.092822745 -1.36444e-40 0.038026888 -1.228293e-39
-0.3356581 -0.047870085 0.016977344 -0.055765707 6.1202e-40 0.059683297 0.1454998 0.27265707
0.07867471 0.188326 0.037643038 -0.1368003 -0.16165493 5.27971e-40 -0.07532369 -0.0038689382
00000000: 0265 ad3d 91c4 46be b163 323e 4a8d 59b7
00000010: 6b6f 433e 0c87 67bb c558 f93c d0f0 d8bc
00000020: c145 a39d 66c0 9e3d 5273 3dbe bd62 173d
00000030: cab4 b73d a580 a5be 9bca 0080 b01d 83bc
00000040: 4d8b fe3b 1da0 033e 5c5d 3e3e 45dc 67be
00000050: 28c0 a2b5 f5f9 26be 1977 8a36 4a60 49bc
00000060: 8424 c725 029b 7ebe b61f c53d 83b6 ac23
00000070: e7bb 17be f0ac b1bd 367d 782e 8b9b e53d
00000080: 5564 633b 11ff 313e f824 cf3c 23a5 373e
00000090: 143e afbd fdcb 8d3d cbc1 0080 d238 b125
000000a0: 01a1 41be 4c8f 49be d435 213d 6f7f 8dbe
000000b0: 7428 0480 99d1 3b3e 1e54 0139 d1ef b4bd
000000c0: ed2e 253b dc81 b83a 8f4a b23d bb1a 6bbe
000000d0: cd39 eebd 66c4 123d 46fe af3d 18bc 8bbd
000000e0: ddca 283d 8ae4 0400 2f4e a93b 8cf2 0780
000000f0: 5593 023e e926 0480 8b5a 6a39 e3b8 9f3a
00000100: 209a a3bd 2388 083e c862 63be af41 ef3d
00000110: 6c8e 883c 44c6 63af f207 9933 d73c 503d
00000120: e331 61bd 0902 6cba 62c5 613b a676 17be
00000130: 33de 063e d246 9ebd 960d 0280 222f 9fbd
00000140: 61c7 303e e307 c23c f4ea c93d 0bbf 16b9
00000150: fc38 1f3e d81f 0abe a095 60a9 d4be d13d
00000160: 1149 0200 80bb 473d 70a8 8388 81d6 0a3c
00000170: 1eb7 bcbe a56b 1fbd 808d d13d 0e6c 2e3e
00000180: 9b04 30be a8bc 2339 9679 733c 74b2 0bbd
00000190: 6727 b338 4b09 4b3d 9f1c 7d3c ca48 c6bd
000001a0: 675d aa39 7fa7 5dbd 408a 0e3e 79eb be3c
000001b0: 649c dbbb be2f 8592 d78f 3bbc b7e7 3f39
000001c0: 152d 4d3e f8f9 3bbe 6d42 88bd d984 e03b
000001d0: e03a a339 f976 3cbe 67b5 113e 838c 2cbe
000001e0: caf5 babd 0c9f aebd cbbb febd 2bf5 883d
000001f0: e494 733d 7cda 8235 d3f7 093e c173 83bd
00000200: 05a6 3cbc 7f20 1f3d 83f3 8dbd f84d 0200
00000210: 74d4 5cbe 647d 78bd 7286 c13d e865 293c
00000220: 1fd9 0d80 05ae 62be ca10 533b d405 be3d
00000230: 014c 4abe 6e35 4abf acd4 0380 397a 44bd
00000240: 634d 803c 9346 a0bd f8f4 093b 9fea b83a
00000250: 9287 0e80 1fa5 623d e61f 0b00 114a 85bd
00000260: 7c92 0080 b7dc cabc 16a6 a83d 6570 0080
00000270: f0ba 093e 2788 a43d 9c16 0580 fc83 9ebc
00000280: 3fcb 0800 ad49 e73d dee4 9e3d eb2f 36be
00000290: 7a11 0d3e 881b ab3c c577 0100 834e 3c83
000002a0: 88c8 fc3c 4161 953d 1ce9 81bd f36c 27bf
000002b0: c95b 0380 debb 633d 30c1 0100 854e 5f3d
000002c0: ff3d 0600 a228 ed3d dab3 d53d 9ba5 1b3d
000002d0: 12f1 bd3d a5da 05bd 86bf 0cbe 44f9 dd3d
000002e0: f032 57bd f87c 0880 c521 12bc 93eb 0e00
000002f0: fe09 1c3e 705c 0700 5f75 782b e40d 0400
00000300: 7b02 003d 914a bb3d 29c1 4b3e 75e5 50be
00000310: a282 0680 e94b 0880 8b89 0010 5f1f adbd
00000320: c8a1 87bc ff0c 0280 e386 a53d bb98 d63c
00000330: 3145 6c3d 20d4 8abe 267d 0980 5c81 0f3e
00000340: 586d 37be 7525 6fbe 781b eebd 9e3f 0680
00000350: 813f 94bd 0fc2 693d 8fbf 0f00 f79a 3aba
00000360: 9f27 0a00 878a af3d db44 0780 8667 f1bc
00000370: accd 1b3e 744a b93d 8dac 5bbe 9a83 bfbd
00000380: 06cb 8f3d 873d 0900 1edf babd 4ad5 003e
00000390: f142 8e3c 9e5b aebd 4305 bf3c 4ada 4ebd
000003a0: 08d3 0980 fd32 a6bc 21de c2bc 2e92 c0bd
000003b0: da19 be3d 5a7c 0180 15c2 1b3d fb5f 0d80
000003c0: 61db abbe 6c13 44bd 1214 8b3c 956a 64bd
000003d0: 10aa 0600 7976 743d e6fd 143e b599 8b3e
000003e0: 3520 a13d 88d8 403e 962f 1a3d 6115 0cbe
000003f0: df88 25be c5bf 0500 4f43 9abd 038e 7dbb
