graph_models/agonist/ros/GT.pth (torch, 660491 bytes, 68 tensors)

conv_layers.0.lin_key.weight f4 [128, 32]
000000 71 8b 21 bd 32 3a 55 3d 8f b3 06 3b de 5c 51 bb
       -0.039439622 0.052057452 0.0020553803 -0.0031946222
000010 89 c6 95 3b d4 25 a8 bc dd ca 32 bc 2e 6b c3 3c
       0.0045707864 -0.02052585 -0.010912624 0.023854818
000020 e9 68 ba b9 bd e3 ea bc fa 46 a2 3a f4 75 53 ba
       -0.0003555485 -0.028673047 0.0012380772 -0.00080665876
000030 3d 3b d5 bd 7f a7 d0 3d 87 94 7f 3d 9d 8c 75 3c
       -0.104116894 0.10188197 0.062397506 0.014987138
000040 45 66 88 bd 9c 1d 02 80 4e c0 d5 bb b9 28 e4 3b
       -0.06660131 -1.94293e-40 -0.0065231686 0.0069628623
000050 99 23 64 bd 5c 94 64 3d 0b ec 00 00 46 2b 01 80
       -0.05569801 0.05580555 8.4676e-41 -1.07359e-40
000060 a5 9d 09 be 43 d1 10 3d 7a 2d a6 3c db 8a a6 3d
       -0.13439043 0.035355818 0.020285357 0.08131953
000070 26 d2 00 00 22 8c 02 80 ab a7 d8 bb 2d 17 08 bc
       7.5387e-41 -2.33941e-40 -0.0066117845 -0.008306307
000080 3a df 92 bd d0 0d 1d 3d c0 e8 91 3d 4f cb dd b7
       -0.07171483 0.03834325 0.07124472 -2.6439926e-05
000090 59 dd df 3b e3 5a 17 bd be 58 6e ba b3 d3 52 3c
       0.0068318066 -0.03695191 -0.0009092203 0.012867856
0000a0 0e 76 18 bb a9 90 b2 bc e1 ac ea 3a b5 ee 09 bc
       -0.0023263725 -0.021797495 0.0017904305 -0.008418729
0000b0 03 4b 1d bd ad 83 63 3d de 97 b1 3d f5 5a 4a 3c
       -0.038401615 0.055545498 0.086715445 0.012350787
0000c0 2f d7 19 be 75 16 00 80 c0 f0 a8 bc f3 70 4e 3c
       -0.15023492 -8.056e-42 -0.020622611 0.012600171
0000d0 19 df 64 bc c4 0b 90 3c 3b e8 00 00 43 31 03 80
       -0.013969206 0.017583735 8.3309e-41 -2.93178e-40
0000e0 6c 14 82 3d 23 bc 97 bd 49 ab 52 bd 04 b4 8b 3d
       0.063515514 -0.07408931 -0.05143288 0.06821445
0000f0 c2 a5 01 00 58 9b 00 80 be e5 65 3c be 7a 92 bc
       1.51298e-40 -5.5727e-41 0.014031826 -0.017880794
000100 1e a1 d9 bd 8e 59 a7 3d 36 5d 0c 3e 5d eb 61 bb
       -0.10626434 0.08171378 0.13707432 -0.0034472563
000110 fa a8 d5 3b 8b f3 42 bd 20 7c 38 bd d2 c6 21 3d
       0.0065203877 -0.047595542 -0.04504025 0.03949625
000120 d3 d3 46 bb 89 af 18 bd b1 3b 81 3c f2 e7 5e bc
       -0.003033866 -0.03727678 0.015775533 -0.013605105
000130 e6 c6 23 be a6 71 37 3e 36 c9 0f 3e 99 a7 85 3d
       -0.15993842 0.17914447 0.140416 0.06526107
000140 6a 95 89 be d1 a6 00 00 1d 99 1b bd 95 b5 78 3d
       -0.26871806 5.9842e-41 -0.037987817 0.060720045
000150 16 ba 85 bd 58 55 a4 3d 88 f7 00 00 69 f0 00 80
       -0.06529634 0.080240905 8.8797e-41 -8.6243e-41
000160 9f 98 84 3a 3e ed 2b bd 65 87 96 bd f2 0e 1e 3e
       0.0010116285 -0.0419743 -0.07350043 0.15435389
000170 08 54 00 80 2f 5e 01 00 3e 4e fb 3c f8 55 13 bd
       -3.0145e-41 1.25622e-40 0.030676957 -0.035970658
000180 0d 1e a1 3d 20 45 cf bc ac 26 f7 bd ed a8 51 3a
       0.0786706 -0.025301516 -0.12067923 0.0007997889
000190 dc f8 bc bb e4 dc 36 3d 0a e2 80 3c 36 1f c0 bc
       -0.005766971 0.04464425 0.015732784 -0.023452383
0001a0 d5 41 3f 3b 80 81 f7 3c ee 01 54 bc 73 f4 4c 3c
       0.0029183526 0.030213118 -0.012939913 0.012509453
0001b0 7e d3 af 3d 8e 39 0f be 4e f8 e3 bd c1 21 be bc
       0.08585261 -0.13986799 -0.11131345 -0.023209454
0001c0 3d 58 59 3e a9 a3 00 80 0d 14 94 3c c5 22 fa bc
       0.21225066 -5.871e-41 0.018075967 -0.030534158
0001d0 fc e0 52 3d 82 b8 97 bd 6c 71 00 00 86 31 01 80
       0.051484093 -0.07408239 4.0688e-41 -1.09601e-40
0001e0 24 2a f3 bc 94 b6 b8 3d 20 d7 c5 3d 6d 2d 00 be
       -0.02968318 0.09019199 0.096601725 -0.12517329
0001f0 b4 b0 03 00 e2 f3 00 80 f5 0b 02 bd a0 3a d5 3c
       3.38896e-40 -8.7489e-41 -0.031749684 0.026028931
000200 6b 14 b9 3d 33 eb 95 bd f8 ff 5c bd 75 f3 0b 3b
       0.090370975 -0.07320251 -0.05395505 0.0021354828
000210 eb b9 aa bb ab df 1e 3d 0a 00 14 3c fb e0 be bc
       -0.0052101514 0.038787525 0.009033212 -0.023300638
000220 55 d6 fa 3a 39 f2 03 3d 6d ec 21 bc 1c cd 0e 3c
       0.0019137362 0.032213423 -0.009883028 0.008715894
000230 96 74 bb 3d 79 1b c4 bd ae cc d7 bd 25 ac 4b bc
       0.091530964 -0.095755525 -0.105370864 -0.012431179
000240 48 00 4d 3e a5 9c 00 80 f5 38 ee 3c 8a 6c 97 bc
       0.20019639 -5.6193e-41 0.029079894 -0.018484373
000250 41 8f dd 3c f5 99 2e bd 7e bc 00 80 0e ab 00 80
       0.027045848 -0.042627294 -6.7618e-41 -6.1363e-41
000260 b3 ba 2b 3d 45 5b 94 3c 06 2d f9 3c e9 c2 de bd
       0.041926097 0.018109927 0.030416977 -0.1087702
000270 58 e6 00 80 60 18 02 80 ee 99 34 bb 81 c1 d0 3c
       -8.2632e-41 -1.92415e-40 -0.002755757 0.025482895
000280 e0 51 c4 bd 86 98 fb 3c 17 36 bb 3d 9b 2c 23 bb
       -0.09585929 0.030712377 0.09141176 -0.0024898413
000290 be c4 c6 3b b8 67 05 bd 09 70 33 bc 6b 1d a0 3c
       0.006065934 -0.032569617 -0.010952004 0.019545278
0002a0 09 ab e4 ba 8f 91 bc bc 03 44 2f 3b 1c 1f 1a bc
       -0.0017445992 -0.023018626 0.002674342 -0.009406831
0002b0 17 42 63 bd 6e 09 93 3d 88 01 d2 3d b7 16 a8 3c
       -0.05548295 0.07179533 0.10254198 0.020518644
0002c0 f1 81 2a be 32 77 00 00 dd b6 c9 bc 67 70 aa 3c
       -0.16651131 4.2759e-41 -0.024623329 0.02080555
0002d0 bb 4d f2 bc e1 e1 c6 3c 1d 6e 00 80 31 04 00 80
       -0.02957808 0.02427763 -3.9501e-41 -1.504e-42
0002e0 2b 9a 7d 3d 7d 50 56 bd 2a cb 94 bd ee 36 af 3d
       0.061914604 -0.052322853 -0.07265313 0.08555399
0002f0 16 47 00 80 cb 87 00 00 9d 05 b9 3c 64 19 a2 bc
       -2.5501e-41 4.8713e-41 0.022585684 -0.019787498
000300 31 94 6a bd d8 d6 3c 3d 38 bd 6f 3d 41 4d 65 ba
       -0.057270233 0.04610333 0.058530062 -0.00087471685
000310 b5 c7 bf 3b 91 0f 18 bd 44 02 59 ba d4 72 81 3c
       0.0058526644 -0.03712422 -0.00082782307 0.015801825
000320 51 61 fc ba f9 03 db bc 2e e7 b5 3b 9a 7b 0a bc
       -0.0019255077 -0.026735293 0.0055512404 -0.0084523205
000330 87 27 6e bd fc c5 92 3d 19 6f b3 3d 2d 91 c0 3b
       -0.058143165 0.07166669 0.087614246 0.0058766813
000340 29 b9 30 be 96 27 00 00 33 b7 d2 bc 55 46 86 3c
       -0.17258133 1.4201e-41 -0.025722122 0.016390959
000350 64 e9 bf bc 6c ee 11 3d da a4 00 00 2d e2 00 80
       -0.023426719 0.035627767 5.9138e-41 -8.1137e-41
000360 45 68 d0 3b a8 7e 53 bd 12 27 f5 bc dc ed a7 3d
       0.006360086 -0.05163446 -0.029925857 0.08199665
000370 a7 00 00 00 56 2d 00 80 f6 af a7 3b ee 9e a8 bc
       2.34e-43 -1.6263e-41 0.0051174117 -0.020583596
000380 4f ee 7b bd a4 be 59 3d 6c 93 20 3d e7 3e 3e bb
       -0.061506566 0.053160325 0.039203092 -0.0029029192
000390 c0 b8 cb 3b 78 17 cf bc 5a 13 01 bc cc 26 8c 3c
       0.0062170923 -0.025279745 -0.007878149 0.017108344
0003a0 45 3b b5 ba 1b ff b9 bc 2a 32 e1 3a 98 26 c2 bb
       -0.0013826868 -0.022704652 0.0017181088 -0.005925011
0003b0 07 21 30 bd 9a d9 4c 3d 7c 7e a3 3d c7 50 cf 3c
       -0.043000247 0.05001221 0.07983109 0.025307072
0003c0 9d 6e e4 bd 47 61 00 00 82 e3 85 bc c2 12 94 3c
       -0.1115391 3.4897e-41 -0.016343836 0.01807535
0003d0 e3 f3 47 bc ba a5 79 3c 51 4e 00 00 bb ad 01 80
       -0.012204143 0.015237266 2.8095e-41 -1.54158e-40
0003e0 16 10 b6 bc 04 47 43 bb d9 0d d4 bc 9d 45 7f 3d
       -0.022224467 -0.0029796967 -0.02588551 0.062322248
0003f0 c3 37 00 80 45 5e 01 00 ab ee e0 3b 92 c5 46 bc
       -2.0004e-41 1.25653e-40 0.006864389 -0.012132065

conv_layers.0.lin_key.bias f4 [128]
000000 d3 e3 6c b2 ff c1 d2 b4 51 f5 9c 34 9e 37 b1 b5
       -1.3788809e-08 -3.92567e-07 2.9235756e-07 -1.3203714e-06
000010 17 65 92 34 00 25 1c b4 a1 b1 f3 b4 33 cf 0d 35
       2.7268172e-07 -1.4542093e-07 -4.539152e-07 5.282811e-07
000020 29 85 8a 35 dc c8 cd 32 fc 9d f1 b5 e8 ad ef b2
       1.0320556e-06 2.3956481e-08 -1.8001879e-06 -2.7902345e-08
000030 2e 9f 3a b5 2c 90 18 35 71 20 99 b3 d0 13 8a 35
       -6.9522036e-07 5.683421e-07 -7.130519e-08 1.0287567e-06
000040 b6 42 14 b4 d9 f2 fd 35 75 77 9e 34 96 ce fb 35
       -1.3807843e-07 1.8920647e-06 2.951671e-07 1.8761082e-06
000050 e4 5a a4 35 f8 2b 19 b4 66 80 4e b5 78 d1 ae 34
       1.2245405e-06 -1.4265231e-07 -7.6927824e-07 3.2562434e-07
000060 dd 9b ae 34 9c 98 85 34 fb 4f c0 34 df dc 83 b5
       3.252343e-07 2.4884218e-07 3.582098e-07 -9.824543e-07
000070 7a 12 52 b5 c7 bc af b5 31 9e c2 b4 20 5f fe b4
       -7.8257983e-07 -1.3093457e-06 -3.6250415e-07 -4.73804e-07
000080 d3 93 10 35 f7 14 05 33 21 fd a6 35 10 15 ca 35
       5.3859293e-07 3.0985543e-08 1.2441634e-06 1.5056303e-06
000090 b2 8c d5 b4 23 b4 14 35 e8 15 24 b5 16 16 3d 34
       -3.977671e-07 5.539643e-07 -6.112664e-07 1.7610031e-07
0000a0 67 48 a3 33 1d d8 1f 34 b6 86 24 b5 6a 55 a0 35
       7.603449e-08 1.488665e-07 -6.129079e-07 1.1945788e-06
0000b0 ee f6 0e 35 3c e2 54 34 99 88 2b 35 e0 2f 90 b3
       5.325845e-07 1.9826342e-07 6.390124e-07 -6.714231e-08
0000c0 8f 39 cc 34 d9 15 33 33 5d b5 a7 33 c1 c2 f3 34
       3.803984e-07 4.1696556e-08 7.809533e-08 4.540398e-07
0000d0 fd 50 97 b4 46 75 62 34 9c 92 bb b5 a0 ac 11 34
       -2.8184868e-07 2.1090554e-07 -1.3975255e-06 1.3566978e-07
0000e0 5d 9c 59 b5 78 3e cd 34 ed fe 00 b5 74 9b a1 34
       -8.106634e-07 3.8229678e-07 -4.805468e-07 3.0101694e-07
0000f0 20 2b 64 34 86 97 b1 35 6b e1 ca 35 2a fa 9c b4
       2.1249843e-07 1.3231627e-06 1.5115778e-06 -2.9239283e-07
000100 6d b0 3a b3 a5 05 79 b4 19 5b 82 b3 e2 52 eb b5
       -4.3466958e-08 -2.3191986e-07 -6.070167e-08 -1.7532986e-06
000110 79 ec 31 34 a4 24 a8 b5 0d d8 c0 34 c7 17 bf 35
       1.6570438e-07 -1.2527639e-06 3.5919984e-07 1.4237529e-06
000120 2f 22 68 b4 80 bf c2 b3 39 a5 8c 35 04 c7 07 b5
       -2.161912e-07 -9.0686626e-08 1.0478899e-06 -5.0581025e-07
000130 cc ed 5c b4 3c e8 c1 b5 fc 88 12 36 bc a2 2f 32
       -2.0575607e-07 -1.444721e-06 2.183543e-06 1.0223342e-08
000140 78 ee ab 35 b3 5e dd 35 df d6 98 34 b2 5b 8c b5
       1.2809896e-06 1.6493344e-06 2.8468546e-07 -1.04575e-06
000150 af 38 44 35 ce b2 d8 34 97 5b 47 b3 37 d7 da b4
       7.3098175e-07 4.0363233e-07 -4.64166e-08 -4.0762254e-07
000160 3c d1 ae 33 12 10 11 b5 b5 86 1f b5 de 4d 04 b3
       8.140566e-08 -5.4040095e-07 -5.942814e-07 -3.0804465e-08
000170 55 fc 9a 35 4e 17 95 32 c7 a7 23 35 53 80 b4 b5
       1.1547332e-06 1.735648e-08 6.096638e-07 -1.3448392e-06
000180 70 0f 10 b5 b3 47 b1 b5 0a 68 25 b2 ca 96 a2 b3
       -5.3666645e-07 -1.3208395e-06 -9.62792e-09 -7.571141e-08
000190 1e 41 ab b4 94 44 ec b5 1e 8c 36 33 9d 50 17 b5
       -3.189861e-07 -1.7603329e-06 4.2502613e-08 -5.636919e-07
0001a0 93 2a c2 b4 1f 5e ee b2 a7 7f 3c 34 a6 30 27 b6
       -3.6166293e-07 -2.7749648e-08 1.7555304e-07 -2.4913256e-06
0001b0 90 25 18 35 92 f7 1f b5 fe d3 85 34 76 3a 31 b4
       5.6679073e-07 -5.959238e-07 2.4927425e-07 -1.6505678e-07
0001c0 34 66 a9 33 31 f9 b3 34 71 16 78 b4 4b 60 e5 34
       7.8882664e-08 3.352266e-07 -2.3104964e-07 4.2724636e-07
0001d0 f0 b5 aa 34 17 36 82 b4 67 05 ab 34 78 9c f4 35
       3.1797344e-07 -2.4253742e-07 3.1855163e-07 1.8224955e-06
0001e0 0b 7a 21 35 82 17 06 36 d3 91 7b b4 27 c7 10 b4
       6.015477e-07 1.998124e-06 -2.3429247e-07 -1.3483496e-07
0001f0 59 9d 27 b4 fe e3 26 33 51 72 64 35 8c 3d 29 b5
       -1.561033e-07 3.8857245e-08 8.510297e-07 -6.304697e-07

conv_layers.0.lin_query.weight f4 [128, 32]
000000 03 90 14 3c e4 6e c3 3c 51 0d 03 3d c7 3c 01 80
       0.009067538 0.023856588 0.03199512 -1.13638e-40
000010 4f da 28 bc 38 fb 52 3d 9e 7e 01 00 27 ce 02 00
       -0.010305955 0.051509112 1.37257e-40 2.57625e-40
000020 1e 20 02 80 ac 27 60 3a 30 1a 69 ba b5 d5 0f bb
       -1.95192e-40 0.00085508334 -0.0008892147 -0.0021947448
000030 56 e5 44 bc 48 3f 0a 3e 5e 08 76 3c 90 3a d5 3c
       -0.012017569 0.13500702 0.015016643 0.026028901
000040 da 01 eb bb 43 3d 00 00 f4 3e 01 00 b0 d2 70 3d
       -0.0071718516 2.1977e-41 1.14419e-40 0.058794677
000050 3f 5d 63 bd 13 c2 d5 3d 98 8a 00 80 8f a1 00 00
       -0.05550885 0.10437407 -4.9718e-41 5.7956e-41
000060 14 31 50 3d 5a 8b 3c bd d3 b6 c4 3d 6e 14 01 00
       0.050828055 -0.046031334 0.096051835 9.9164e-41
000070 46 b7 01 00 9c 14 00 00 40 3a 94 b9 77 f8 db ba
       1.57582e-40 7.393e-42 -0.0002827216 -0.0016782422
000080 ca 74 c2 3d 15 7b 10 3d ae af df 3a 20 07 01 00
       0.09494932 0.03527363 0.0017065906 9.4391e-41
000090 f1 d3 f7 ba f3 68 b9 3a 98 00 01 00 9a fa 01 80
       -0.0018907768 0.0014145657 9.2048e-41 -1.81734e-40
0000a0 fa c0 00 00 6c f2 f2 bb af 73 40 39 6c 51 28 3b
       6.9227e-41 -0.007414153 0.00018353642 0.0025683297
0000b0 90 1e f6 3d b2 d8 ab 3c b3 23 ac 3c 41 bd 3d 3b
       0.12017548 0.020977352 0.021013116 0.0028951915
0000c0 bf 6e d5 3d 4c 2b 02 80 9e 96 02 80 78 d9 c4 3c
       0.10421514 -1.99203e-40 -2.37702e-40 0.024029478
0000d0 0c 57 c3 3d 0e 7f b0 3c aa b7 00 00 6e a9 00 80
       0.09538087 0.02154496 6.5886e-41 -6.078e-41
0000e0 9b 78 84 3d a6 b8 1d 3d cc 44 1b 3d be 54 00 00
       0.06468316 0.038506173 0.037907407 3.04e-41
0000f0 d8 e4 00 80 4f dc 00 00 d6 47 a5 bb d1 ac 20 3b
       -8.2094e-41 7.9032e-41 -0.005043964 0.002451707
000100 9a de 43 3e 21 d1 33 3d fc 97 92 3d a4 5f 01 00
       0.19127885 0.043900613 0.07157895 1.26145e-40
000110 87 2f d3 bb 96 12 4c 3c 88 23 01 80 1c 98 00 00
       -0.0064448747 0.012455603 -1.04582e-40 5.4567e-41
000120 64 98 01 00 c1 90 3c bc 3c 11 f4 3b 58 dd 81 ba
       1.46503e-40 -0.011509121 0.0074483436 -0.0009907885
000130 f3 f1 11 3e 84 41 f3 3d c1 b4 c2 3c 22 49 8b 3d
       0.14252453 0.118777305 0.02376783 0.06801058
000140 48 04 dd 3d 97 d6 00 80 c8 e6 00 00 93 1e ff 3d
       0.10791832 -7.698e-41 8.2789e-41 0.124570034
000150 e7 b6 66 3d 29 f8 dc 3d 49 cc 01 00 9a 0d 00 80
       0.056326773 0.1078952 1.65119e-40 -4.88e-42
000160 e3 29 77 3c 3b 61 00 3e fb 19 09 3e 11 ba 01 80
       0.01508567 0.1253709 0.13388817 -1.58584e-40
000170 02 07 01 80 a3 10 01 00 11 c8 58 bb e2 7c 9e 3b
       -9.435e-41 9.7804e-41 -0.0033078233 0.0048366645
000180 db 47 11 be 0a 04 1f bc 8b 24 24 bd fe d2 00 80
       -0.14187567 -0.009705553 -0.040073913 -7.569e-41
000190 93 a8 ca 3b 58 05 ea bc e3 95 00 80 62 60 00 00
       0.0061846464 -0.028567001 -5.3769e-41 3.4576e-41
0001a0 6f bc 02 00 cf 63 12 3c 15 b8 77 b9 d5 96 6b 3b
       2.51268e-40 0.008934929 -0.00023624332 0.0035948057
0001b0 43 74 1f be cc 63 80 bd d1 fd 2b 3a a2 5c 23 bd
       -0.15571694 -0.06269035 0.0006560954 -0.039883263
0001c0 30 0b 07 be fd 8c 01 00 92 b9 00 00 97 34 9b bd
       -0.13187861 1.42413e-40 6.657e-41 -0.0757839
0001d0 a5 35 73 bd 7f 2d a3 bd 3b 10 01 00 9e a1 00 80
       -0.05937733 -0.07967662 9.7658e-41 -5.7977e-41
0001e0 8e 82 a0 bd ef 4f 54 bd b8 e9 ab bd dd 71 00 00
       -0.07837401 -0.051834043 -0.08394188 4.0846e-41
0001f0 80 0b 01 00 97 af 00 80 4e 82 a5 ba e9 e5 31 bb
       9.5961e-41 -6.299e-41 -0.0012627335 -0.0027145094
000200 80 f2 60 bd dc 5c a0 bd 4f f3 39 bd 27 88 01 80
       -0.054918766 -0.078302115 -0.045398053 -1.40678e-40
000210 bd b5 0c 3c ba 39 01 bd c4 92 00 80 df 65 01 80
       0.008588252 -0.031549193 -5.265e-41 -1.2838e-40
000220 ae c7 00 80 7e 87 d5 3b 72 50 90 ba f8 c7 90 3a
       -7.1632e-41 0.006516396 -0.0011010303 0.0011045923
000230 97 63 c5 bd ff 7d dd bd a9 00 4f bd 6e ac 2d bd
       -0.09638136 -0.108150475 -0.05053774 -0.04240077
000240 63 54 53 bd 6e 98 01 00 8d 1a 00 80 1d 88 9c bd
       -0.05159415 1.46517e-40 -9.525e-42 -0.07643149
000250 f5 6a 3c bd 85 a6 9f bd 17 8f 00 00 56 30 01 80
       -0.04600044 -0.07795433 5.1331e-41 -1.09175e-40
000260 51 3b d2 bd 2e 39 ed bc 33 a0 99 bd 31 2b 02 00
       -0.1026522 -0.02895793 -0.07501259 1.99165e-40
000270 2f 17 02 80 7e 25 00 80 dc 31 f7 3b 93 87 88 3a
       -1.91988e-40 -1.345e-41 0.0075437855 0.0010416381
000280 9f fe ef 3d 82 aa cc 3c 7a 02 28 3c c0 ff 00 00
       0.11718487 0.024983648 0.010254497 9.1746e-41
000290 e7 68 33 3a 0b cd 58 bc 95 30 01 80 64 55 01 80
       0.000684394 -0.01323248 -1.09263e-40 -1.22468e-40
0002a0 af c6 00 80 19 13 14 bc 02 e0 42 3b 5c fb 58 bb
       -7.1274e-41 -0.009037756 0.002973557 -0.0033108806
0002b0 e9 d1 de 3d 42 81 1e 3d 1f 38 e6 3c 15 c9 2b 3c
       0.10879881 0.03869749 0.028102932 0.010484953
0002c0 fb 03 2a 3d 4f 62 01 80 9b 9e 00 80 20 da 26 3d
       0.041507702 -1.27102e-40 -5.6897e-41 0.040735364
0002d0 14 f7 90 3d 1e 0e 0a 3d 76 4b 00 00 a8 1e 01 80
       0.070783764 0.03370487 2.707e-41 -1.02833e-40
0002e0 e0 35 c3 bb bf 65 b7 3d 5e e8 5d 3d fb c4 00 00
       -0.00595735 0.089549534 0.05417668 7.0663e-41
0002f0 bb 2c 01 80 cd f1 03 80 a6 20 68 bb f4 0d a3 3b
       -1.07882e-40 -3.62248e-40 -0.003541985 0.0049760286
000300 26 4a 67 3d b5 30 65 3d ba 06 ed 3c 90 05 00 00
       0.056467198 0.055954654 0.028933872 1.995e-42
000310 d6 f1 aa bb bd a3 b1 3c ce 89 03 00 0f fb 00 00
       -0.0052168174 0.021684522 3.24941e-40 9.0063e-41
000320 78 66 01 00 e6 c7 c7 bb 34 2d 3f 3a d7 0f 8d bb
       1.28594e-40 -0.006096828 0.00072928076 -0.004304867
000330 5e 8d da 3d 6e 00 7c 3d 0e 91 19 3d 3b b7 e6 3c
       0.10671495 0.061523847 0.03749185 0.028163543
000340 bf d4 80 3d 06 3d 00 80 e1 31 00 80 a4 e5 5b 3d
       0.06290578 -2.1891e-41 -1.7893e-41 0.0536858
000350 a1 e9 8d 3d 32 80 3e 3d f6 51 01 00 5d cc 02 00
       0.06929327 0.046508975 1.21238e-40 2.56983e-40
000360 40 2c a3 3d 64 9b c6 3c 72 a5 52 3d fa e9 00 00
       0.079674244 0.024244018 0.051427312 8.3935e-41
000370 39 73 02 00 06 29 02 00 1a 38 00 bc 7f 78 e0 ba
       2.25005e-40 1.98387e-40 -0.007825876 -0.0017125754
000380 28 7b 45 3d f0 a7 39 3d f4 04 ee 3c 91 db 01 00
       0.048213154 0.045326173 0.029055096 1.70601e-40
000390 95 93 11 ba 39 50 e7 bb a2 0a 01 80 1c cb 00 80
       -0.00055533025 -0.007059124 -9.565e-41 -7.2862e-41
0003a0 bb c6 00 80 aa 37 b6 bb 88 48 ae 3b ee be a1 3a
       -7.1291e-41 -0.005560835 0.005318705 0.0012340227
0003b0 5e f3 6e 3d d3 02 44 3d 89 4f 12 3d 6a c9 db 3c
       0.05833756 0.047854256 0.035720382 0.02682944
0003c0 1a 78 6d bc 85 0a 01 00 50 ba 03 00 37 a6 76 3d
       -0.0144939665 9.5609e-41 3.42343e-40 0.06021711
0003d0 05 e8 89 3c a6 ca e1 3c 08 55 01 00 5e 50 01 00
       0.016834268 0.02756245 1.22339e-40 1.20666e-40
0003e0 34 48 ed b9 0e 7f 67 3d 9f 1c 39 3d ca 10 00 00
       -0.00045257958 0.056517653 0.04519331 6.023e-42
0003f0 dc 4a 02 80 4c 8c 00 00 04 71 de ba 03 ca 8a ba
       -2.10525e-40 5.0329e-41 -0.0016970937 -0.0010588769

conv_layers.0.lin_query.bias f4 [128]
000000 ad 6c cd 3d d1 e1 e9 3d 09 df 8f 3e b3 29 3a be
       0.10030494 0.11420024 0.2809985 -0.1817997
000010 84 6b 3d be 1f 35 f6 3d d0 74 14 3e 55 ee c5 3d
       -0.18498045 0.12021851 0.14497685 0.09664599
000020 04 68 66 be 08 cd 48 3e f4 1e 6e be 83 49 e0 bc
       -0.22500616 0.19609463 -0.23253995 -0.027378803
000030 f1 d2 16 be 81 66 35 be 23 63 7f 3d 68 2d 30 be
       -0.14728905 -0.17714883 0.062350404 -0.17204821
000040 5f 50 a4 bd 10 48 85 3e d4 ec 4f be 03 99 5f 3e
       -0.08023142 0.26031542 -0.20305187 0.21835713
000050 e5 1c 6f 3e c2 4b 2c be 95 d9 9b be db 45 2d 3e
       0.23350866 -0.16825774 -0.3043944 0.16921179
000060 c4 f6 1a 3e ce f3 5b 3e 1d 58 10 3e 71 ed 40 be
       0.15133196 0.21479723 0.14096113 -0.18840577
000070 81 4f 20 be 19 0e 26 be b7 23 79 be 99 82 72 3d
       -0.15655328 -0.16216315 -0.2433003 0.05920658
000080 8e 5e 08 3e 24 b1 0a 3e aa 01 32 be 11 68 5d 3e
       0.1331732 0.13544136 -0.17383447 0.2162173
000090 ba c8 c8 3d 8e bd 7b 3e a0 53 37 be 5a c3 3b be
       0.098039106 0.24584028 -0.17902994 -0.1833624
0000a0 d9 da 92 bc a5 95 07 3d 63 67 42 3e 1b 48 5a 3e
       -0.01792662 0.033101697 0.18984751 0.21316569
0000b0 8f 2e e1 3d 67 a4 85 3d e4 cb 4d 3e 37 fd ea 3b
       0.109952085 0.06525498 0.2009731 0.007171299
0000c0 3d 3d 1b 3e 74 e3 04 3e e3 85 f8 bc 29 19 1f 3e
       0.1516008 0.12977391 -0.03033728 0.15536942
0000d0 89 c9 a3 3e 6f 85 8e 3d ed 05 b4 3d ba b9 34 3d
       0.31989697 0.06959044 0.08790193 0.044122435
0000e0 a6 6b 98 3e d8 02 42 be 43 2b 53 be 3f 1e 82 3e
       0.2976963 -0.18946397 -0.20621972 0.254137
0000f0 38 3d 50 be 48 51 99 be 06 1b 90 bd 0a eb 7d 3e
       -0.20335853 -0.29944825 -0.07036404 0.24796692
000100 d4 a7 32 be 91 e3 07 3e 39 d1 d5 bc 1e 1c 87 be
       -0.17446834 0.13270403 -0.026100742 -0.2638864
000110 72 81 27 be d2 f1 33 3e 34 67 f6 bd 3b f6 7d be
       -0.16357973 0.17572716 -0.12031403 -0.2480096
000120 ee f0 3b bc f6 5d 40 be 2d 57 5a bd 46 e1 0b 3e
       -0.011471016 -0.18785843 -0.053305794 0.13660154
000130 a4 1c 24 be 18 8b d9 bd e8 6a 78 be 7d 0c 1f 3d
       -0.1602655 -0.10622233 -0.24259531 0.03883027
000140 a0 77 21 be 3b 4a 77 be 88 ca 90 be 3c 75 84 3e
       -0.1576829 -0.2414941 -0.2827952 0.25870693
000150 a8 e2 1d be 05 da b1 3d 70 c2 6d be 0c e5 31 3e
       -0.15418494 0.08684162 -0.23218703 0.1737253
000160 02 07 40 3d 5b b1 1b be 8e fd c2 3d 2f 33 86 3b
       0.046881683 -0.15204374 0.09521018 0.004095457
000170 50 9a 7f be 64 cf 7a 3e 1b 94 f3 3d fa eb 94 3e
       -0.2496121 0.24493176 0.11893483 0.29086286
000180 13 e8 11 3e 31 c8 20 3e a1 9f f3 3b 7b ab 7e 3e
       0.14248686 0.15701367 0.0074348007 0.24870102
000190 10 71 55 3e 86 26 42 3e de ec 38 bc 90 46 30 be
       0.20843911 0.18960008 -0.011286942 -0.17214417
0001a0 f3 37 9d be 6a 75 3b 3b 52 c4 e5 bd eb 1a 76 3e
       -0.30706748 0.002860392 -0.11219086 0.24033706
0001b0 96 28 0e be 68 8a 44 3e e9 56 5e bd 90 39 02 be
       -0.1388267 0.19193423 -0.054282103 -0.12717271
0001c0 29 00 0b be be e4 10 be d5 3c 81 be 98 3b 1a be
       -0.1357428 -0.14149758 -0.25241724 -0.15061796
0001d0 de 7a 64 be 52 85 35 3e 64 1a 9c 3c e8 57 07 3e
       -0.22312495 0.17726639 0.019055553 0.13217127
0001e0 16 0f 6e be 05 6a 7b 3e c2 74 8d 3e 8f cd 44 3c
       -0.23247942 0.24552162 0.27628142 0.0120119
0001f0 7f 36 3d 3c f0 57 de bd 30 cc 95 be 80 b9 a1 3d
       0.011548637 -0.108566165 -0.29257345 0.078967094

conv_layers.0.lin_value.weight f4 [128, 32]
000000 2d 4d 7b bd 57 76 12 be 64 f3 a9 bd 84 f2 17 3e
       -0.061352897 -0.14302956 -0.08298376 0.14838606
000010 1b b8 24 3e c6 15 67 bd d9 cb e3 bc 83 9f 39 be
       0.16085856 -0.05641725 -0.027807163 -0.18127255
000020 e6 e2 ab bb cc 69 3f 3c f7 7d 0a bc 1d 95 4b 3d
       -0.0052455543 0.011682939 -0.008452884 0.049702752
000030 28 ef 18 3b e3 b9 f5 3c cf 32 2a 3e e5 a4 d1 bd
       0.0023335908 0.029995864 0.16620944 -0.10236529
000040 ac 68 a6 bd 5e 9c 00 80 26 7e f1 bd f9 99 d5 bc
       -0.08125433 -5.6094e-41 -0.11791639 -0.026074396
000050 68 7c f9 3d e6 a2 b3 bd b4 40 01 80 7b ec 00 00
       0.12181932 -0.08771305 -1.15047e-40 8.4833e-41
000060 24 d4 b5 bd 1f d4 c9 bd aa 46 50 3d db a0 42 3e
       -0.08878353 -0.09854912 0.05084864 0.19006674
000070 9c a1 00 00 22 19 00 00 f4 28 03 bd d9 1d 2e 3e
       5.7975e-41 9.016e-42 -0.032021478 0.17003573
000080 48 c3 b3 bd b9 2d 11 3e 62 83 85 3d 42 22 09 3e
       -0.08777481 0.14177598 0.065192 0.13391975
000090 b6 68 3b be b2 3e ab 3a 67 f3 76 bd b6 fb b0 bd
       -0.18301663 0.0013064949 -0.06029072 -0.0864176
0000a0 a0 e3 82 39 c0 de 51 3d 38 18 17 be 79 96 82 bc
       0.00024965126 0.05123782 -0.14755332 -0.015940892
0000b0 43 11 44 3e 8b 6a cb bd 87 8a 90 3d 9a 17 b1 3d
       0.1914721 -0.09932431 0.07057672 0.0864708
0000c0 cd 43 8c 3e a4 11 01 80 18 fa f4 bc 91 ae 15 3e
       0.27395478 -9.8164e-41 -0.02990441 0.14617373
0000d0 13 ab 5c be 97 f0 f6 bd 6b d8 01 00 b7 6d 02 80
       -0.21549635 -0.120576076 1.69472e-40 -2.23029e-40
0000e0 0c 4d 87 bd 41 5d 9d 3d 40 e7 04 be 0d 99 02 be
       -0.066064924 0.076838024 -0.1297884 -0.12753697
0000f0 d7 25 01 80 e1 22 03 00 eb 85 cf 3e 75 1e ba 3c
       -1.0541e-40 2.88019e-40 0.4053186 0.022719601
000100 16 4f c4 bd 84 b0 af bd a4 8b 3d 3d 24 d0 14 be
       -0.09585397 -0.085785896 0.04627575 -0.14532524
000110 ea 06 f9 bd ff 54 94 3e 2c a0 dd 3c fe 34 0a 3e
       -0.12159522 0.28971097 0.027053915 0.13496777
000120 be cb a0 3a 51 74 93 3d cd c9 3c 3e 63 d5 f1 bd
       0.0012267751 0.0719992 0.18436356 -0.118082784
000130 0d ac 2e bd 26 71 46 3d 26 96 ff 3d 3e 9b a8 bc
       -0.04264455 0.04844775 0.124798104 -0.020581838
000140 76 93 f7 3c 9e 21 01 00 19 01 c0 bd 40 d7 a6 3d
       0.030221682 1.03895e-40 -0.09375209 0.081465244
000150 cd a5 0d bd 79 15 05 be 8a 4d 00 00 a5 13 00 00
       -0.034581948 -0.12996472 2.7816e-41 7.047e-42
000160 d2 b0 35 bc 72 50 91 3e ef 25 f2 3d a5 4b 42 bd
       -0.0110895205 0.28381687 0.118236415 -0.04743542
000170 fb df 00 00 ff 20 00 80 ae a8 30 3c 26 4d e8 bd
       8.0349e-41 -1.1837e-41 0.010782404 -0.1134284
000180 d0 52 a4 bd 36 79 6a 3d a7 8f c5 3d 3e bb 0a bc
       -0.08023608 0.057244502 0.0964654 -0.008467494
000190 88 bb 59 bd a0 a9 81 bd 1c e3 b7 bd be 20 b3 3c
       -0.05315736 -0.063311815 -0.089788646 0.021866199
0001a0 ff a1 1b bb b5 b7 fa 3d 16 c8 8d bd 14 df db bd
       -0.002374768 0.122420706 -0.06922929 -0.10735908
0001b0 07 a2 10 3e 3d 98 8e bc 05 a0 e3 bd d5 e8 a6 3d
       0.14124309 -0.017406577 -0.11114506 0.08149878
0001c0 37 72 5b be d2 ce 00 80 ae 7e 13 3c 6d 49 b3 bd
       -0.21430288 -7.4193e-41 0.009002371 -0.08754239
0001d0 4a 46 68 bd 0c eb 98 bd 78 ca 02 00 31 49 01 00
       -0.056707658 -0.07466707 2.56303e-40 1.18092e-40
0001e0 8c 41 90 3d 55 3f 36 be 30 68 97 3d 7f de de bd
       0.07043752 -0.17797597 0.07392919 -0.108822815
0001f0 ff 1b 00 00 bf 42 01 00 30 c1 b1 bd 55 71 50 bc
       1.0043e-41 1.1578e-40 -0.08679426 -0.012722333
000200 e1 77 48 3e d7 5a bf bd c5 82 a4 3d be e8 6f 3d
       0.1957698 -0.09343498 0.08032755 0.05857157
000210 5d 9f b2 bc a3 53 a3 3d 1e d5 8b 3c ee 3d 31 be
       -0.021804506 0.07974937 0.017069396 -0.1730878
000220 7b 33 04 3b 3a 46 9a b9 ed f1 96 3d 11 c6 67 bc
       0.0020172286 -0.00029425492 0.073703624 -0.014146344
000230 f5 17 3c 3d da d6 e3 bc 28 3f 12 3e 65 a2 8d 3d
       0.045921285 -0.02781241 0.14281905 0.0691574
000240 a4 cb 1c be dd 88 00 00 c4 0d b5 bd 73 91 f3 3d
       -0.15312058 4.9097e-41 -0.08840516 0.118929766
000250 29 34 ff bd e8 84 2f 3d da 17 01 00 b8 8e 00 80
       -0.12461121 0.04285136 1.00392e-40 -5.1198e-41
000260 d4 fb a8 bd 55 0c cd 3d 51 61 30 be 0a 18 d2 3e
       -0.082511574 0.10012118 -0.17224623 0.41033965
000270 9e 32 00 00 43 6f 02 00 78 b1 e8 bc 4a e7 27 3d
       1.8158e-41 2.23584e-40 -0.028404936 0.04099206
000280 91 50 81 bd 8a b9 5a be 0d a1 26 bd 8f 43 fb 3b
       -0.06314195 -0.2135984 -0.040680934 0.0076679657
000290 69 5f 06 3e 11 7e 12 be fb 91 02 3e b7 c1 2d be
       0.13122334 -0.14305903 0.12751 -0.16968428
0002a0 ec 0d 2f bc 5c 50 59 3d f4 82 4b 3d d4 96 5f 3a
       -0.010684472 0.053055152 0.049685434 0.000852925
0002b0 dd 1d c4 bd e9 7a 07 be 88 d6 0f be d1 df 64 3d
       -0.095760085 -0.1323048 -0.14046681 0.05587751
0002c0 90 38 77 be 68 b4 00 80 2a b0 b0 3d ac fb 9a bd
       -0.2414267 -6.4718e-41 0.08627351 -0.07567534
0002d0 f1 fa f1 bd 24 94 e9 3d 9c 64 03 00 b2 23 01 00
       -0.118154414 0.11405209 3.11598e-40 1.0464e-40
0002e0 a9 8c 10 3e f1 ba 28 bd bd 32 c9 bd 92 44 f1 3d
       0.14116158 -0.041193906 -0.09824131 0.11780657
0002f0 76 3c 01 00 30 b7 01 00 fb 5a 11 bd 39 c1 29 3e
       1.13525e-40 1.57551e-40 -0.035487156 0.16577615
000300 1c 85 a1 ba b2 27 0c 3e 12 f3 69 bb e6 5a 7a bd
       -0.0012322995 0.13687018 -0.003569786 -0.061121844
000310 45 25 a7 bc 96 78 26 3e ad 9a 10 bd 66 48 0d 3d
       -0.020403514 0.16256937 -0.03530376 0.034492873
000320 58 1f 62 bb 53 38 5e 3e 2c 89 0b 3d 2a 8e 02 3e
       -0.0034503546 0.21701173 0.034066364 0.12749544
000330 e6 d1 8d 3d 15 1a e5 3d 8b e3 2d 3e de dc bd 3d
       0.069248006 0.111866154 0.16981332 0.09270643
000340 88 36 b4 3b 84 86 01 00 cc 41 8d bd 23 7d 5a 3e
       0.0054996647 1.4009e-40 -0.068973154 0.21336798
000350 ff 3c c7 bd d4 4e 85 bd 00 82 02 00 35 37 00 80
       -0.09728431 -0.06509176 2.30306e-40 -1.9805e-41
000360 b0 0e 2b be a3 33 8f 3d bc a7 e8 3d d1 b3 f8 3d
       -0.16704822 0.06992271 0.11360118 0.12143672
000370 de cf 00 80 c1 f8 00 80 3b 8f 65 be a8 f8 3f bd
       -7.4569e-41 -8.9236e-41 -0.2241792 -0.046867996
000380 d9 ab 08 be 9b c5 3d 3e 55 5b 0c 3e 70 8d 70 bd
       -0.13346805 0.18532412 0.13706715 -0.058728635
000390 46 09 51 3b 28 a0 11 be a9 4a 68 3d c7 f8 f2 3d
       0.0031896397 -0.14221251 0.056711826 0.11863857
0003a0 cc 79 25 3c f3 a0 df bc 8e 70 55 bd 5b 4b ed bb
       0.010099839 -0.027298426 -0.052109294 -0.007241649
0003b0 ea b6 be 3d 93 89 96 3d b3 90 21 3e d1 96 b8 bd
       0.09312232 0.07350459 0.15777855 -0.09013141
0003c0 79 f2 e1 3d 7f ee 03 00 79 27 28 3e f7 34 f1 bd
       0.11032576 3.61063e-40 0.16421308 -0.1177768
0003d0 0d 8f 22 3e 7b 82 a6 3c ee 68 01 80 24 08 03 00
       0.15874882 0.02032589 -1.29477e-40 2.78427e-40
0003e0 9e 7e 8b 3d 1e 19 00 3e ff 92 b1 3c ef 3b 17 be
       0.0681126 0.12509581 0.021676539 -0.14768957
0003f0 04 01 00 80 30 9f 00 00 17 61 9d bd 58 84 b6 bd
       -3.64e-43 5.7106e-41 -0.07684534 -0.08911961

conv_layers.0.lin_value.bias f4 [128]
000000 8b 88 e8 bd e1 f3 b7 3d d9 15 1e bd 0d 0f f5 3c
       -0.113541685 0.08982063 -0.038595054 0.029914403
000010 d1 c4 99 3c da 7d 17 3d 4e e8 ed bd ef ce e4 bd
       0.018770607 0.036985256 -0.11616574 -0.11172282
000020 fb 14 d7 bc d3 db d9 3d 84 d9 36 3e b0 84 b3 bc
       -0.026255121 0.10637631 0.17856413 -0.021913856
000030 30 21 f0 bc e9 3d 7f bd f1 5e e6 bd 2b ca d1 bd
       -0.0293127 -0.0623149 -0.112485774 -0.102436386
000040 6e 40 b8 bd e6 3a c0 3d e8 a6 98 bd 8b 79 c5 3d
       -0.08996664 0.09386234 -0.0745371 0.09642323
000050 15 fa da bd 0f d0 f7 bd 15 91 92 bd 19 03 83 bd
       -0.106922306 -0.12100231 -0.071565785 -0.06397075
000060 77 56 b3 bd 85 15 80 bd 66 16 f1 bd 14 6f a5 bd
       -0.08756726 -0.062541045 -0.1177185 -0.08077827
000070 1c 2b 68 bd 20 b7 f5 3d 6c 51 67 3d e3 19 92 3c
       -0.056681737 0.11997819 0.056474134 0.01783461
000080 27 da 2f be a0 5f 4b bd 50 57 b0 3b 3f 44 bc bd
       -0.17173062 -0.049651742 0.005381502 -0.091927044
000090 65 5d f7 3c fe dd bd bd db 17 d8 bd 31 aa 80 bd
       0.030195901 -0.09270857 -0.10551425 -0.062824614
0000a0 8b ac 11 3e 43 2d 40 bd 17 23 34 bd e1 d4 07 3e
       0.14225976 -0.046918165 -0.043978777 0.132648
0000b0 c0 3b 95 bd d3 68 04 3e 83 80 3a be d3 74 c8 bd
       -0.07286787 0.12930612 -0.18213086 -0.097879075
0000c0 9f 9c d3 3d 46 67 41 3e 31 cb 8b bd d9 77 9d bd
       0.103326075 0.18887052 -0.06825865 -0.07688875
0000d0 a9 98 f9 bd bd 9e e0 bc 15 8b 0c 3d 84 84 e1 3d
       -0.12187321 -0.027419442 0.034312326 0.110116035
0000e0 89 d5 00 bd c7 e1 ac bd e9 67 10 3d cf 2e b8 3d
       -0.031453643 -0.08441501 0.035255346 0.08993303
0000f0 78 46 fe bd 1b 3b 82 3d 01 43 05 bd 2a 8d cb bd
       -0.124157846 0.0635893 -0.032534603 -0.09939034
000100 0d c4 cb bc 35 e2 55 3d e5 b7 0a be 6e 73 84 3d
       -0.024873758 0.05221768 -0.13546713 0.06467329
000110 ca 70 ec bd 0a e7 33 be 06 92 a6 3c 71 a5 2a be
       -0.1154495 -0.17568603 0.020333301 -0.16664673
000120 8c 43 ad 3b 4f cd 66 bd 8f 8a 2c be bf 28 f0 bc
       0.005287593 -0.05634814 -0.16849731 -0.029316304
000130 13 73 24 3d be 73 18 3e 67 ef 94 bd 51 47 38 be
       0.040148806 0.14887902 -0.07272225 -0.17995955
000140 4d 0e 1d be 5d e4 eb 3c f2 12 07 be 2f 95 9c 3c
       -0.15337487 0.028795416 -0.13190821 0.019114105
000150 97 1d 35 be d8 05 92 3c 55 ea 96 bd 0f 62 a2 bd
       -0.17687069 0.017825052 -0.07368914 -0.079288594
000160 1e e2 ff bc 73 da 8b bd a4 eb 8f 3d 75 f1 b8 bd
       -0.03123575 -0.06828775 0.07027367 -0.09030429
000170 de 1e 21 3c a9 bf f8 bd 57 65 35 bd 1a ef 6b bd
       0.0098340195 -0.12145931 -0.0442861 -0.057601072
000180 a1 0b 12 3e 52 80 2d bc 21 5f 79 bd 87 78 86 bd
       0.14262249 -0.010589676 -0.060881738 -0.065659575
000190 00 fd 6e 3d 5a 7c 80 3d 2b 8c 37 3c 08 59 45 3d
       0.05834675 0.06273718 0.011202852 0.04818061
0001a0 40 5f db bd ec 7d 9e bd 0b 78 17 3e 22 f4 fa 3d
       -0.10711527 -0.077388614 0.14791887 0.12253596
0001b0 75 53 30 be bb 54 f0 3d cf ec bc bd b5 63 fe bd
       -0.17219336 0.11734911 -0.09224855 -0.12421361
0001c0 3f 46 93 3b f4 c1 14 bd 8e f4 06 be 70 0d 92 3d
       0.004494458 -0.03631778 -0.13179228 0.07131469
0001d0 c9 4e 66 bb 18 c8 06 3e 98 d2 e3 bd 33 ca 2a 3e
       -0.0035142174 0.13162267 -0.11124152 0.16678695
0001e0 a9 dd e4 bc 66 d0 2b be 92 36 a4 bd 84 c6 a5 bb
       -0.027937727 -0.16778716 -0.08018221 -0.0050590653
0001f0 d5 33 54 bd 65 e7 05 be 15 f7 dc 3c d5 c2 e1 bd
       -0.051807243 -0.13076551 0.026973287 -0.110234894

conv_layers.0.lin_edge.weight f4 [128, 11]
000000 55 3e c5 bc 8d 6f 34 be 66 fd 3f 3d c8 89 00 be
       -0.024077574 -0.17620678 0.04687252 -0.1255256
000010 ae e3 95 3d 0c 6b da 3d 4b f5 01 3e c0 5e 01 00
       0.07318817 0.10664949 0.12691228 1.25825e-40
000020 06 84 5c 3d 66 fb 16 3c 34 31 00 80 f6 59 b4 bd
       0.053836845 0.0092152115 -1.7651e-41 -0.08806221
000030 06 5e e4 bd b3 e0 e3 3d 4e 92 5b be 7e 6d a6 bd
       -0.11150746 0.11126842 -0.2144253 -0.08126353
000040 91 e0 c5 3c 34 69 1b 3d a3 93 00 80 47 b8 cf bc
       0.024154933 0.037942126 -5.2962e-41 -0.025356425
000050 88 c6 49 3e d1 34 00 80 3f 42 15 be b0 a0 92 3e
       0.1970464 -1.8947e-41 -0.14576052 0.2863822
000060 8d ff ff bd 3e 69 1a 3e b7 5e e2 bc 0a ff 55 be
       -0.12499914 0.15079209 -0.027633054 -0.20898071
000070 a6 02 48 3e 20 34 00 80 10 a4 fd 3d 1e a7 75 bc
       0.1953226 -1.8699e-41 0.12384808 -0.014993457
000080 0a 80 00 80 a3 c9 30 bd 3a 0e 1c bc ff 7a 7b 3d
       -4.5932e-41 -0.043161046 -0.009524876 0.061396595
000090 98 11 08 be da 26 70 3e f3 c3 0e 3e 49 28 1a 3c
       -0.13287961 0.2345232 0.13941936 0.009409019
0000a0 05 3e 00 00 44 be ad bd 5c f0 07 be 73 e0 00 00
       2.2248e-41 -0.08483556 -0.13275284 8.0517e-41
0000b0 45 d3 88 bd b4 07 8b 3c 17 9e 27 be 42 e9 0f 3d
       -0.066809215 0.016971447 -0.163689 0.03513456
0000c0 82 42 41 be 46 85 54 3e 0a 70 79 3c 9b df 00 00
       -0.18873027 0.20753965 0.015224466 8.0215e-41
0000d0 65 81 05 be 77 77 49 3e 89 e0 00 00 da 18 51 3d
       -0.13037641 0.19674478 8.0548e-41 0.05104909
0000e0 23 0a 71 3e 66 16 29 be 96 46 b2 3e e4 44 e6 bc
       0.23539023 -0.1651245 0.34819478 -0.028109021
0000f0 49 87 94 bc 36 e6 1a 3d bb 1a 00 00 68 87 0a 3e
       -0.018130915 0.037817203 9.589e-42 0.13528216
000100 ad 34 8b be 5f e2 00 00 12 55 d9 3d 9f 72 99 3d
       -0.27188626 8.1207e-41 0.10611929 0.07492565
000110 62 cb 29 3d f5 66 90 3d c7 e4 aa 3d 38 4d 0d be
       0.041453727 0.070508875 0.08344417 -0.13798988
000120 a0 f4 53 bd 4c f6 00 80 db 9a ae 3e 62 c4 fd 3c
       -0.051746964 -8.8355e-41 0.3410252 0.030977432
000130 0b 64 01 80 f3 4f da bd 30 51 11 3e 4d 32 50 3d
       -1.27724e-40 -0.1065978 0.14191127 0.05082922
000140 3b de 03 3e 38 2a b7 3d ca 63 3f be 10 9b 85 3c
       0.12877743 0.089435995 -0.1869041 0.016309291
000150 68 99 00 00 e2 10 06 3c 57 68 d8 bc aa 1e 01 80
       5.5032e-41 0.008182736 -0.02641694 -1.02836e-40
000160 b3 3d cc bd 50 db 66 be b2 68 ed bd 9f 8f cf bd
       -0.09972706 -0.22544599 -0.11592235 -0.101348154
000170 10 24 03 be 16 64 19 3d 57 94 48 3e a0 37 00 00
       -0.12806726 0.037448965 0.19587837 1.9954e-41
000180 1e 9c 3d be ed 8d 25 be 05 b8 02 80 fe 1a 90 3c
       -0.18516585 -0.16167422 -2.49685e-40 0.017590996
000190 12 5c 51 3e 62 36 db bc 63 08 bb 3d 50 b5 15 be
       0.20445278 -0.02675933 0.09132459 -0.14619946
0001a0 04 d5 d0 bd 50 9d c9 bd ef 8c 00 80 54 b9 14 3d
       -0.101968795 -0.09844458 -5.0557e-41 0.036309555
0001b0 9a a1 9d 3d 08 3f 00 00 fb 77 13 be 12 e8 c8 bc
       0.07696839 2.2611e-41 -0.14401238 -0.024524722
0001c0 1b 26 2b 3d b7 8d bb 3d dc 67 81 bd 3f 55 87 be
       0.041784387 0.09157889 -0.06318638 -0.26432225
0001d0 ce 61 cd bd 98 dd 00 80 d3 03 57 3e 05 6a 73 bd
       -0.100284204 -7.9493e-41 0.20997553 -0.05942728
0001e0 48 a0 00 00 6e fb 40 be 26 98 0b be 87 d1 6b bd
       5.7498e-41 -0.18845913 -0.13632259 -0.057572868
0001f0 08 29 54 3e 17 c0 52 be ab 16 7a be c1 2e 4d 3d
       0.20718777 -0.20581089 -0.2442271 0.050093416
000200 b8 d5 00 80 86 0a 48 bd c9 d7 25 be fc 15 00 80
       -7.6668e-41 -0.04883816 -0.16195597 -7.887e-42
000210 58 18 6f bd 92 fc af bd e0 4b c9 bc be 47 3f be
       -0.058372825 -0.08593096 -0.024572313 -0.18679711
000220 c1 99 7b 3e 56 0c 5b 3e f2 d2 f6 3c a6 ad 00 80
       0.24570371 0.21391425 0.030129883 -6.2293e-41
000230 21 e8 7d be 78 10 4f 3e d6 33 00 80 07 a9 12 3d
       -0.24795581 0.20221126 -1.8595e-41 0.03580573
000240 5a 10 9b 3d 47 ac 1c bd 37 25 3b 3e 03 81 85 3e
       0.07571478 -0.038250234 0.18275915 0.2607499
000250 e4 c7 9a bd eb f9 e7 bc da 3f 03 80 e5 28 3a 3e
       -0.07557657 -0.028317412 -2.98412e-40 0.18179663
000260 53 e4 cd 3b db 7f 00 00 80 43 56 be 73 76 13 be
       0.006283322 4.5866e-41 -0.20924187 -0.14400654
000270 f6 fb 2e bd cf d2 02 3e 13 d7 8a be a3 b6 fb 3d
       -0.042720757 0.1277573 -0.27117214 0.122906946
000280 7f 4d 02 bd 66 e0 00 00 c5 6a 49 3e 4c 5b 86 bd
       -0.031812187 8.0499e-41 0.19669636 -0.06560382
000290 f9 2a 00 00 08 a5 ef 3d 15 c3 ce 3d 9d 2f e3 3d
       1.5416e-41 0.11701399 0.10095803 0.11093066
0002a0 d4 e6 13 3e 1e 55 29 be b9 10 25 be 67 64 85 3b
       0.14443523 -0.16536376 -0.1611966 0.004070807
0002b0 35 c6 00 80 ef 39 01 3e 72 bb 50 3d cb d8 00 80
       -7.1103e-41 0.12619756 0.05096001 -7.777e-41
0002c0 1b ed 20 3e ce e2 31 bd 49 6d d5 3d 74 c6 35 bd
       0.15715449 -0.04342919 0.10421235 -0.044378713
0002d0 cf 3d 86 3d 20 f4 61 be 1e a5 3b 3e eb 06 02 00
       0.06554758 -0.22065783 0.18324706 1.86153e-40
0002e0 7c 9c fb 3d c9 d1 0c 3e d2 0a 01 80 45 2e 05 3d
       0.122857064 0.13751902 -9.5717e-41 0.03251483
0002f0 8a bf fa 3b ff c3 2e bd a7 66 4f be 75 82 56 be
       0.0076522278 -0.042667385 -0.20254003 -0.20948203
000300 e4 e1 ac bc 0d c9 53 3e 89 6e 01 80 7a b5 8b 3e
       -0.021103807 0.20682164 -1.31488e-40 0.27286893
000310 db 1a 5f be 1c 81 00 00 8d 83 14 be 9d d9 1e 3e
       -0.21787588 4.6316e-41 -0.14503308 0.155127
000320 f3 3d 79 3d 67 0d 69 3e cb c7 a1 be f5 98 88 3e
       0.060850095 0.22759019 -0.31597742 0.26679197
000330 ea c8 67 3d 0b bc 02 80 ee 67 b8 bd 5e a3 44 be
       0.05658809 -2.51128e-40 -0.09004198 -0.19202945
000340 f6 05 00 00 67 99 bc 3d 56 46 bc 3c 10 c0 c1 bc
       2.138e-42 0.09208947 0.022982758 -0.023651153
000350 69 c6 28 be c5 e6 d1 bc 1c 32 0b 3e 24 45 05 be
       -0.16481937 -0.025622735 0.13593334 -0.13014656
000360 8a a7 00 00 ee 3b 40 3d f6 54 c5 bd aa e1 00 00
       6.0102e-41 0.046932153 -0.09635346 8.0953e-41
000370 1c 44 90 3c c5 11 b6 bd 42 81 76 bd c2 e1 20 3e
       0.017610602 -0.08890108 -0.060181864 0.1571112
000380 12 55 28 be eb 89 05 3e 3e fa 36 be ff fb 00 80
       -0.16438702 0.13040893 -0.17868897 -9.0399e-41
000390 02 ee 04 3e e1 0c a7 3d 8a 25 02 00 43 7f c3 3c
       0.12981418 0.08156753 1.97137e-40 0.023864394
0003a0 fd b5 e2 3d f2 b0 c4 3d 66 7d 38 be 23 0d 54 bc
       0.11069868 0.09604062 -0.18016586 -0.012942585
0003b0 5d 1c 4a 3e 82 01 52 3c af ee 00 00 b4 a4 8d 3d
       0.19737382 0.012817742 8.5624e-41 0.0691618
0003c0 06 c0 6d 3d 85 d9 00 80 bb 06 e2 bd 50 f3 8b be
       0.058044456 -7.8031e-41 -0.1103644 -0.2733407
0003d0 7a e7 3b bc bc 67 a3 3d 5c 34 b8 bd c3 1b f0 3d
       -0.0114687625 0.0797877 -0.08994362 0.11724045
0003e0 57 63 68 bd e5 01 00 80 1e 7d 75 be de a2 a2 3e
       -0.056735363 -6.8e-43 -0.2397351 0.31764883
0003f0 7d c9 00 80 be dc fe 3c 35 20 72 3e 98 f5 83 bd
       -7.228e-41 0.031111117 0.23645099 -0.06443328

conv_layers.0.lin_skip.weight f4 [128, 32]
000000 00 16 e0 3d 78 f0 94 3d cc 23 6b 3d 86 5d e2 3d
       0.10941696 0.07272428 0.057407185 0.110529944
000010 cf 64 68 bc 66 6f df 3d e0 51 25 bd 33 cc c9 bc
       -0.014184191 0.109099194 -0.040361285 -0.024633503
000020 44 84 4b bd 2e 6f b1 bd 63 21 41 be 5f e3 36 bb
       -0.049686685 -0.08663784 -0.18860392 -0.002790652
000030 5a a3 57 bd 95 11 7e 3c 3c 66 78 bd 8b 24 54 3d
       -0.05264602 0.015507122 -0.060644373 0.051792663
000040 19 fb 31 be 51 e7 00 00 68 8c ff 3d 8c 1b 11 be
       -0.17380942 8.298e-41 0.12477952 -0.14170665
000050 bb d1 8b 3d 7e ad e0 bc 1d 36 02 80 98 2b 01 80
       0.06827112 -0.027426478 -2.03083e-40 -1.07474e-40
000060 c9 fc 1d 3d ef b2 68 bd c1 0e d2 3d 65 cd 29 bd
       0.038571153 -0.05681127 0.1025672 -0.041455645
000070 ec 98 00 00 4c 4b 00 80 1d 26 37 bd 60 58 35 3d
       5.4858e-41 -2.7011e-41 -0.044714082 0.044273734
000080 ea 2b 0e be 6f 67 07 bd f0 22 22 3e 5d 22 ba bd
       -0.1388394 -0.033057626 0.1583364 -0.090885855
000090 ba 17 da 3c 8c 55 b3 3b 88 9e 03 3d 68 d0 43 3b
       0.026622642 0.0054728445 0.03213361 0.0029878858
0000a0 e3 02 bf 3c 69 e0 9f bd 49 e3 4e 3e 65 60 bd bd
       0.023316806 -0.07806475 0.2020389 -0.092469014
0000b0 a1 de 0c be 0d c1 2a 3e 0b 06 ca 3b 4d f1 0b 3d
       -0.13756801 0.16675206 0.006165271 0.03416567
0000c0 00 30 3c 3e ba f1 00 00 17 c9 f7 3d 61 39 ed bd
       0.18377686 8.6715e-41 0.12098902 -0.1158321
0000d0 2f 45 28 3e 42 0e 20 3d 51 3d 00 80 d8 00 00 00
       0.16432641 0.039076097 -2.1996e-41 3.03e-43
0000e0 57 c5 5f bd f2 68 4b 3d fd cb 7e 3d c0 b5 0a 3e
       -0.054631557 0.04966063 0.062206257 0.13545895
0000f0 05 1c 01 00 57 13 01 00 70 66 55 3e 04 71 95 3d
       1.01887e-40 9.8773e-41 0.20839858 0.07296947
000100 5b fd 7f bc 0d fe 71 3d 00 e0 0c be a3 ca 40 be
       -0.0156243695 0.059080172 -0.13757324 -0.188273
000110 53 fe 4b 3d 3a 59 7b 3e e0 a1 18 be be 1b b6 3d
       0.04980309 0.24545756 -0.149055 0.0889201
000120 7f 5e 95 3c 07 aa dc bd cf cc 05 3e 4c e1 12 bc
       0.018233536 -0.10774618 0.1306641 -0.008964848
000130 71 fa fd 3c ca 29 02 3e 02 58 5a 3e f0 c0 24 be
       0.031003209 0.12711254 0.21322635 -0.16089225
000140 bc 14 ad bc e0 16 00 00 3a 7f 00 3e 6c dc 0e 3e
       -0.021128051 8.206e-42 0.12548533 0.13951272
000150 02 84 f1 bd 38 27 a5 3d 65 71 01 00 d6 a7 00 80
       -0.117927566 0.08064121 1.32514e-40 -6.0208e-41
000160 c3 ed df 3d cf 9c c4 3d 62 26 ce bc 39 a9 7a bd
       0.10934021 0.09600221 -0.025164787 -0.06119654
000170 19 01 00 80 f0 31 02 00 95 ff 3c be da 0d 41 3e
       -3.94e-43 2.01585e-40 -0.18456872 0.1885294
000180 14 2e b7 bd a2 7e ed 3c 89 03 53 3c d9 f7 f3 bc
       -0.089443356 0.028991047 0.012879261 -0.029781269
000190 bd 87 e8 bc 8a 43 9e bd 4b e5 e9 bd 67 8c 03 3d
       -0.028385038 -0.07727726 -0.11420687 0.03211632
0001a0 d0 bf 2c 3d e1 d9 1a be 38 14 80 bc a4 40 9b bd
       0.042175114 -0.15122177 -0.015634641 -0.075806886
0001b0 e5 56 64 bd e4 28 b8 3d d5 13 f3 3c 79 ca dc 3c
       -0.05574693 0.08992174 0.029672543 0.026952015
0001c0 78 18 eb bd 64 62 02 80 e3 8a 5a be 37 f3 25 3e
       -0.114792764 -2.18967e-40 -0.21342044 0.1620606
0001d0 f6 17 2d 3d c4 b6 62 bd d5 e8 00 00 25 05 00 80
       0.04225918 -0.05535008 8.3524e-41 -1.846e-42
0001e0 38 bd 5b 3b 6b d5 09 3e 6e 23 a4 bd 11 dc 06 be
       0.0033529531 0.13460319 -0.0801457 -0.13169886
0001f0 9e 2c 00 80 8f 2e 00 80 67 00 ee bd 44 16 8b bd
       -1.6006e-41 -1.6702e-41 -0.116211705 -0.06791356
000200 6c 2e d7 3d 36 59 3d bd a1 53 a4 3c bd 04 34 3c
       0.10506901 -0.046227656 0.020059409 0.010987458
000210 74 d9 26 bd 90 ec c4 bc 94 b5 5f 3e cf bb db bd
       -0.040734723 -0.024038583 0.2184661 -0.10729181
000220 0f df 6f 3c f5 5c 1b be 0d 84 7b bd 0a 80 09 3c
       0.014640584 -0.15172179 -0.06140523 0.008392343
000230 ff ed 04 3e 4e 4f 8e bd 53 d4 33 bd 28 f0 f5 bd
       0.12981413 -0.0694872 -0.04390366 -0.12008697
000240 ca 1c ee 3d 71 62 00 00 8f 45 d0 3d 01 2b a2 3d
       0.11626585 3.5314e-41 0.10169517 0.079183586
000250 0d 58 c7 ba b9 af 97 3d af 9d 01 80 26 02 01 00
       -0.0015208736 0.07406563 -1.48402e-40 9.2606e-41
000260 41 b6 aa bd 55 33 46 bd 9f 12 8d bc 73 1d 50 bd
       -0.083355434 -0.048388798 -0.017220793 -0.050809335
000270 c5 e1 00 00 49 67 02 00 44 47 d5 bb 5e 7e 41 3d
       8.0991e-41 2.20723e-40 -0.0065087397 0.047239654
000280 aa 74 99 bd bb 59 a2 bd 01 e5 2d bd 11 05 05 be
       -0.07492955 -0.07927271 -0.042454723 -0.12990214
000290 1a 60 57 3d 32 47 0a be ab 42 07 3e e8 90 38 bd
       0.052581884 -0.13503721 0.13209026 -0.04506007
0002a0 fb 1a a4 3d 55 86 40 3d b0 fb ab 3d 0e da f4 3d
       0.080129586 0.04700311 0.08397615 0.11955653
0002b0 e6 50 c8 bd 0d ec b8 3c c3 4a 21 be 70 10 96 3d
       -0.09781055 0.022573495 -0.15751176 0.07327354
0002c0 47 5e 33 3e 18 2c 01 80 11 82 90 bc 63 f0 4b be
       0.17516433 -1.07653e-40 -0.017640145 -0.19915919
0002d0 c1 e6 d9 bc 38 06 53 3c 23 28 01 80 01 1c 00 80
       -0.02659929 0.012879901 -1.06234e-40 -1.0046e-41
0002e0 f8 7c 8f 3d 28 4e 22 be 3a 71 53 3e 7b 59 b4 bd
       0.07006258 -0.15850127 0.20648661 -0.088061295
0002f0 ff 11 01 80 4a 00 02 80 12 9e 0d be 19 6a 0c 3d
       -9.8291e-41 -1.83775e-40 -0.1382983 0.03428087
000300 ce 29 00 3e 63 ab 06 bc 73 bc 8c bd 9a 78 1e 3c
       0.12515947 -0.008219573 -0.06871881 0.009672308
000310 ab c2 cc 3c fd 02 70 bd 6a 82 42 bc 27 67 14 be
       0.024995169 -0.0585966 -0.011871913 -0.14492474
000320 e4 f2 a2 3b 0b 04 a6 bd 8b 85 ff 3d 01 32 d5 bd
       0.0049728025 -0.0810624 0.12476643 -0.10409928
000330 e5 c1 ee bd 20 c8 0f 3e dd b4 b3 3b fc 23 80 3d
       -0.11658076 0.14041185 0.005484207 0.062568635
000340 25 97 47 be 51 5e 00 80 49 47 63 3d 60 af 08 be
       -0.19491251 -3.3834e-41 0.055487905 -0.1334815
000350 9e 48 00 be 4a 86 0d be 1d 41 00 80 c8 79 00 00
       -0.12527701 -0.13820758 -2.3358e-41 4.3687e-41
000360 22 39 7a 3d ba d7 49 be b1 3e 25 bd 7d 0e 33 3e
       0.061089642 -0.197112 -0.04034299 0.17485996
000370 65 2a 01 00 14 a9 00 80 4a 22 10 be f4 54 bd 3d
       1.07044e-40 -6.0654e-41 -0.1407558 0.09244719
000380 f9 bd 43 bc c4 da 4a 3c 93 7b a4 bc c0 bb a0 3d
       -0.0119471485 0.012381259 -0.020078456 0.078483105
000390 5b 68 b0 bd fd 58 43 bd 7b 0a 8c bd ea 3a 03 bd
       -0.08613654 -0.047692288 -0.068379365 -0.032038607
0003a0 7a ca 95 bd 94 9f 40 bd cc 0f 51 bd 79 ac 6f be
       -0.0731401 -0.047027186 -0.051040456 -0.23405637
0003b0 24 23 c0 3d 9c 49 d6 bd e6 34 92 3c 03 81 b7 bd
       0.093817025 -0.104632586 0.01784749 -0.08960154
0003c0 f6 5d 34 be 85 3e 00 00 2a 5a fa bd 64 80 46 3d
       -0.17613968 2.2428e-41 -0.12224229 0.048462287
0003d0 bf 6c 05 3b a4 54 b8 3d b5 f4 00 80 33 39 01 00
       0.0020359007 0.09000519 -8.7784e-41 1.12355e-40
0003e0 3e c9 65 bd b4 e4 e7 3b 3c bb eb bd 78 f8 85 bd
       -0.056100123 0.007076824 -0.115103215 -0.06541532
0003f0 6f b6 00 80 ad b5 01 00 2e cd 44 be e9 5d c1 be
       -6.5445e-41 1.57008e-40 -0.19218895 -0.3776696

conv_layers.0.lin_skip.bias f4 [128]
000000 28 3d 9e bd 31 75 16 be a7 67 0c bd d5 4c 33 3d
       -0.077265084 -0.14693142 -0.034278538 0.043774445
000010 61 b6 52 bd ba 1d 3d 3e f8 4d df 3d 5b 27 9b bd
       -0.05144346 0.18468371 0.10903543 -0.07575866
000020 24 88 c3 3a ce 99 46 3d 3d f6 9e 3d 75 78 de 3c
       0.0014917892 0.048486523 0.0776181 0.027157048
000030 41 28 fb bb 6f 4c bf bd 1f 3e ec 3c a3 cb 63 3d
       -0.0076647107 -0.093407504 0.028838215 0.055614125
000040 99 75 db 3c 60 22 aa 3c eb a3 28 bc 77 2b f8 bd
       0.026789473 0.020768344 -0.010292987 -0.12117665
000050 29 58 5c bc a8 c2 0e 3e 8c 73 b5 bc 64 f7 b6 bd
       -0.013448753 0.13941443 -0.022149824 -0.08933905
000060 dc 65 9c bb 5f 45 ef 3b 5f 88 27 be c2 15 0c be
       -0.004772885 0.007301971 -0.16360615 -0.13680175
000070 7b b4 cd 3d 5e c6 a2 3c a0 e8 7d bc 99 00 d9 3d
       0.100441895 0.01986998 -0.015497357 0.10595817
000080 60 47 16 bd a2 4b 82 3d 7f 60 22 be 06 69 04 3e
       -0.036689162 0.06362082 -0.15857123 0.12930688
000090 47 84 6d bd 27 35 0d bd 96 22 e1 bd 31 fb cb bb
       -0.057987478 -0.03447452 -0.10992925 -0.0062250127
0000a0 64 d7 93 3d 66 05 bd ba ce da f7 3d 98 ba f6 bd
       0.07218817 -0.0014421165 0.121022806 -0.12047309
0000b0 dc 29 e0 3c cd d1 09 bd 2a 3d e1 ba 00 1d 6c bd
       0.02736371 -0.033647347 -0.0017184366 -0.057644844
0000c0 d4 fa e7 bc 05 c2 e4 3d e4 1b db bc 20 4e 8d 3d
       -0.028317846 0.11169819 -0.026746698 0.06899667
0000d0 a1 a7 21 3d 04 ac 46 3c 00 36 20 bd 56 52 00 3e
       0.039466504 0.012125973 -0.039114 0.12531409
0000e0 fd b4 00 bd 45 e3 cd 3c 36 da c4 3d 0c 33 d2 bd
       -0.031422604 0.025132785 0.09611933 -0.10263643
0000f0 47 05 20 bd c0 40 c9 bc 1c 8a 01 3e 27 be 20 be
       -0.039067533 -0.024567008 0.12650341 -0.15697537
000100 09 2b 51 3d 3f cf e0 bd a6 86 fe bd 31 47 dc bc
       0.051066432 -0.10977029 -0.12428026 -0.026889415
000110 ff 87 b3 bc 43 22 0a 3e 0c c9 7f bd 06 1a d5 bc
       -0.021915434 0.13489632 -0.062447593 -0.026013386
000120 9a 82 00 3d f7 1f 2f bb 52 62 10 3e 1e 26 a3 bd
       0.03137455 -0.0026721933 0.14100006 -0.07966255
000130 0c f6 05 3e 8e 88 cb bc 17 30 9d bc 97 8f 09 be
       0.1308214 -0.024845388 -0.01918797 -0.13433681
000140 26 cb ae bd 17 b8 55 3d d8 4a 9a 3d c1 0c 26 bd
       -0.08534841 0.052177515 0.075338066 -0.040539507
000150 6f 1b 00 be a7 71 6f 3d 6b fd 54 3d 66 b6 a0 bd
       -0.12510465 0.058457997 0.05199949 -0.0784729
000160 d7 cf 21 3d 9e 1e 83 bc 47 19 95 3d 42 8a 96 3d
       0.039504852 -0.01600581 0.07280212 0.07350589
000170 bc d6 3d bb b8 4a 8a 3d 05 4e 35 bb 22 0f 10 3d
       -0.0028967103 0.06752533 -0.0027664911 0.03517068
000180 ac 7a 95 bd 11 66 f7 bd d4 67 0a 3d 9b 21 af bd
       -0.072987884 -0.120800145 0.033790424 -0.085513316
000190 a2 32 ce bd b5 24 dc bc 81 c8 84 3c ac 1a a3 bd
       -0.10068251 -0.026872972 0.016208889 -0.07964072
0001a0 4f e8 df bd 3c ef 2e be 4a 7c 02 3e e4 b5 12 bd
       -0.10932981 -0.17083448 0.12742725 -0.035817996
0001b0 86 52 2f bd 6a f2 2d be b1 c3 b2 bd e9 74 68 bd
       -0.04280331 -0.16987005 -0.087287314 -0.05675212
0001c0 1e cc 56 bd ca c6 98 bd 42 bb 93 3d c9 f6 87 bd
       -0.052440755 -0.07459791 0.07213451 -0.066388674
0001d0 25 f7 dc bd ba ed d5 bd 63 51 d1 bd ff cf 11 3d
       -0.107893266 -0.10445733 -0.102206014 0.03559875
0001e0 e3 b4 e2 bd 9e 5d 04 3d 15 b4 b3 bd 39 19 76 3d
       -0.11069658 0.032315843 -0.08774582 0.060082648
0001f0 f7 42 ef bb 9a 52 96 bb f4 02 8a 3d b3 32 8d 3d
       -0.007301684 -0.0045874836 0.067388445 0.06894436
